dcmm_sim/scripts/catch_it/assets/models/old/catch_two_stage1.pth (torch, 490794 bytes, 28 tensors)

sigma_t f4 [4]
00000000: 247d fcbf ca3f f9bf 5c15 fbbf 14ee a3bf
-1.972569 -1.9472592 -1.9615893 -1.2807031

sigma_c f4 [12]
00000000: e13a 923c 9ed2 a13d 1e76 e0bc 159a 863d
00000010: 1b81 623d 2b35 7e3d 7c81 7f3c ab62 d83d
00000020: 5e92 8b3d 33cd 153d 695a 393d 08e3 d63d
0.017850341 0.079015 -0.027400073 0.065723576 0.055298906 0.062062424 0.015594836 0.105656944
0.06815027 0.036572646 0.045252237 0.104925215

actor_mlp_t.mlp.0.weight f4 [256, 16]
00000000: cae7 973e d809 843d 242e 2c3c 4af6 e93d
00000010: 4a13 97bd fef9 ecbd cd68 043e 43e4 60bc
00000020: 6706 11bd 26b2 bcbd 218f debe 1509 9dbd
00000030: fe01 b53c b930 c33d 6238 9cbd 1fab 353e
00000040: dffa b83c 6278 0f3d fa3b ddbd d32f 633c
00000050: 61c8 19bd c537 08be 9a10 3e3c d79b 6dbe
00000060: 9466 7cbe c969 6dbd 7d79 b33d 284a 7abd
00000070: c178 7fbd fecc 38bd f546 a0bd 36cf fd3d
00000080: 5449 81bd 7616 9cbe 07aa 89be 6781 5d3d
00000090: 2efe 46bd 41b7 fe3d 52d6 da3d 3993 6fba
000000a0: ea3f 51bd 8264 763d 2478 d2bd 4bde 4c3e
000000b0: 02ca b8bd 0e5e 7bbd 07c4 493d bef2 3d3d
000000c0: 9eb0 dabd 5e64 c03c 7350 55be d16f d63c
000000d0: 3efc 08bd 00ba 8a3d ce1a 813e bf24 e03d
000000e0: ed40 c13d 30b5 373a 2c5d 7ebd b347 edbc
000000f0: 5b14 0a3e 05a3 45be abaf e5bd 7025 c13d
00000100: af68 5d3d beb3 943e 5af2 0abd 7bde 3c3d
00000110: 4199 babd cca6 0f3d a676 da3d b687 67be
00000120: 1bed c3bd 294d 26bc 878e 093e 1e7e 983c
00000130: c30b 3b3b 2239 653e 79e6 2cbe cdbe 203d
00000140: 7df8 013e 4758 b93a 6a55 78be 3cd9 68be
00000150: a406 243e c71a 973d 9f28 463d 2c00 c8bd
00000160: b6ad 85bd 3a4e 5dbd 693e 9e3e e4fb 7fbd
00000170: 1f9e 4b3e 3d1f 05bd 003f 46bc d781 b93e
00000180: a6ff 923e a4ef 683e 6b13 903d 27b6 dd3d
00000190: 1c1f 7b3c 55fc 023e f119 073e ceea 29be
000001a0: 4d23 f23d 6bf5 f43d a420 003e ab20 00be
000001b0: b6f4 e6bd 5703 7fbc 3b06 7ebe f8a0 51bb
000001c0: d643 0bbe 5f93 83bd c623 c4bd c71e 543d
000001d0: 1836 103d 3bab 04be 48ed 023e 7fcb 863d
000001e0: 9746 e33d b689 b4bd f174 c6bd 0457 e1bd
000001f0: c4bf 24be bc5c 19bd 6b9a ddbc 2ab5 10be
00000200: 9372 f03c d7c3 d03d fc1e 823d b734 74bd
00000210: 8062 1ebd 1ffe 1abe d626 b8bd 15d7 43be
00000220: f05f e2bd 1602 99bd 9e58 db3d 467a dfbd
00000230: 7c52 2a3e aeaf 2f3e ccc7 b33d c965 753d
00000240: e8ad 213d a7c4 de3d 5f1e 2abb 7f65 86bd
00000250: 19b9 8cbe 699d 11be 4323 ac3c d992 28be
00000260: f610 e63d bb24 65bd d097 543e ccc1 3bbe
00000270: 05e4 92bc d009 9abd 3f22 32be 9d74 9e3d
00000280: e974 903e 35df f23c b254 263e 116e 2d3e
00000290: d1ea 513d efc0 e6bd e907 ee3d b791 733c
000002a0: 910a eabd 1e76 a3bd 0412 1b3c e20c 5b3e
000002b0: 7486 223b b0a4 b3bd 1947 6c3d b9bf 9ebd
000002c0: d51b 273e f69a 813e 8043 41be 8643 afbd
000002d0: 0a1f 2abc 5033 ff3d 2e41 343d 362b b03d
000002e0: e5a5 853d ffd9 203e 9642 313d 62f8 60bd
000002f0: 8a78 833d 0a6b 95bd 7a31 63be 2ae3 2bbc
00000300: a734 f33d 6ff9 843e 10c7 053e f3f2 76bd
00000310: e858 10be 1208 b53b 7667 533e 8bb2 ea3d
00000320: 0ed9 4bbd 4730 a63d 4b14 b2bd 2ed3 73bd
00000330: 33e7 7e3e bd76 f23d 0860 78be 9156 833c
00000340: 0d67 45be ffa5 f3bd 80d2 30be 8248 ebbd
00000350: 3884 85be b7b2 9dbc 3a3c 9ebc c422 16bd
00000360: 24d1 73bd 35b0 d43c 068c 12bc bccb 10be
00000370: aa0a a2bd 5a9d 37be 67f6 e6bd c971 fd3d
00000380: e43c 993e 61e9 b63d c434 b53d d372 3c3e
00000390: 328a 2f3d 29a0 98be 3c9f 233e 3075 e5bd
000003a0: e6f1 723b f53d b1bd b549 5ebd ab72 87be
000003b0: 0b67 843e e798 1cbe caf3 843d 5069 a63d
000003c0: 70ee 95be 9042 43be 72e6 833c dda2 f53d
000003d0: a6f2 c93d 1854 c93c e7fb 0fbd 7ab0 2f3c
000003e0: 5a0a 94be bc1a 0c3e c444 c03d a7a4 7b3e
000003f0: 034d c6bd 8ca4 44be 3041 273e e39d 28be
0.2966903 0.0644719 0.010509048 0.11423929 -0.07376726 -0.1157112 0.12930603 -0.013726297
-0.035406496 -0.092136666 -0.43468574 -0.07667748 0.022095677 0.095307775 -0.07627942 0.17741059
0.022580562 0.035026915 -0.10802455 0.013866383 -0.03754461 -0.13302524 0.011600638 -0.2320398
-0.24648505 -0.057962213 0.087634064 -0.061105877 -0.06237102 -0.04511737 -0.07826034 0.12393038
-0.06312814 -0.30485886 -0.26887533 0.054078486 -0.04858225 0.12437297 0.106854096 -0.00091390644
-0.051086344 0.060154445 -0.10276821 0.20006673 -0.09022905 -0.061368994 0.049259212 0.046374075
-0.10678218 0.023485359 -0.2083147 0.026176365 -0.033443682 0.06773758 0.25215763 0.10944509
0.09436212 0.0007007895 -0.062100574 -0.028964853 0.13484327 -0.19300468 -0.11215147 0.09430969
0.054054912 0.29043382 -0.03392253 0.04611061 -0.09111262 0.03507118 0.10667162 -0.22610363
-0.09566709 -0.010150232 0.13433276 0.018614825 0.0028540946 0.22385076 -0.16884793 0.03924446
0.12692447 0.0014140689 -0.24251333 -0.22739118 0.16018158 0.07378154 0.048378583 -0.09765658
-0.06527273 -0.05402968 0.3090699 -0.06249608 0.19884537 -0.032500494 -0.012099981 0.36231872
0.2871067 0.22747666 0.07034954 0.108257584 0.015327241 0.1279157 0.1319349 -0.16593477
0.11823139 0.11960872 0.12512451 -0.12512462 -0.11277144 -0.015564761 -0.24807064 -0.0031986814
-0.13600096 -0.06424593 -0.09577136 0.051787164 0.035207838 -0.12955944 0.12785828 0.065817825
0.11097448 -0.08815329 -0.096902736 -0.11002925 -0.16088778 -0.037441954 -0.027051171 -0.14131609
0.029351508 0.101936035 0.06353566 -0.059620585 -0.038668156 -0.15136002 -0.08991782 -0.19125016
-0.11053455 -0.07471101 0.10710262 -0.10911994 0.16633028 0.1715686 0.087783426 0.059911523
0.03947249 0.10877352 -0.0025958044 -0.065623276 -0.27484968 -0.14220203 0.021012908 -0.16462268
0.11233704 -0.055943232 0.20761037 -0.18335646 -0.017930994 -0.07521403 -0.17395876 0.07737086
0.28214195 0.029647449 0.16243246 0.16936518 0.05124933 -0.11267268 0.116226025 0.014866284
-0.11427797 -0.079815134 0.0094647445 0.21391633 0.0024799379 -0.08771646 0.05768499 -0.07751412
0.16319211 0.25313538 -0.18873405 -0.08557801 -0.010383377 0.12460959 0.044007473 0.08601992
0.065257825 0.15708159 0.043276392 -0.054924376 0.064194754 -0.07295807 -0.22186843 -0.010491172
0.11875277 0.25971553 0.13064218 -0.06029029 -0.14096415 0.0055246437 0.20644936 0.114598356
-0.049767546 0.08114677 -0.08695277 -0.05952757 0.24892883 0.11839054 -0.24255383 0.016032489
-0.19277592 -0.118968956 -0.172678 -0.11488439 -0.26077437 -0.019250257 -0.019315828 -0.03665425
-0.059525624 0.025962928 -0.008944517 -0.14140218 -0.0791219 -0.17931119 -0.11277466 0.123752184
0.29929268 0.08931232 0.08847955 0.18403177 0.042856403 -0.29809693 0.15978712 -0.11203992
0.0037070452 -0.086543955 -0.05426951 -0.26454672 0.25859866 -0.15292703 0.064918116 0.081255555
-0.29283476 -0.1906836 0.016101096 0.11993954 0.09860735 0.024576232 -0.035152342 0.010723228
-0.28914148 0.13682073 0.09388116 0.24574529 -0.096826576 -0.19203395 0.16333461 -0.16466479

actor_mlp_t.mlp.0.bias f4 [256]
00000000: c06d 1abe 28df 213d 4ae4 00be bb52 163e
00000010: 9716 633e 67fb 483e 0635 f33d 6586 60be
00000020: f475 313e 9662 e2bd b24e 833d 2c47 5e3d
00000030: 71eb 603e b0f1 79be a13b 6c3e d0ec da3d
00000040: 2162 cc3d b281 703e bb73 f03d 3b71 363d
00000050: efa1 913d 2a7f 3e3d 9be6 d33c a5d4 c53d
00000060: 7648 45be 5f09 21be 3a08 84be 2d63 103e
00000070: e6d6 30bb e00f 3fbd ce2d 2e3e 00bb 813c
00000080: b35e 33bd 0d80 063e 358d 8ebd ab56 9ebc
00000090: 3891 d23d bced 28bd 7ce5 963d 83bf abbe
000000a0: 725c 4cbc 2890 4c3e daf1 43be 87cd e83b
000000b0: e076 4cbd e9e8 3ebe dc90 a0bc 818b 24be
000000c0: 4c57 eb3d 453b 91bd ac6d 03bd 0540 45be
000000d0: ec7e e73c cff0 f73c 7c41 3f3c c235 ebbd
000000e0: b191 f2bd d348 a6bd c3df 503e 231e 00bd
000000f0: 38cd 3dbe 4a37 03be ac24 b6bd fd70 0f3e
00000100: 041e 96bd f826 5cbe 84b4 573e 1af7 883d
00000110: 2e29 d5bd 8fb6 4c3e ad86 533e b983 1b3e
00000120: 70d8 1dbd 83b3 0fbe 54b2 6a3e 60fd 543e
00000130: a84a bfbd ad89 2cbd 4434 f33d 444c de3c
00000140: e6b7 b03c 9b8b 68be 8e2a 18be f7e0 253e
00000150: 0b05 9abc ab70 23be b2f8 b9bd bba7 dc3d
00000160: cb5d f53d 80c6 a1bd a53b 0f3c bf58 403d
00000170: 902b 69bd 090a 8a3d 9a02 46be c91e 303c
00000180: c60f 8d3d 5c4a ecbd 6e2b b2bc 1751 3fbd
00000190: dd6a 143c 546e 843d ca8d 7dbc 14ef de3d
000001a0: e8a2 55bd beb0 52be 8090 97be dab7 00be
000001b0: f154 64bd 1339 833e c273 003d f22a db3d
000001c0: 2e6c 9539 e99c 02bd 9960 553e 58f1 8bbe
000001d0: 6251 6f3d 3c75 72be 761a fcbc 2140 87be
000001e0: 91c3 e6bd 731b 033e 796f fe3d c120 033e
000001f0: 1aa1 9a3e 54fd 913d f384 0ebe ac3f 6fbd
00000200: 91e3 113d ad0d ebbd 81c2 343c 9eb9 ce3d
00000210: 9783 a33c 5ffd 7dbd 6e56 0c3e 85b2 f8bd
00000220: f2fe ee3d a909 dcbd 5b01 0d3e 251c 17be
00000230: 9118 8f3e 1a0a 09be 8158 863e 71f3 9ebd
00000240: 8e89 ab3d d1b6 a43d ecb7 96be 9fa1 b03e
00000250: 7bbc 523d 1ef2 9f3d 3fd3 b03c 59be 6cbe
00000260: c2cb c73d 4e0f 463e 74b7 003e cbc6 253e
00000270: ab85 32be 1030 6c3e 178d 883c 30d7 93be
00000280: 8565 603d a198 a1be a408 233b 22ef a83d
00000290: 1222 25be d1f0 8c3d 79c1 5f3c 2a5e 86be
000002a0: dc87 23bd 572c d83c 698d efbd 7184 b43d
000002b0: 9eca c4bb 0d4f 59bd 0a24 1ebc 7927 823b
000002c0: f5c8 ddbd b590 32be d97a 363e ad25 c93d
000002d0: 819c 4b3d 2a50 5fbd 7ebb 203d b2c3 8abd
000002e0: 9a2b 85bd 486f 823e 127d ed3d 840f e4bd
000002f0: 3d6f 3dbc 8042 863c 95ae 853d 972f 6c3d
00000300: 4d3a 99bd adb3 70be 5250 0e3e 092c cc3d
00000310: fe3c 1d3d 6ca2 6fbd 7033 14be a7ed ef3d
00000320: e3e8 38be dbc2 953d 78ef 01be eb80 5e3c
00000330: 91a6 86bc 1dac 693e f079 31be 488a eb3d
00000340: 2b9f abbc 2ddd c23d e841 f8bc 9622 19bd
00000350: c160 2cbd 5cf0 50bc 5d3f b33e 35a3 f4bc
00000360: 2677 85be e00f c4bd ca37 31be d667 a23c
00000370: 061d 08bd 3b7c e93d 2ae5 f63b 7049 7d3d
00000380: b796 473e 4498 19be 516f 9b3d 66fc 383e
00000390: 7d32 8d3d 9bf3 163d b0ae 51bd da6d 61bd
000003a0: 492f 1ebe a23e 36be e151 5bbd ecd0 7e3e
000003b0: 8226 0abe 2185 93bd b7ea 953d e5f2 67bc
000003c0: 701d b93a ca01 813d c843 3ebe 59ac b13d
000003d0: d59a 713d d53a ab3d c636 93be 23d2 6abe
000003e0: d610 e1bd 9583 58be 6deb 40be 8406 423e
000003f0: a515 453e 0e2c 5bbe d900 03be 0909 4ebe
-0.15080929 0.03951946 -0.12587085 0.14679997 0.22176586 0.19627152 0.11875348 -0.21926267
0.17330152 -0.1105396 0.06411494 0.054267094 0.21964814 -0.24408603 0.23069622 0.106897
0.09979654 0.23486975 0.11740824 0.04454158 0.071109645 0.04650799 0.025866797 0.09659699
-0.19265923 -0.15726231 -0.25787526 0.14100333 -0.0026983558 -0.046646 0.1700966 0.015836239
-0.043791484 0.13134785 -0.06960527 -0.019328436 0.102816045 -0.041242346 0.073679894 -0.3354455
-0.012473213 0.19976866 -0.19135228 0.007104579 -0.049918056 -0.18643536 -0.019600324 -0.16068842
0.1149126 -0.07091383 -0.032087013 -0.19262703 0.028258763 0.030266194 0.011673328 -0.11484863
-0.11844195 -0.08119359 0.20397858 -0.03127874 -0.18535316 -0.1281406 -0.08893713 0.14007945
-0.07329944 -0.2149924 0.21064955 0.06687756 -0.10408245 0.19991516 0.20656843 0.15186967
-0.03853649 -0.14033322 0.2291959 0.2079978 -0.093404114 -0.042123485 0.11875203 0.027135976
0.021572065 -0.22709505 -0.14859983 0.16199099 -0.018801233 -0.15960948 -0.09080638 0.107741795
0.1198078 -0.07899189 0.008742248 0.046959635 -0.05692631 0.06740195 -0.1933693 0.010749527
0.06887774 -0.115376204 -0.021749225 -0.046708193 0.009058681 0.06466356 -0.0154757 0.10885444
-0.052157313 -0.20575234 -0.29602432 -0.12570134 -0.05574507 0.25629482 0.031360395 0.107015505
0.00028500095 -0.031887922 0.2083763 -0.27332568 0.058427222 -0.23677534 -0.030774336 -0.26416114
-0.1126777 0.1280344 0.124236055 0.12805463 0.30201036 0.07128397 -0.13917904 -0.05841033
0.035617415 -0.11477218 0.0110327015 0.100939974 0.019960208 -0.06200921 0.13704845 -0.12143425
0.11669721 -0.1074403 0.13770048 -0.1475683 0.2794843 -0.1338276 0.26239398 -0.077612765
0.08375846 0.08042682 -0.29437196 0.34498307 0.05144928 0.07809852 0.021585105 -0.23119487
0.097556606 0.19341776 0.12569982 0.16189115 -0.17433803 0.2306521 0.01666884 -0.28875113
0.054784317 -0.3156176 0.0024876976 0.08248736 -0.16126278 0.068818696 0.013656967 -0.26243716
-0.039924487 0.02638833 -0.11696894 0.08814324 -0.006005599 -0.053053904 -0.009652147 0.0039719907
-0.10829345 -0.17438014 0.178203 0.09821639 0.0497098 -0.05451981 0.039241306 -0.06775607
-0.06502457 0.25475526 0.11596121 -0.11135772 -0.011562166 0.016389132 0.065274395 0.057662573
-0.07481823 -0.23506041 0.13897827 0.099693365 0.038388245 -0.058504507 -0.14472747 0.117152505
-0.18057589 0.07312556 -0.12689006 0.013580541 -0.016436847 0.22819562 -0.17331672 0.115009844
-0.02094992 0.09514842 -0.030304864 -0.0373865 -0.04208446 -0.012752619 0.3500928 -0.02986298
-0.26067466 -0.095733404 -0.17306438 0.019824903 -0.033230804 0.11400648 0.0075346427 0.061837614
0.19491087 -0.14999491 0.07589591 0.18065032 0.068943955 0.036853414 -0.051191986 -0.055036403
-0.15447725 -0.1779733 -0.053544883 0.24884385 -0.13491252 -0.07203127 0.07320159 -0.014157032
0.0014123153 0.06299169 -0.18580544 0.08675451 0.05898555 0.08360831 -0.28752726 -0.22931723
-0.10989539 -0.21143945 -0.18839808 0.18947798 0.19246538 -0.21403524 -0.12793292 -0.20120634

actor_mlp_t.mlp.2.weight f4 [128, 256]
00000000: 117a 16be c713 d03d af8e fe3d 9836 91bd
00000010: d0de 4bbd 856b 10be 10f9 38be 53a4 9cbc
00000020: 8e20 4dbd 5756 d03d 7757 f3bd 6b00 66be
00000030: 8510 9dbd f679 343e d67e c3bd 23b4 0b3e
00000040: 2a67 eb3d 82f4 01be aeaf 81be 07e6 b93e
00000050: 3bbd a6bb 9a13 60bd 0a79 c5bd 3287 8f3e
00000060: 28b3 16be 7321 8fbd 8da4 de3c 41f6 6b3e
00000070: 9766 4bbc f59c 68bc c2ce 6f3d ac5e 1cbc
00000080: b910 69be 7121 123d 300e 803d 9dda b1bd
00000090: a1c2 dc3c 373d 0dbe 28a5 1cbd f8b0 523c
000000a0: 94b9 233d 9f52 203d 0d1c acbd 63db 953d
000000b0: 9a21 23bd de68 2c3d 5db2 1abe 0a09 413e
000000c0: 572a 86bd 91b2 e03c f6c9 33bd ef3d 91bd
000000d0: 2879 b03d 12e3 a03d 2a85 51be 8562 82be
000000e0: 271f 693d 61a3 2dbe 8496 80bc 5ab7 d33d
000000f0: a09f 323e 99a8 393e b0b6 fbbc dcb9 5b3d
00000100: 661c 453e 50b0 03be 8ec3 d03d 68ba a1be
00000110: 4530 7f3e f9df c73d d06e acbd a64b 353d
00000120: 12a0 4d3e a1ed 12be 2278 083e 910e 75be
00000130: 3cc6 11bd 6bd1 e53c f92b c63d eb4e cb3b
00000140: 5b26 80be 309e 0d3b db44 aabd d04c 353e
00000150: 0944 d3be 221b 423d a2d6 35bd c0ba bcbd
00000160: 3045 8f3d bcc6 a8bd b7f4 8a3b 998f be3e
00000170: 0d67 3d3e 5645 4dbd a244 aa3d f066 953e
00000180: 0d5c 44be ee19 04bd 0bb7 363d d361 f3bc
00000190: 3417 c6bd 6004 33bd 866d 423e bf79 a1bd
000001a0: 3cbe 03bd 67ab cdbe 6de3 143e b978 28bb
000001b0: b472 eebc aced bb3d 1e94 69be a0a7 1ebe
000001c0: cfcf a5bc ef84 dbbd 8393 87bc 732b 173d
000001d0: 2506 4e3e ebb2 f03d 2b4b de3c 1f0f a03c
000001e0: 97c2 cd3d 68f3 9b3d 5198 87be 66a5 14be
000001f0: 7c17 11bd b135 a2be 715d 5c3e 9e4e c03d
00000200: 70a8 afbd 3b6b 9fbd 3e92 f4bb b496 923d
00000210: 4f3d 153e f174 79bd 5ee5 833e 0c46 423d
00000220: a81e 9d3d 5cdd e3bd 6f56 5d3e 9e89 3dbd
00000230: 4d00 98bd f3bf d73d c334 85be d7e2 393c
00000240: 405e 2a3a e02e 96be cff2 06be 59b3 08be
00000250: 881b f5bc b455 f6bd 21b9 a0be 49b9 58bd
00000260: e259 3b3d ea0d bb3d 349b 82bc 88ee 1dbe
00000270: ec47 c43d 127b 843a 1de9 aebd ad86 61be
00000280: ab33 413e 1e76 963d 5119 a2bd f531 d83d
00000290: 0411 883e cfb7 01bd f6d6 653e 46ea 89be
000002a0: 3038 bd3d 288d 8bbe e326 83bb b9b1 85be
000002b0: 1a8d c2bd fb24 ac3d 04ed f7bd 814e 1bbd
000002c0: f32e 96bc 5ac2 8dbe 0136 0e3d 6099 a83d
000002d0: 05f6 de3c 6696 75bd c726 cdbd 91d3 49be
000002e0: a9a2 aa3e 0452 c6bd ad49 cebc 733c 0abe
000002f0: c59c 39bd 7ed7 c5bd fff2 e33a df43 893d
00000300: de17 fb3d 611e 7dbd ae23 08bd 9cdb 2dbe
00000310: 910a 49be 6fde 2ebe dbb9 623d 7dc0 f0ba
00000320: 313b 843e 2fde 4abe 68e2 7a3c c59c 5b3d
00000330: f2f4 dbbd 0cdd bbbd ae9c 9abd 1758 f33d
00000340: bed6 bb3c b00f 323e 2f5d 493d b0ad d6bc
00000350: e753 1d3e 2f0d 02bc 468e 24be eb42 24be
00000360: d174 0c3e c026 383e 5e47 d63d 84bb bb3c
00000370: 65d8 643e c059 95be 02d6 fc3d 28a5 42bd
00000380: e04c 633e c48e 693d 6eac e9bd c17b 81be
00000390: 0e8d e1bd 061a d73d 8351 493e 75b3 31bc
000003a0: 0218 0ebe 118f 7abd a004 313e 8e8e d0bd
000003b0: 4bad 6ebe c810 1f3d 2cb6 76bc 279f e1bc
000003c0: 55c4 a2bc 0e86 51be fb10 a43e fde5 a7bd
000003d0: 9811 fb3c 0719 503e 5447 9e3d 65ea 2fbc
000003e0: 965c 6e3b 1261 82bd b637 bb3b be2f 6cbe
000003f0: c88a 643e af37 8cbd f347 803d 7fef 39bd
-0.14695002 0.10160022 0.124295585 -0.07090491 -0.049773037 -0.14103515 -0.1806376 -0.019121325
-0.050079875 0.10172718 -0.11881917 -0.22461097 -0.076691665 0.1762465 -0.095456764 0.13642935
0.11494286 -0.12690929 -0.25329345 0.3630831 -0.005088476 -0.054706194 -0.09642227 0.28032833
-0.1471678 -0.06988802 0.027178073 0.23043157 -0.012414596 -0.014197578 0.05854679 -0.009544056
-0.22760285 0.035676423 0.06252706 -0.08684275 0.026948275 -0.13792883 -0.038243443 0.012859575
0.039971903 0.039141294 -0.08403788 0.07317235 -0.039826967 0.042092197 -0.15107103 0.18851104
-0.065510444 0.027428897 -0.043893777 -0.07091891 0.08616859 0.0785581 -0.20460954 -0.2546579
0.056914475 -0.16956855 -0.015696771 0.10337706 0.17443705 0.18130721 -0.03072676 0.053644046
0.19249114 -0.12860227 0.10193549 -0.3158753 0.24920757 0.09759516 -0.08419573 0.044261597
0.20080593 -0.1434846 0.13327077 -0.23931338 -0.03558944 0.02805396 0.09676356 0.006204476
-0.25029263 0.002160918 -0.083139144 0.17705083 -0.41262844 0.047389157 -0.044394143 -0.09215307
0.06995618 -0.082410306 0.004240598 0.3721893 0.18496342 -0.050114952 0.08313872 0.29180098
-0.1917574 -0.03225129 0.044608157 -0.029709732 -0.096723944 -0.043705344 0.18987092 -0.07884549
-0.032163844 -0.40169832 0.14539881 -0.0025706722 -0.02910743 0.09176192 -0.22810408 -0.15493631
-0.020240692 -0.107187144 -0.016549831 0.03690667 0.20119531 0.11752876 0.027135452 0.01953846
0.10046881 0.076147854 -0.26483396 -0.1451622 -0.035422787 -0.31681588 0.2152002 0.09389995
-0.08577049 -0.077841245 -0.0074637225 0.071576506 0.14574169 -0.06090254 0.2576093 0.047430083
0.07671863 -0.11126205 0.21615003 -0.04627382 -0.07421932 0.10534658 -0.26016816 0.011345587
0.00064990297 -0.29332638 -0.13178562 -0.13349666 -0.029920354 -0.12028065 -0.31391242 -0.052911077
0.045740016 0.09133513 -0.015943147 -0.15423024 0.095840305 0.0010107479 -0.085405566 -0.22024031
0.18867366 0.07346748 -0.07914985 0.105564035 0.26575482 -0.031669434 0.22445282 -0.2693655
0.092392325 -0.2725613 -0.0040024384 -0.26112154 -0.09499569 0.08405491 -0.12105754 -0.037916664
-0.018332934 -0.2768734 0.03471947 0.08232379 0.02721692 -0.059957884 -0.10017162 -0.19709612
0.33327225 -0.09683612 -0.025181616 -0.13499622 -0.045315523 -0.096602425 0.0017391144 0.067023985
0.12260412 -0.06179655 -0.03323715 -0.16978306 -0.19632937 -0.17077039 0.055353027 -0.0018367913
0.2582641 -0.19811319 0.0153127685 0.053616304 -0.10740079 -0.09173021 -0.075494155 0.11882036
0.022929545 0.17388797 0.049161132 -0.026205868 0.15364037 -0.0079377135 -0.16069898 -0.16041152
0.13716437 0.17983532 0.10462831 0.022916563 0.22348173 -0.29170036 0.12345506 -0.047520787
0.22197294 0.057020918 -0.114098415 -0.2528973 -0.11013232 0.105030105 0.1966 -0.010846009
-0.13876346 -0.061171595 0.1728692 -0.1018344 -0.23308294 0.038834363 -0.015058082 -0.02754171
-0.019869009 -0.20461294 0.32044205 -0.08198164 0.030648038 0.20322047 0.077284485 -0.010737036
0.0036371103 -0.06366171 0.0057134284 -0.23065087 0.22318566 -0.06846558 0.06263723 -0.045394417

actor_mlp_t.mlp.2.bias f4 [128]
00000000: d886 dc3c 5ba1 56be 3e95 49be 26e7 4a3d
00000010: 4935 36be 3eb5 4ebd 1364 19be c245 1bbe
00000020: 0bfa 2fbe c80f 40be a897 24bd d691 47be
00000030: f4a7 5fbd ec2a 12be 3764 09be 7b7f d9bd
00000040: a42d 63be 42d7 83be 88d3 e9bd 4488 3cbd
00000050: a8ed 8ebe 2084 40be 1ed5 21be 3d8e 65be
00000060: e10c d7bd b17b acbd 8e8f 5e3c 7e45 1dbd
00000070: 8887 863d df4b 06be 542c 75be 409e 07be
00000080: 73a3 6dbe 4aaf ea3c 1892 72be 146b 28be
00000090: f514 a83d 47c3 41be d442 40be 3ba7 17be
000000a0: 140a 89be 8f6c 8ebe 3d37 6dbe 7e83 803d
000000b0: b87b c3be 3306 90be 394d 0cbe 7ce3 b0bd
000000c0: 9726 42be 17e4 f7bd b6a5 2fbe 04c6 22be
000000d0: 3f26 17bc 3945 39be a7c0 2abe 93bf debc
000000e0: 9adf aebe d043 23be 3995 66bd da33 9bbd
000000f0: 1fef 91bd b8b0 8fbe 8e31 36be 681d c7bd
00000100: 06dd a63d a466 28b9 a9ab 2abe 6c1d 68bd
00000110: 0819 bdbd 0377 f5bd d8cf 98bc 49d4 aabd
00000120: 4a7f 6fbe e5e1 d6bd 079f 49be f2c8 debd
00000130: e9ed c2bd 7b0b 0cbe 80db 40be e403 b4bb
00000140: d9d0 04bd dbe3 5abd 9597 65bd 71c2 5dbe
00000150: b771 0fbe 8ff6 8ebd fd27 4abd 2ca2 31be
00000160: 5488 2ebe 26bc 8bbe df2e 16be e40d 82be
00000170: 9d8d cabd 27d8 14be fc92 a5bd 0a2b a5bd
00000180: 3d5b 9dbd 3613 efbd 6d2a 96bd 9d33 6dbe
00000190: 0918 3fbd 7a95 9abd 46a9 24be 9a64 67be
000001a0: 0976 85bb 518a 3ebe d6b2 adbd e37c be3c
000001b0: ee72 09be 6a67 efbd 16be 48bc dcc9 8abd
000001c0: 2d13 a1be 3db6 c2bd d713 5bbd 24fb b3bd
000001d0: de1b 29be 854a c5bd 9e34 81bc 8c7e 6ebe
000001e0: 887c 13be e93a ac3a d2a1 36be 6823 22be
000001f0: 3959 1fbe 71d9 afbd 2333 7fbe a3e2 2dbe
0.026919767 -0.2095999 -0.19685838 0.049536847 -0.17793764 -0.050465815 -0.14979582 -0.15163329
-0.17185228 -0.1875602 -0.040183693 -0.19489226 -0.054603532 -0.14274186 -0.13417135 -0.10620018
-0.2218538 -0.25750166 -0.114172995 -0.04602839 -0.27915692 -0.18800402 -0.15803954 -0.22417541
-0.10500503 -0.0842203 0.013584031 -0.03839635 0.06568819 -0.1311488 -0.23942691 -0.13243961
-0.23206882 0.028648037 -0.23688543 -0.16447097 0.08207122 -0.18922149 -0.18775493 -0.14809887
-0.26765501 -0.278172 -0.23165603 0.0627508 -0.38180327 -0.2812973 -0.13701333 -0.08637139
-0.18960033 -0.121040516 -0.17153057 -0.1589585 -0.009225427 -0.18092813 -0.16675054 -0.02719096
-0.3415497 -0.15943837 -0.056294654 -0.07578249 -0.07125687 -0.28064513 -0.17792341 -0.09722406
0.081476256 -0.00016059965 -0.16667046 -0.056668684 -0.0923329 -0.1198559 -0.018653795 -0.083412714
-0.233884 -0.10492305 -0.1968957 -0.10878171 -0.09518034 -0.13676254 -0.18833733 -0.005493628
-0.032425735 -0.053439956 -0.056052763 -0.21656205 -0.14008223 -0.06980621 -0.049354542 -0.1734702
-0.17044193 -0.27291983 -0.14666317 -0.25401223 -0.09890292 -0.1453558 -0.08084676 -0.0806485
-0.07683418 -0.11673586 -0.07332311 -0.2316422 -0.04665378 -0.07548042 -0.16080198 -0.2259697
-0.004072909 -0.18607451 -0.08481376 0.02325291 -0.13422748 -0.116896465 -0.012252351 -0.06776783
-0.31459942 -0.095074154 -0.053485718 -0.08788136 -0.16514537 -0.09633354 -0.01577216 -0.23290461
-0.14402974 0.0013140115 -0.17835167 -0.15833819 -0.1556138 -0.085863955 -0.24921851 -0.16980986

actor_mlp_c.mlp.0.weight f4 [256, 28]
00000000: 56f3 1dbe ae36 22bd 1014 1fbd 9f1a 133e
00000010: bed9 48be 655e cf3d e7f2 8bbd 3333 c0bd
00000020: b568 6abd 941f 1c3e fbca 8dbd 1aad 1f3e
00000030: 2c69 ffbb 5641 81bd 75d3 423d ab6a 17be
00000040: b817 42be 3e50 55bb cfba 3b3c a015 903c
00000050: dde9 d4bd c740 22bc acbd 433e 5e9b 83bd
00000060: 57f8 423e a34c a2bd c336 2c3d d19a 32bc
00000070: d422 74bd ed32 793d 106c e9bd cd6b 973d
00000080: a53e 053d dc32 2ebe b7ac 29be f58c 433e
00000090: 3484 b33d 89e8 1c3e ec31 4f3d 223c 72bd
000000a0: 80e9 2bbd 5acd e63d 959c 73be 5f25 7e3e
000000b0: a2a0 1fbe 238e 7dbd 945e e0bd 559d 153d
000000c0: 1dd1 0c3e e80b 59be d0e2 ebbd 5b7d d33d
000000d0: 0fca fd3d 76be 2cbc 0569 debc 0938 b8bd
000000e0: 6752 1e3d 2cf4 a43d 18b3 41bd 6c31 c2bd
000000f0: 536d d3bd 3a05 123e c922 37bd 4e69 523e
00000100: f485 1abe 562f b23d 56d6 e13d cce6 2fbd
00000110: b95b a2bd 1f52 563c a4f7 9abd 1220 20be
00000120: 6cc2 d83c f813 bc3d da54 453d 6d7c 2d3e
00000130: 3173 a23d f3ff 833d d7da 363d 83b1 7e3d
00000140: e9a9 9cbd e92c 453e 7744 babd 529c b43d
00000150: 3358 7dbd 8fa8 7cbe 4b9c 253d 6601 e0bc
00000160: 5868 cfbc 80c2 0e3e d85e 333d e570 363d
00000170: 47f8 65bd e0b0 a9bb 9c27 21be cea3 bcbd
00000180: 4c3a f4bc 30c8 8cbd 6361 77bd 4681 f53c
00000190: 2398 033b dbc2 0ebd 320e b93d e6ef 75bc
000001a0: 22c5 2a3e 2c23 d2bc 7e3e 1bbd 5593 2f3c
000001b0: 666c 923d 9f78 9f3e af1d 933d f9a7 44bd
000001c0: 8d86 dd3c fa1b 5dbe 0278 c1bd c2a5 96bd
000001d0: f4fb c13b f0d7 4a3d 7bcc 403e 791f 78bb
000001e0: b56f 053d d3f0 91bc 9e0f 46bd 3259 5bbd
000001f0: ba41 9bbd 8dc2 df3b cb9d 313e 8b3c 97bd
00000200: 20a6 73ba 0d1d 893c ef07 b73c 32bb 3fbd
00000210: 86fc 4c3d ddb2 233e ca4e 9fba e7dd 8bbd
00000220: 8e2b 91bc fcba 40bd 23d9 8bbb b646 bd3c
00000230: c514 9ebc d5a2 61bd 3821 0ebe 377d debb
00000240: e6ed 70bd 5a4c 883d 285f e33c 4e44 5ebe
00000250: bbb3 113e 58ef d0bc a60d c8bd cbec 71bc
00000260: 0159 203e 8a0b 853d c52b b4bd ffb2 cc3c
00000270: fc13 a83d 8019 41bd c3fd 1c3e 9fd8 34bd
00000280: 5384 22be 7f7c 21bd 74a9 ecbd db39 46be
00000290: 0219 033d fe3d 253c c5aa 513d 4b26 0abc
000002a0: 4982 82be 9a97 0abe c012 2d3d 3eba f43d
000002b0: b1d3 f8bd 1bcc 8abd 4394 463d c58c b13d
000002c0: 40ee 413a a7b3 b9bd 74ae 35bd 5d61 f53d
000002d0: 19c1 223e dcd1 a93d c009 0bbe d0d3 8b3d
000002e0: b750 6ebd 6a50 09be 0c7b d73d 840d 2abc
000002f0: 5deb afbd 506c 55be 10eb b23d b310 61bc
00000300: d6b9 78be 62e5 f03b f5b2 f03d 9e12 3a3d
00000310: ea3c fabd 6deb d93d fe3d f8bd 3bd0 593e
00000320: 01cd 973c e0dd 96bd 2b95 403d 1ff5 e5bc
00000330: 5ce0 89bb 97aa 26bd 9a47 84bb 391d bebd
00000340: 8339 7a3d 8bcd e13c 10af e0bd e02a 51bd
00000350: bcdd 163d fcac e53c d9e7 973c 0141 0cbd
00000360: 9eb4 a53b 396b 253c 9a5a a2bc 75aa 3c3e
00000370: 3fb4 c33e 2fa7 c23d d906 cf3d 0af8 b9bd
00000380: 638d 353d 9ad6 84bd c9bd 4b3c 1c76 d8bd
00000390: 47cd 2fbd dd8f 92bd ba41 e5bc 5538 163d
000003a0: 3e95 603e cbb7 52bd 2ba2 30bd d3ae e13d
000003b0: b4c3 0d3d 7666 80bd 6195 8f3e e702 38be
000003c0: 5b9e 853d c4de 53bd 5191 2b3d c318 ecbd
000003d0: b4f8 6f3d 6611 ab3d aaf3 d43d 3151 093d
000003e0: 01bb b5bc f796 5dbe f5d5 ea3c 44f8 2c3d
000003f0: e501 4c3d 09ca 0f3e 84df 553b f8e6 7c3d
-0.15424857 -0.039602928 -0.038837492 0.14365624 -0.19614312 0.10125426 -0.06833439 -0.093847655
-0.057228763 0.15246421 -0.06923481 0.15593377 -0.00779452 -0.0631129 0.047564942 -0.14786784
-0.1895436 -0.0032549049 0.011458113 0.017588437 -0.103961684 -0.009903139 0.19115323 -0.06426118
0.19040047 -0.079247735 0.042044412 -0.010901169 -0.059603527 0.060839582 -0.113975644 0.07393608
0.032530446 -0.17011589 -0.16569792 0.1909674 0.0876545 0.1532308 0.05058472 -0.05913938
-0.04197073 0.112696365 -0.237902 0.24818943 -0.1558862 -0.06190313 -0.10955539 0.036526997
0.13751645 -0.21195948 -0.115178704 0.10326644 0.12392055 -0.010543456 -0.027149687 -0.08995063
0.038652804 0.080543846 -0.047289938 -0.09482083 -0.10323586 0.14259806 -0.044710908 0.20547983
-0.15090162 0.08700435 0.110272095 -0.042944714 -0.07927651 0.013081103 -0.07566765 -0.15637234
0.026459895 0.09183496 0.048176624 0.16941996 0.07932127 0.06445303 0.044642296 0.062181007
-0.07649595 0.19255413 -0.0909509 0.08818878 -0.06185169 -0.24673675 0.040432256 -0.027344417
-0.02531831 0.13941383 0.043791622 0.04454126 -0.05614498 -0.005178556 -0.15737766 -0.09210931
-0.029812954 -0.0687412 -0.06039561 0.029968869 0.0020079694 -0.034853797 0.09035911 -0.0150108095
0.16676763 -0.025651537 -0.037901394 0.010716279 0.071495816 0.31146714 0.07183396 -0.048011754
0.027041698 -0.21592703 -0.09446718 -0.073558345 0.0059199277 0.04952234 0.18828003 -0.0037860556
0.032577235 -0.01781503 -0.048354737 -0.05355186 -0.07580896 0.006828612 0.1734535 -0.073845945
-0.0009294469 0.016737485 0.02234265 -0.046809383 0.050045513 0.159862 -0.0012154218 -0.06829434
-0.017720964 -0.047053322 -0.004267828 0.023105007 -0.019297013 -0.05508693 -0.1387986 -0.006789829
-0.058820628 0.06655188 0.027755335 -0.21705744 0.14228718 -0.025504753 -0.09768228 -0.0147659285
0.15658952 0.064963415 -0.08797411 0.024987696 0.08206937 -0.04714346 0.15331177 -0.0441519
-0.1587079 -0.03942537 -0.11555758 -0.19358008 0.03200627 0.010085581 0.05118825 -0.008431981
-0.25490025 -0.13534394 0.04225421 0.119495854 -0.12149752 -0.06777211 0.048481237 0.08669428
0.0007397868 -0.09067469 -0.044355825 0.11981461 0.15893973 0.082919806 -0.13577938 0.068275094
-0.058182444 -0.13409582 0.10521516 -0.010379199 -0.08589814 -0.20842099 0.08736241 -0.013736892
-0.24289641 0.0073515633 0.11752883 0.04542791 -0.1221865 0.10640607 -0.12121199 0.2127084
0.01853037 -0.07366538 0.047017258 -0.028070984 -0.004207654 -0.04069003 -0.004036856 -0.092829175
0.061090004 0.02756383 -0.109708905 -0.05106628 0.036832556 0.028036587 0.01854317 -0.03424168
0.0050569316 0.010096365 -0.019818593 0.18424399 0.38223454 0.09504544 0.10108728 -0.09080513
0.04432429 -0.064862445 0.012435385 -0.105694026 -0.042920377 -0.07156346 -0.027985442 0.036674816
0.21931931 -0.05144481 -0.043123405 0.11019673 0.034610465 -0.06269543 0.28043655 -0.17969857
0.065243445 -0.051726118 0.04188663 -0.115281604 0.05858679 0.08352928 0.10398038 0.033524696
-0.022183897 -0.2163962 0.028666476 0.042228952 0.049806494 0.14041914 0.0032634446 0.061743706

actor_mlp_c.mlp.0.bias f4 [256]
00000000: 92f2 863d d6c3 d23d 0256 27bd 68c2 d7bd
00000010: 24f6 2abd 1d68 c93d a8ac cf3d 55a4 c43c
00000020: bb2b 593d fbb4 213d 3131 a1bc c3f1 163e
00000030: 06ba 873c 1f86 88bc 25ed d63c 3b1e ff3c
00000040: 6e65 d4bd ba53 5b3d 14d9 cc3b 5cff 063d
00000050: db17 1c3d a0de fa3d 3736 55bd 532a 7e3d
00000060: 6376 d63c 2b09 a93b de6a a63d b767 ec3c
00000070: d8e8 8f3d a847 113d 50ff a53c d3cb e3ba
00000080: a88e d53d 40c0 8dbb acd4 d53d 40c1 a63d
00000090: d2a4 85bd 6de2 9f3d 930c 6fbc fe08 00bd
000000a0: a5ef 34bc 9c89 24ba 31c1 be3d caae 883d
000000b0: 3078 a53c a712 cb3c 7eff 3f3d 86ee fc3c
000000c0: c3f5 983d 26ac a43c eafd b93d 4c14 4f3d
000000d0: 95d9 ff3c f80a c4bd e4ae be3d 9c26 7a3c
000000e0: f24b 723d 06f7 9dbc 0c6e b7bc 17d2 8e3d
000000f0: b471 1b3d f598 833c b486 bfbd f2a2 14bc
00000100: ae49 85bd 1a77 893d 02b4 e83c d829 5dbd
00000110: a228 9cbc d2c2 8a3d 586d 773d 17db 2e3e
00000120: 10e6 4c3d 80e2 bcbc 2432 2f3d f4bf f8bc
00000130: 9628 96bb 6218 e33c db87 dabc 1f98 a8bd
00000140: 96fb 8c3c 2a51 37bd 2d16 e23d 759a 5d3d
00000150: 4198 873d 3d00 99bd 7b3b ef3d 2d75 17bd
00000160: 2266 733d 1935 71bd 147b 013e 334b 4b3d
00000170: bde8 d73d 51ee 373b 33c5 783d 5da3 97bc
00000180: e1a1 76bd c138 da3d e7fd dbbb 38af d8b9
00000190: 07a1 df3c aadd a2bc e16d 473d 552e 063e
000001a0: 3c69 64bd 23d8 a43d 1154 183d 16cb d43d
000001b0: c9b7 01bd 9715 313d bded 963d 9669 313d
000001c0: 99bd c23d ddb3 373b 3f23 bb3d fc9c b9bb
000001d0: 99ea a03d 6175 cfbb de2f c2bb e430 08bc
000001e0: d20c d73b 39f1 3d3d 7405 c73d ac79 b3bc
000001f0: f8a1 8a3a f48b eb3d 58f2 62bc 6a09 133e
00000200: fcc1 8fbc 18f9 cb3d ea6c 3fbc 4213 3bbd
00000210: d612 18bd ce14 eabd e085 dd3b fb02 8f3d
00000220: 25b7 143e 98fe 493c ea4d 8b3d 4a48 1abd
00000230: 66b4 b0bd 12bd fe3d 48a5 c13c 891f 083d
00000240: bfb8 c13c 4da3 8e3d a87f 1ebd 0f7e 673d
00000250: 9f6c 2cbd 7b89 d6bc ebfb 4e3d bf21 e9ba
00000260: 0e3a 10bc fad5 b23d ee08 fb3d 0a7f 55bd
00000270: 17a7 4a3d c187 90bd 9ac0 b3bd f8f3 13bd
00000280: 32d5 2b3d 0981 c43c 0245 913d 4eb3 09bd
00000290: e534 4bbd dd8a b03d 9837 073e 5f31 663c
000002a0: d2da eb3c 58d9 993d 1ec2 613d f0ca 2cbc
000002b0: d560 f2bc b882 833c 2918 e03d 737f 603d
000002c0: 2a7f c93a 1597 98ba c741 d13d 2170 1dbd
000002d0: d157 bdbd dd98 183d d1a8 66bc e37e e13c
000002e0: d89d 91bd ddcb aebd 1715 9fbd 7904 173d
000002f0: bcb8 4b3d d82a 1dbc 53fa d23d 114f 0a3d
00000300: 77f6 5d3c 025d 053e b489 1b3d 0cfe 963d
00000310: d7e2 c83b 2be8 2f3c 34c9 84bd bcc3 c3bc
00000320: 645b 053c 5d6a 813d a667 913d 9e7a 2fbd
00000330: 774f 313c 6559 963d 22de e73c 66aa 383d
00000340: aad6 c83c d55d 9ebd cea2 733d 8533 8f3c
00000350: affb ed3d 0163 60bd 924a 18bd 4fb7 8f3a
00000360: eef8 98bd 232b 973d 9bb6 7b3c c97f b83d
00000370: 06fb 243d 5f7f bcbd af0e 463d b36d 6cbc
00000380: 8f51 9c3d 4450 823d 00b3 843d 3175 b63d
00000390: 7a65 9a3d 6537 5f3d b546 b3bc c682 773d
000003a0: 8d71 1d3c ec1f a438 77d8 953d 2ba0 e23d
000003b0: d5ce 3b3d ad38 0f3e 3f7a aebc 5377 52bd
000003c0: e755 15bd 5167 c13d 960f 003d 64d7 b13c
000003d0: 5fcf b7bc 1401 0c3d 6785 7c3d 4223 b9bd
000003e0: 77d2 7b3d c54f b43b 3f28 6fbc 1592 003e
000003f0: 1e81 81bd ae23 c2bd ba2c 3cbc 9b57 9dbd
0.06589235 0.10291259 -0.040853508 -0.10535127 -0.041738644 0.09834311 0.101403534 0.02400414
0.05302022 0.039479237 -0.019676777 0.14740662 0.016568195 -0.016665516 0.026236126 0.031142345
-0.10370909 0.053546645 0.0062514637 0.032958373 0.038108688 0.122494936 -0.052053656 0.062052082
0.026179498 0.0051585636 0.08125852 0.028858049 0.07026833 0.035468727 0.020263344 -0.001737947
0.104276 -0.0043258965 0.104409546 0.08142328 -0.065255776 0.07806859 -0.0145904 -0.031258576
-0.011043464 -0.0006276609 0.09314192 0.06673963 0.020198911 0.024789168 0.046874516 0.030875456
0.0746875 0.020101618 0.090816334 0.050556466 0.03123168 -0.095724046 0.093107015 0.015267994
0.05915446 -0.019282829 -0.022391342 0.06973665 0.037950233 0.016064147 -0.093518645 -0.009072052
-0.06508194 0.0671217 0.028406147 -0.053994983 -0.019062344 0.0677544 0.060407013 0.17075764
0.050024092 -0.023057222 0.042772427 -0.030364968 -0.004582475 0.027721588 -0.026676109 -0.0823214
0.01720981 -0.04475514 0.11039386 0.05410238 0.06620837 -0.074707486 0.11681267 -0.036976982
0.059423573 -0.05888853 0.12644607 0.049632262 0.10542438 0.0028065632 0.06073494 -0.018510515
-0.060212974 0.10655356 -0.006713617 -0.0004132928 0.027298464 -0.019881088 0.048688773 0.13103612
-0.05576442 0.08049037 0.037189547 0.10390298 -0.03166941 0.04323348 0.07369564 0.043313585
0.09508819 0.002803079 0.09137582 -0.005664466 0.07857246 -0.0063311313 -0.0059261164 -0.008312438
0.0065628076 0.046372626 0.09717837 -0.021908604 0.0010576835 0.11501303 -0.013851725 0.1435906
-0.017548554 0.0995962 -0.011683682 -0.045672663 -0.03712734 -0.114297494 0.006760344 0.0698299
0.14522989 0.012328766 0.0680197 -0.037666596 -0.08628158 0.12438406 0.023638383 0.0332332
0.023647664 0.06964741 -0.03869596 0.056516703 -0.042095777 -0.026188603 0.050533216 -0.0017786546
-0.008802904 0.08732219 0.122575626 -0.052123107 0.049475756 -0.07057143 -0.0877697 -0.03612134
0.041951366 0.02398731 0.0709324 -0.033618264 -0.04961099 0.08620236 0.13204801 0.014049857
0.028790865 0.07512158 0.055116765 -0.010546431 -0.029587189 0.016053542 0.10942108 0.054809045
0.0015372981 -0.0011641706 0.10217624 -0.038437013 -0.09245265 0.037255157 -0.014078335 0.027526325
-0.071101844 -0.085349776 -0.077676944 0.0368695 0.049736723 -0.009592734 0.10301652 0.03376681
0.013547531 0.13023761 0.03797312 0.07372674 0.006130557 0.0107365055 -0.06483689 -0.023897044
0.008139465 0.06319115 0.070998475 -0.042841546 0.010822169 0.073412694 0.028304163 0.04508438
0.024516422 -0.07732741 0.059481435 0.017480621 0.116202705 -0.054781917 -0.03718049 0.0010964664
-0.074693546 0.073812746 0.015363361 0.09008748 0.040278457 -0.092039816 0.048353847 -0.014430451
0.076327436 0.06362966 0.06479454 0.08909071 0.07538886 0.054496188 -0.021884302 0.06042745
0.009609592 7.826075e-05 0.07316678 0.11065706 0.045851547 0.13986464 -0.021298526 -0.051383328
-0.036458876 0.09443534 0.031264864 0.021709152 -0.02243775 0.034180716 0.06165066 -0.09039928
0.06148001 0.0055026733 -0.014596998 0.12555726 -0.06323455 -0.094794616 -0.011485273 -0.07682725

actor_mlp_c.mlp.2.weight f4 [128, 256]
00000000: 1f80 3c38 bace 453d 7e07 563d 54c9 77bd
00000010: f245 a63d ac7c c8ba a9d1 d03d f87d 063e
00000020: e868 7cbc 4198 113e 8513 233c 1173 a13c
00000030: ab67 c53c 79e1 79be 2d2a 6a3d 287e ca3d
00000040: c37e 0e3d 513c 7a3e b9d5 2abd d8b7 b7bd
00000050: 4782 fc3d 8255 703e cfbc ddbd 39fd 5abe
00000060: 1397 783d cffe 013e 13cd bb3d 0e15 dfbd
00000070: f0e0 1dbe ebd0 043d 9104 7bbc ea6a 03bc
00000080: 0536 883d 507e 403d 2c51 833c aebf 453d
00000090: da4a 863d c699 d73c 01f9 2bbc 0f99 99bd
000000a0: a92a 05be 611a 803c a735 b5bd d741 e2bb
000000b0: d2b5 00bc a856 a6bd 22f4 403c 8008 f2bd
000000c0: aca5 fbbc cb20 26be 4936 5e3d 0b0d 6d3b
000000d0: 407b f43c 1065 b0bd 4001 0e3d 7b06 ce3d
000000e0: bf0e 313e 1c14 d1bd a07e 5d3d fcad debc
000000f0: dba1 643d 9fca 8f3b 1ed8 ed3c b6d9 bebd
00000100: fc6e b6bc aa3e 2e3e e370 08be fad6 823c
00000110: 43a3 d23d 5125 a13c 6427 5abe 2f3b 00be
00000120: 7c6a 263c c11d 0b3e 47aa f03d c33e 93bd
00000130: d4ca 5d3d 5b20 f63d d217 b53b 574c d43c
00000140: 3906 383e c6d3 3bbc ae76 123e 9fb3 a83d
00000150: 11fc 523d 56da c7bd 7a98 143e 79e7 a43d
00000160: 4b8b acbc fe8e a3bd 5abc 3f3d e22d 613d
00000170: ef97 d53a b7af a5b8 1af0 c0bd b999 bdbd
00000180: 3a0a 55be fdbc 16bd 8847 b03d 0a4f 36bc
00000190: c873 fbbb 21a0 bcbd f369 ce3c bb7c 623e
000001a0: d538 923c 6e0f fb3d 0698 c3bd aaa3 febd
000001b0: 4cf5 b83d 4268 43be dc90 d23d a99a 87bd
000001c0: 7a00 53bd 1bd6 a3bc a409 693d b6dd 29bd
000001d0: ac6a df3d 8eb8 d03d 56c1 7d3b 0256 82bd
000001e0: b3c9 e7bd 2d6b c6bd 635b eabc 57ad 6e3c
000001f0: 9767 8dbd 25d2 21bc 1972 31be a974 df3c
00000200: f934 9a3d 65ad 2d3e 5fda dfbc a044 b23d
00000210: fc61 613d b0b6 a83d a19c 2cbd df3d 2b3d
00000220: f36e 163e 27e0 35bd 7ca0 7cbc 8178 c23d
00000230: 0660 cf3d a40a 8ebd f09d 67bc 6769 d83b
00000240: ccc5 10bd f3f4 1f3e 4f99 d6bd a3f6 88bc
00000250: 5c46 cd3d 60cf 563d 8a71 033c 6dae aa3d
00000260: 5b11 6a3d 1337 f53d 27e8 f13d c937 773d
00000270: c5f8 03bd ca71 3bbd 99bc b73c feb7 33bd
00000280: a56e d7bc f62a 2a3d 39de 053e 8612 d9bb
00000290: d065 d4bd 19bd 8fbd 3ccc 8abd aa24 2e3e
000002a0: 4d69 28bc ee4c 05bd 5527 803e 4cd3 e7bd
000002b0: df63 2f3e 6909 d63c d17b 833d 21b6 c63d
000002c0: 8138 51be a439 d9bd ed98 0b3d 295c 483d
000002d0: 5695 01be 8de4 ccbc 2ad0 66bd e798 e03d
000002e0: 319f 97ba 505d 76bd e713 20be 79ff e9bc
000002f0: 532b f53d 5d77 2a3d 2234 afba 60e4 283d
00000300: 7744 71bd ab32 e73c a676 19bb a79f 543e
00000310: ff36 a0bc 9539 5bbe 0c13 b1bd 7c92 f33c
00000320: 64f1 d0bd 567c 5e3d f9a2 10be 1bf6 8ebd
00000330: 7343 9dbd 3e8c 833d febe b5bd f73c 9ebd
00000340: 33bd 04bc 5690 bb3c a0cd 99bd 0646 cfbc
00000350: c3d4 f3bc d398 4c3d 72c5 eabd 8218 023e
00000360: ab42 89bd 2919 c53d fda5 90bd 8b30 f5bd
00000370: e986 bb3d e259 023e 55ae b2bc f8d3 d5bc
00000380: fc04 4d3e 4b92 50bd 0842 e03d fd79 58bd
00000390: 7cff 613e e82c e73d 00cc 123d c809 c73d
000003a0: 1885 9abd daed 0fbe 3fb5 c9bd 5faf 37bd
000003b0: 06bf 883d 7f68 713d ddf4 66bd 4b69 4ebe
000003c0: 488b 18bc d41f 823d 1aae 1fbd 4871 3dbc
000003d0: 35b7 b5ba 5567 8b3c 7c1d ad3d 2353 693d
000003e0: 8006 28bd 6e12 f3bd 64fd 0dbd 3d8d 7f3c
000003f0: 1805 46be a6ba 943c 064c 873d 5ee9 1fbd
4.4942015e-05 0.048292853 0.05225324 -0.060494736 0.0811881 -0.0015295944 0.101962395 0.13133991
-0.015405871 0.14218237 0.009953384 0.019708188 0.024097284 -0.24402417 0.05716913 0.09887344
0.03478886 0.24437071 -0.041707728 -0.08970612 0.12329536 0.23470119 -0.10827028 -0.2138566
0.06069095 0.12694858 0.09169974 -0.10892688 -0.15417838 0.032425802 -0.015320913 -0.008021096
0.066509284 0.04699546 0.016029917 0.048278503 0.065572456 0.026318442 -0.010496379 -0.07499897
-0.13004555 0.015637578 -0.08848124 -0.0069048214 -0.007855849 -0.08121997 0.011776956 -0.118180275
-0.030718647 -0.16223447 0.05425099 0.0036171104 0.029843926 -0.08613026 0.03466916 0.1005983
0.17290781 -0.10208914 0.054075837 -0.027182572 0.05581842 0.004388168 0.029033717 -0.09318869
-0.022269718 0.17016092 -0.13324313 0.01597165 0.10285046 0.019671114 -0.21304089 -0.12522577
0.010157224 0.13585569 0.11751228 -0.07189705 0.05414851 0.1201789 0.0055265212 0.025915308
0.17971124 -0.011464065 0.14303085 0.08237385 0.05150992 -0.09758441 0.1451129 0.080519624
-0.021062514 -0.07986258 0.046810485 0.054975398 0.001629589 -7.9005426e-05 -0.09420796 -0.09257836
-0.20804682 -0.036801327 0.086073935 -0.011127243 -0.0076737143 -0.0921023 0.025197005 0.22117893
0.017849365 0.12258802 -0.095504805 -0.1243356 0.09031162 -0.1908274 0.10281536 -0.06621296
-0.051514126 -0.019999554 0.05689396 -0.041471206 0.10909018 0.10191451 0.0038719974 -0.06364061
-0.11317768 -0.09688411 -0.02860803 0.014567695 -0.06904524 -0.0098767625 -0.17328681 0.027277308
0.07529635 0.16960676 -0.027325807 0.087044954 0.055025086 0.0823797 -0.04214156 0.04180705
0.14690761 -0.04440322 -0.015419122 0.094956405 0.10125737 -0.06935623 -0.014136776 0.006604362
-0.035344884 0.15620784 -0.1047846 -0.016719168 0.100231856 0.052443862 0.008022675 0.0833405
0.057145458 0.11973395 0.11811858 0.060355935 -0.032219667 -0.045762815 0.022428798 -0.04387664
-0.026297877 0.041544877 0.13073052 -0.0066245226 -0.10370982 -0.070184894 -0.06777236 0.17006174
-0.010279012 -0.03254407 0.25030008 -0.113195986 0.17127942 0.026127534 0.064201005 0.09702707
-0.20431711 -0.10606697 0.03408139 0.048916016 -0.12654623 -0.025011325 -0.056350864 0.10966664
-0.0011567828 -0.060147583 -0.15632592 -0.028564202 0.11971154 0.04161774 -0.0013366977 0.04123342
-0.058903184 0.028222403 -0.0023416667 0.20764028 -0.019557474 -0.21408685 -0.08646211 0.029732935
-0.102022916 0.054317795 -0.14124669 -0.06980535 -0.076788805 0.064232334 -0.088743195 -0.07726472
-0.008101749 0.022895973 -0.07509923 -0.025301944 -0.029764539 0.049950432 -0.11463441 0.12704661
-0.06702169 0.096239395 -0.0706291 -0.119721495 0.091565914 0.127296 -0.021811644 -0.026102051
0.20021433 -0.050920766 0.109500945 -0.052850712 0.22070116 0.11287862 0.03583908 0.097186625
-0.07544917 -0.14055577 -0.09849023 -0.04484498 0.0667706 0.058937546 -0.056385864 -0.20157354
-0.009310551 0.06353727 -0.038984396 -0.011562653 -0.0013863804 0.017017046 0.08452889 0.05696405
-0.041021824 -0.118687496 -0.03466548 0.015597639 -0.1933788 0.018155407 0.06606297 -0.039040916

actor_mlp_c.mlp.2.bias f4 [128]
00000000: f380 983d 66da c53a 799c ab3d 8b2e ecbb
00000010: 5c6d 913d 7d35 03bc 14c4 32bd d1aa ad39
00000020: 28ac 6abd b043 8a3d 7709 bf3c 9e12 e43d
00000030: 9f9d 3c3c a30b b6bc 6c2d abbc aced f93d
00000040: 0b02 ae3d 0588 69bc d999 883d 0f1d 6e3d
00000050: 00e2 253d 7479 0dbd 072b 973d a0a7 8c3d
00000060: a44c 683d 24a1 393d e635 f63d b1e6 b23d
00000070: b962 ad3d 0830 743d 2690 723d aaec 5b3d
00000080: 48a4 7b3c e3b9 b9bc 9d43 f63c efe9 ea3d
00000090: 80b4 ce3b d5d2 ac3d 20c7 c13d 301d a73d
000000a0: 4d75 67bb 8033 c63d 8bc2 563d 341d 793d
000000b0: 1483 233d ab3a 4cbd 42cc 9fbd 33d5 c63b
000000c0: 9304 a93c d31d 7bbd 3615 26bd b1ec 1ebc
000000d0: 4fd7 733d 3b81 a4bc 5180 ff3c 7e2d 893c
000000e0: 4fc6 8d3d 5605 083e de9a 943d 5c5e 10bc
000000f0: 68b8 853c e5d7 1fbd 698b 773d 12d7 0a3e
00000100: 3017 8cbd e6ff 483d dd1c 86bc a560 8a3b
00000110: e0b0 4b3d e4f2 fc3d 9bef e73d 169d c73c
00000120: 0983 a93c 78e7 3b3d 048b 003d da66 543d
00000130: 9ff2 cf3c d687 883d 225a fa3b 78eb d53d
00000140: 4e1f 28bc ed0a c83c c0b6 8fba b160 af3d
00000150: f65b 233d 91bb 1a3c 284c adbd 0c47 b43c
00000160: b1b6 ac3d e0be 64bd bb69 b8bc 248f ac3d
00000170: f1f6 90bc bcf9 243d 24a2 eeba f375 02bd
00000180: 0af9 cebc 534d 963b 0dfa 893d f8ce 593d
00000190: 3342 833b be63 a73d bb45 823d d962 093e
000001a0: 981a 043d e1f7 893b cf80 39bd 3a5a ea3d
000001b0: 617c 873d f79c c03d c87f 0fbd 026b 273d
000001c0: 5263 b43c fd02 0f3c 8893 863c cdf9 973d
000001d0: 0f53 a4bc ba9b 5d3d f2f9 5c3d eb39 913d
000001e0: ca70 173d 509a 683d d5f6 173c 2493 e03c
000001f0: e4f9 c53d bd72 d0bc d940 1e3d 2daf e1ba
0.0744647 0.0015094995 0.08379454 -0.007207697 0.07100937 -0.008008358 -0.043644026 0.000331244
-0.057293087 0.067511916 0.023319943 0.111363634 0.011512189 -0.022222346 -0.020895682 0.122035354
0.084964834 -0.014253621 0.06669969 0.05813318 0.040498734 -0.034539655 0.07381254 0.068679094
0.056713715 0.04531969 0.12021999 0.08735407 0.084660955 0.05961612 0.059219502 0.053692497
0.015358992 -0.022671646 0.030061537 0.114704005 0.0063081384 0.084386505 0.09461808 0.08159864
-0.003531772 0.096777916 0.052431624 0.060818866 0.039919928 -0.049860638 -0.07802631 0.006067896
0.020632064 -0.06130774 -0.040547572 -0.009699986 0.059531506 -0.020081153 0.031189116 0.016745325
0.0692259 0.13283285 0.07256101 -0.0088115595 0.016323283 -0.039024252 0.060435686 0.13558605
-0.0684036 0.04907217 -0.016371185 0.0042229467 0.049729228 0.12351015 0.11324998 0.024366897
0.020692365 0.045875043 0.031382576 0.0518559 0.025384245 0.06666534 0.007640139 0.10445303
-0.01026137 0.024419272 -0.0010964498 0.08563364 0.039882623 0.009444133 -0.08461791 0.022006534
0.08433283 -0.055846095 -0.022511354 0.084257394 -0.017695876 0.040277228 -0.0018206281 -0.031850766
-0.025265235 0.0045868545 0.067371465 0.053175896 0.0040056943 0.08173321 0.06360956 0.13416614
0.032251924 0.0042104577 -0.045288857 0.114429906 0.0661552 0.09404939 -0.03503397 0.040873535
0.022020016 0.00872874 0.01642777 0.074206926 -0.020059137 0.05410359 0.053949304 0.07091125
0.0369728 0.05678779 0.009275158 0.027413912 0.096668035 -0.025445336 0.038636062 -0.0017218344
