dcmm_sim/scripts/catch_it/assets/models/old/track1.pth (torch, 308483 bytes, 25 tensors)

sigma f4 [4]
00000000: e1eb 0dc0 ec2a 28c0 9049 17c0 c5d9 b5bf
-2.217522 -2.6276197 -2.363865 -1.4207083

actor_mlp.mlp.0.weight f4 [256, 16]
00000000: 2831 973e a4c2 953d 92a8 823c 3163 e43d
00000010: 67cd 90bd 7971 d7bd f7ca fc3d 29e2 05bb
00000020: 874d 08bd 528e b2bd f665 d8be 2237 89bd
00000030: 5a17 053d be15 c83d 0dbf 96bd e186 393e
00000040: 8cb2 d13c 2f97 643d e694 fcbd 3c54 7d3b
00000050: 8b88 66bd be10 02be fbf8 d43c bf82 68be
00000060: 2c62 6fbe e831 46bd bde7 c93d 2316 1abd
00000070: 6605 93bd fac2 21bd 1c43 acbd 6bda d43d
00000080: 4cf3 9bbd e110 9ebe 442b 84be 7b82 6b3d
00000090: f4b3 06bd 5d84 003e fd70 c43d 4e4e 32b8
000000a0: 9911 73bd af03 573d df19 d7bd 1ac2 3a3e
000000b0: c537 b6bd b900 6ebd 2782 123d 6062 363d
000000c0: ceed ecbd befb f23b 6af5 48be 59fe 6a3c
000000d0: 96de 3ebd c0af 933d 5535 813e 6b26 c93d
000000e0: acc0 e83d e538 34bc b68a 8ebd 6a84 28bd
000000f0: 2946 183e 0346 4fbe 7a5f d0bd 5c18 b53d
00000100: a62f 833d 812b 943e 5853 79bd e9bc 653d
00000110: 8a3d d2bd fce3 463c 2bbd de3d d417 5bbe
00000120: 3779 9bbd e556 d138 4ea2 1a3e df1d 7c3c
00000130: d792 43bb 319b 783e 66de 2cbe e5b0 2e3d
00000140: c189 0f3e bce8 5a3c 49dd 85be fd86 77be
00000150: fffb 1f3e fc6f 9f3d 9647 273d 2422 d8bd
00000160: 41a9 8bbd 4f2c 87bd cfcc 9c3e 5c6b 4ebd
00000170: db2f 4e3e 3c5c 3dbd bf33 ebbb 19ac ab3e
00000180: 4dc6 973e 1671 693e 7160 6a3d 2f90 f63d
00000190: 020d 073b 70f2 023e 82f1 193e d901 18be
000001a0: 9b6d fc3d 5948 063e 09cc 133e 82fa 01be
000001b0: e432 ebbd db62 0ebc 9a52 82be 642b a7bb
000001c0: 4c0e 19be d72b cdbd dcda 8fbd 40f4 863d
000001d0: 0a5b f73c 7aac 00be 9af6 1d3e 7d3e 903d
000001e0: 1aa0 c23d f29e 84bd 518f bbbd 321b 0ebe
000001f0: 373c 11be a8bf 84bc 3298 e7bc c3e2 f5bd
00000200: 9e2c 223d 8239 013e 4d69 f83c e1d9 5cbd
00000210: 7f8d 38bd 19b9 22be f780 a5bd 0036 37be
00000220: 941f e2bd 0f59 a9bd 290d e13d 53dd a0bd
00000230: 3350 153e 7a0f 383e 6a8d 8c3d 0dee 263d
00000240: 2c5a 193d 4f19 0a3e d034 01bc 2130 a6bd
00000250: 492d 9dbe e9fd 07be 57b1 373d 1bf1 39be
00000260: af9a fa3d 72b7 79bd 1c81 483e 9a33 1cbe
00000270: e29b dcbc 5126 b1bd e11e 25be 697e 753d
00000280: 5532 903e c08c 6c3d 331a 243e 1512 2a3e
00000290: cce2 763d aafa d2bd d8ea de3d fa0d fe3c
000002a0: 64b6 e1bd e31d 98bd c729 ab3c 0862 703e
000002b0: c3f9 093c 3207 aebd 39f2 643d e485 83bd
000002c0: 9c20 273e 3a36 7d3e d854 3fbe 291e d2bd
000002d0: 4e27 d4bc d0ea fd3d 6e92 173d 8c83 ae3d
000002e0: 4257 9d3d 1116 213e df36 233d 9583 74bd
000002f0: d96b 973d d047 9cbd 80d3 54be 426d 81bc
00000300: 3497 d93d 92e6 783e 03bd 063e 6027 8abd
00000310: 20fb 19be 91ee 683b 25b8 493e 7637 f23d
00000320: a912 cdbc 4d90 8f3d 0115 adbd 5f2f 8dbd
00000330: e973 813e 9317 e83d 7e58 76be b1ae d53b
00000340: f70a 5fbe 4aa6 c5bd d90a 26be c07c f6bd
00000350: 11c7 81be b410 38bc fbf3 cbbc 8cb8 4ebd
00000360: d6d5 7abd fda6 413c 1af4 b7bc 6067 febd
00000370: 216a 8cbd c77a 42be efd7 03be 77f0 e33d
00000380: 792d 993e f857 e83d 8f90 8e3d 32c8 3c3e
00000390: ec0b 4e3d 868c 98be 7e4e 193e e28d d6bd
000003a0: 91c3 b0ba 413c aebd 7a21 33bd 812f 72be
000003b0: d6dc 873e 4aed 1cbe 8fa3 573d 271c c03d
000003c0: 8606 97be 1a8d 48be 45d3 293c e1ea fe3d
000003d0: 2395 e93d 817e 6b3c f8cb 4ebd c951 fe3b
000003e0: b6d3 94be 2584 083e 33c2 bb3d 9288 753e
000003f0: cac6 e6bd 526a 3fbe 4889 173e 8d55 27be
0.2952969 0.073125154 0.015949521 0.11151732 -0.070704274 -0.1051969 0.123434 -0.0020428991
-0.03327706 -0.08718552 -0.4226529 -0.06699969 0.032492973 0.09769772 -0.07360659 0.18117858
0.025597833 0.055808242 -0.123330876 0.0038654944 -0.05628256 -0.12701699 0.02599763 -0.22706126
-0.23377293 -0.048387438 0.09858654 -0.037618767 -0.07178764 -0.039492585 -0.084112376 0.103932224
-0.076147646 -0.30872253 -0.2581426 0.057497483 -0.03288646 0.12550493 0.09591863 -4.2511434e-05
-0.059342954 0.052493747 -0.105029814 0.18238106 -0.08897356 -0.058106158 0.035768654 0.04452741
-0.11568795 0.007415264 -0.19624868 0.014342868 -0.046598993 0.07211256 0.25236002 0.09821781
0.11364874 -0.010999893 -0.06960051 -0.041141905 0.14870514 -0.20241551 -0.10174461 0.08842537
0.064055726 0.2893944 -0.0608705 0.056088362 -0.10265644 0.012139317 0.10875925 -0.21395808
-0.07591479 9.982082e-05 0.15100977 0.015387981 -0.0029842162 0.24277951 -0.16881713 0.04264917
0.14017393 0.013361152 -0.2614539 -0.24172588 0.15623473 0.07785031 0.040839754 -0.10553387
-0.06819392 -0.06600248 0.30625007 -0.050395355 0.20135443 -0.04623054 -0.0071777995 0.33529738
0.2964348 0.22797045 0.05722088 0.120392196 0.0020607118 0.12787795 0.15033534 -0.14844455
0.12325593 0.13113536 0.14433302 -0.12693217 -0.11484316 -0.008690561 -0.25453645 -0.005101608
-0.1494686 -0.100181274 -0.07024166 0.06589556 0.030194778 -0.12565795 0.15426102 0.07043169
0.09503193 -0.06475629 -0.09158195 -0.13877562 -0.14183126 -0.01620467 -0.028270815 -0.12006142
0.03959333 0.12619594 0.030323649 -0.053918723 -0.045056816 -0.15890922 -0.08081239 -0.17891693
-0.11041179 -0.0826894 0.10988838 -0.07854714 0.14581375 0.17974654 0.0686291 0.040754367
0.03743951 0.13486217 -0.007886127 -0.081146486 -0.30698612 -0.13280453 0.04484686 -0.1815838
0.12236535 -0.060965963 0.19580501 -0.1525406 -0.0269298 -0.086498864 -0.1612506 0.059935007
0.281634 0.057751417 0.16025619 0.1660846 0.060274884 -0.103017166 0.10884637 0.031012524
-0.110211164 -0.074275754 0.020893944 0.23474896 0.008421364 -0.08497466 0.055895064 -0.06422022
0.16321033 0.24727717 -0.18684709 -0.10259659 -0.025897648 0.123983026 0.03700488 0.08521184
0.07682659 0.15731074 0.03984725 -0.0596958 0.07393617 -0.07630885 -0.20783806 -0.015799168
0.10624543 0.24306706 0.1315804 -0.067457914 -0.15037203 0.0035542587 0.19699152 0.118269846
-0.025033312 0.07009945 -0.08451272 -0.06893801 0.25283745 0.113326214 -0.24057195 0.006521069
-0.21781527 -0.09650858 -0.16215076 -0.12035513 -0.25347188 -0.011234451 -0.024896612 -0.050468966
-0.061239086 0.011819598 -0.022455264 -0.12422061 -0.0685618 -0.18992148 -0.12875341 0.111298494
0.29917505 0.11344904 0.06961166 0.18435743 0.05030434 -0.2979471 0.14971349 -0.10476281
-0.0013486018 -0.08507586 -0.043733098 -0.23650934 0.26535672 -0.15324894 0.052646216 0.0938037
-0.29497164 -0.19585076 0.010365312 0.12447143 0.11405399 0.014373423 -0.05048749 0.0077612144
-0.29067773 0.13331659 0.091679 0.23977879 -0.11268385 -0.18692902 0.14798462 -0.16341229

actor_mlp.mlp.0.bias f4 [256]
00000000: 2826 29be 2589 f93c ff49 efbd 8ea2 0f3e
00000010: 8194 633e 3a52 4c3e c085 cd3d 0624 4abe
00000020: a31b 363e 16c6 debd 974a 343d 82d0 183d
00000030: 49db 403e 7097 71be 1e33 573e 919e e43d
00000040: 07e8 d43d ce15 6e3e dc7d c53d 8ccb 413d
00000050: 3cab 953d eca1 413d 2ef7 053d c244 cf3d
00000060: d012 43be 6567 26be 5c99 87be 2b54 133e
00000070: 9ff1 0f3c 07cb 80bd db1e 293e fafe 6e3b
00000080: ca04 5abd 2667 063e 4d74 86bd e459 56bc
00000090: b0e9 da3d 05d6 38bd 12f4 9a3d c5ef acbe
000000a0: c5d4 afbc ddb1 413e 9b2c 3fbe 1141 053c
000000b0: 2f36 71bd b881 3fbe f5dc 1fbd b38e 2fbe
000000c0: 1387 e13d f7b7 9dbd 2ec1 0fbd 50cf 3cbe
000000d0: fb2e 8c3c 67db 9e3c f01b 213c 253d e9bd
000000e0: e4ab fcbd 348c b4bd 503f 593e 9a48 38bd
000000f0: f5a8 40be c2ba ffbd 55a3 d3bd ffe0 003e
00000100: e744 83bd 9934 39be f759 5e3e 4bc4 933d
00000110: 5751 bbbd af30 453e 0b4f 4b3e 1784 273e
00000120: 661e 1cbd 807b 10be d0d8 573e 77e8 523e
00000130: 296b d9bd 19b5 56bd 2b5b 0c3e 6631 0a3d
00000140: 5761 bb3c 362b 63be 34bb 1cbe 061c 363e
00000150: e3d1 eabc ba41 1fbe d247 bfbd c0dd c43d
00000160: 407e db3d 5f43 abbd 0620 a13c ded6 5b3d
00000170: 6f7c 70bd b400 863d c97e 56be fc05 853c
00000180: 4f29 8a3d bf47 e8bd 76f3 e7bc 92ca 2abd
00000190: ba4f 063a fa5d 8d3d c502 abbc 60a5 cf3d
000001a0: 8d92 31bd 48b3 5bbe 586a 95be 5f00 04be
000001b0: 1f98 50bd ab41 793e 8f93 8f3c 6b53 c93d
000001c0: d8bf 923b 46b0 48bd e293 643e 1bfb 89be
000001d0: 58bb 3c3d 65db 69be 65cb 51bd c43e 7cbe
000001e0: 24e3 f0bd bb45 093e 9049 083e 9205 073e
000001f0: 3048 973e 55d0 8d3d 5c90 fdbd dcac 4dbd
00000200: 0208 183d 7d71 f8bd d0ca da3b c5a3 e63d
00000210: 420c 743c 9bee 6dbd 4f53 153e 79fc eebd
00000220: 0a0a 023e 31c0 eebd 298b 013e 21e4 1abe
00000230: a92e 833e ee9d 0bbe a4b7 803e 74bb a9bd
00000240: 0026 b13d 45a0 8d3d 46f6 91be 392a b23e
00000250: 3342 433d 1af8 8d3d b853 823c 24fd 72be
00000260: 779d db3d f884 3c3e be82 053e fba1 213e
00000270: e56f 25be 69ff 6c3e 54e0 e23c d64e 95be
00000280: 393e 783d 9a49 9dbe 2f58 c53b 6bae 973d
00000290: 0993 21be dd22 983d a8c6 e53c 4eb9 87be
000002a0: c8fc a1bc c574 b63c 4a8c d9bd fa40 8c3d
000002b0: ac96 6abc 4d57 06bd 908a c5bb 94eb 033c
000002c0: 29e6 b5bd 6e32 2dbe 5919 383e 8c8c e83d
000002d0: 624c 313d ed05 8abd 3f71 443d 7a8b 85bd
000002e0: 4278 76bd 42aa 833e b6c8 ee3d af64 d8bd
000002f0: b1d5 32bc d661 243c d25d 873d 8de9 553d
00000300: 5c49 a9bd 0c76 66be 510b 073e c753 dc3d
00000310: b9b4 353d 3933 77bd 5256 14be fe05 d53d
00000320: e15b 38be f3a9 6e3d c0b0 05be 8f51 a13c
00000330: 254c b0bc 689d 673e b53d 34be 39c6 013e
00000340: ee17 2bbd 5e79 cf3d 44a3 f3bc d7ff f2bc
00000350: 40fb 3fbd 1825 fd39 b234 a73e 2e81 4bbd
00000360: 24f2 7cbe 9a78 e1bd b429 36be 0e3e e23c
00000370: 3d58 95bc fc78 f03d 477c bdbb dd22 7c3d
00000380: 8779 4f3e ce2f 26be 63d4 813d 091e 363e
00000390: 7f1b 9d3d f402 593d ec1f 86bd d42c 7bbd
000003a0: 771c 1dbe 5bfc 2dbe 4351 92bd f93f 6f3e
000003b0: aac2 f4bd 5c93 89bd 9e84 903d f716 a1bc
000003c0: f26a 0c3c b284 473d 2734 3abe 09b2 903d
000003d0: a2df 893d 8a6c 993d f8fd 88be c2a1 5cbe
000003e0: 935e bcbd 3e2b 56be 6613 4dbe 2437 473e
000003f0: 7bba 4f3e 4ce8 52be d05f 06be 9521 56be
-0.16518462 0.030460903 -0.116840355 0.14026853 0.22224618 0.19953242 0.100352764 -0.19740304
0.1778398 -0.10877626 0.044016447 0.037308224 0.1883365 -0.23592925 0.21015593 0.11163057
0.10395818 0.23250505 0.096431464 0.047313258 0.07308051 0.04727356 0.032706432 0.101205364
-0.19050145 -0.1625038 -0.2648419 0.14387576 0.008785634 -0.062887244 0.16515677 0.0036467896
-0.053227223 0.13125286 -0.06565151 -0.013082955 0.106891036 -0.04512598 0.07566084 -0.3377668
-0.021463761 0.18915506 -0.1866936 0.008133189 -0.058889564 -0.18701828 -0.03902908 -0.17144279
0.110120915 -0.07701104 -0.03509634 -0.18438458 0.017112246 0.019391729 0.009833321 -0.113886155
-0.12337473 -0.08815804 0.21215558 -0.044991113 -0.18814452 -0.12486793 -0.103338875 0.12585829
-0.064096265 -0.1808647 0.21714006 0.07215174 -0.09146374 0.19256853 0.19854371 0.16358982
-0.038114928 -0.14109612 0.21078801 0.20596491 -0.10616142 -0.052418802 0.13706653 0.033738516
0.022873564 -0.22184452 -0.15305787 0.17784128 -0.028664535 -0.15552416 -0.093398705 0.09612608
0.1071744 -0.083624594 0.01966859 0.05367171 -0.05871242 0.06543103 -0.20946802 0.016238205
0.0674616 -0.113418095 -0.028314333 -0.041697092 0.00051235745 0.0690269 -0.020875344 0.10138965
-0.043352652 -0.21455109 -0.29182696 -0.12890767 -0.050926324 0.24341457 0.017526416 0.09830364
0.004478436 -0.048996232 0.22322038 -0.2694939 0.046077102 -0.22837599 -0.051219363 -0.24633318
-0.11762074 0.13405506 0.13309312 0.13185719 0.29547262 0.06924502 -0.1238105 -0.05021368
0.03711701 -0.12131021 0.006677009 0.11261705 0.014895501 -0.05808888 0.14582561 -0.11669249
0.12699142 -0.11657751 0.12650742 -0.15126087 0.25621536 -0.13634464 0.25140107 -0.08287707
0.08649826 0.069153346 -0.28508204 0.34797838 0.047670554 0.06932087 0.01590906 -0.23729378
0.107233934 0.18410099 0.13038155 0.15784447 -0.16155966 0.23144306 0.027694859 -0.2916171
0.060606215 -0.30720216 0.006022475 0.074063145 -0.15778746 0.07428525 0.028048828 -0.26508564
-0.019773856 0.022272477 -0.10622461 0.06848331 -0.01431815 -0.0327981 -0.006028481 0.008051772
-0.0888179 -0.16913769 0.1797842 0.11354932 0.043285735 -0.067394115 0.047959562 -0.06520744
-0.06017328 0.25715834 0.11659376 -0.10566079 -0.010915206 0.0100330915 0.06609692 0.052224685
-0.08265945 -0.22505969 0.1318791 0.10758167 0.044361804 -0.060351584 -0.14486054 0.104015335
-0.18003799 0.058267545 -0.13055706 0.01969221 -0.021520684 0.2261864 -0.17601664 0.12673272
-0.041770868 0.10130571 -0.029740937 -0.02966301 -0.04687047 0.00048283557 0.3265739 -0.049683742
-0.24701744 -0.11009331 -0.17789346 0.02761748 -0.018230552 0.11741826 -0.0057826373 0.061556686
0.20261203 -0.16229174 0.06339338 0.17784895 0.0767126 0.052981332 -0.06549057 -0.06132205
-0.1534289 -0.16990797 -0.07144406 0.23364247 -0.11951192 -0.0671756 0.07056545 -0.01966427
0.00857042 0.048710532 -0.18183957 0.070652075 0.06732108 0.07491405 -0.26756263 -0.2154608
-0.09197726 -0.20914933 -0.20026931 0.19454628 0.2028598 -0.20596427 -0.13122487 -0.20911248

actor_mlp.mlp.2.weight f4 [128, 256]
00000000: d815 0fbe ff18 003e 6441 f83d 33a4 a1bd
00000010: f83b 46bd 946d 02be b1c7 40be d48e 62bc
00000020: 6dfe 0dbd 50e3 a53d 861b d9bd 4a63 6ebe
00000030: b7ad b6bd 9323 283e 9c19 8abd 8f1b 1b3e
00000040: 4c52 cf3d 767e 0fbe affd 82be 2523 b03e
00000050: 6808 b73c c724 79bd 6661 e0bd b18d 973e
00000060: 068c 25be 652c 87bd e874 bd3c 879f 533e
00000070: 936b 52bb f930 b4bc a7f3 9d3d fbb3 06bc
00000080: 47d4 78be 941c 9f3c 04bf 603d 3e4e ccbd
00000090: 6d0e c73c f6e8 06be 9f0b 07bd 903f 403b
000000a0: cef0 983c 1d52 123d 0ddf acbd 5d2e 803d
000000b0: d11e f7bc 5482 3c3d 0af6 16be 8a11 4e3e
000000c0: f610 a2bd 8224 d93c 436d 54bd 648a c3bd
000000d0: d893 c53d 782f ac3d 32dd 4bbe 9075 7abe
000000e0: 2c16 3f3d 1592 34be 07fb aabb 885b c43d
000000f0: 2a2c 443e 22e8 323e e518 2ebd fd5a 2b3d
00000100: d8a4 343e d657 06be 1fcb c53d 51c0 9fbe
00000110: 5eab 7e3e 4988 c13d 3b08 78bd 1add c63c
00000120: fb7f 583e d1b2 03be be7a 0c3e 8469 7fbe
00000130: 53ff a5bc 79f9 a33c 7c3b ef3d 522f f2b9
00000140: ca66 7cbe 5f72 88bc 6073 d9bd 3b11 413e
00000150: 4321 cdbe cb18 5c3d 5bb0 c4bc abfc 9ebd
00000160: 697d a63d 3803 8dbd e71d 033c 3598 c63e
00000170: 8486 393e 1570 64bd 794e c03d 22b9 923e
00000180: 5156 54be 8998 c4bc 1358 313d 431f d0bc
00000190: a110 92bd 3f1e 2ebc b258 303e e03d 91bd
000001a0: f7ac f5bc fb33 ccbe 64bf 163e 0d8d 83bc
000001b0: 5c23 40bd 98b6 c33d babc 6cbe 35d1 15be
000001c0: f3c2 ddbc cbaa e5bd 4298 d6bc 8047 8a3c
000001d0: 856a 403e 1539 cc3d 013b 143d 1aa2 be3c
000001e0: 7230 c53d 683f 953d 1368 7ebe 95d9 1fbe
000001f0: 1c98 f8bc 8067 a5be 3371 573e 141e 983d
00000200: dd7d 7cbd 7b74 95bd 9e06 05bb 45c0 b23d
00000210: 96cd 1c3e d917 97bd 95d7 813e c960 6f3d
00000220: ee61 8e3d 47d2 bcbd ed5f 4d3e 92bf f8bc
00000230: e2c6 82bd 7c91 c33d 650c 83be 6d04 153d
00000240: 628f 38bc e506 9abe 8f5e 16be 0a84 0cbe
00000250: e253 faba 182d 04be 455e 97be 9498 44bd
00000260: e52f 103d 5f50 d73d a0b4 923b 9f4b 1ebe
00000270: 0f88 d63d 069c 953c 8296 b1bd e8c9 6dbe
00000280: e876 473e 977f 7b3d 8ad3 b1bd 05d4 e83d
00000290: 3e04 873e 15b2 3bbd cd40 693e d087 8bbe
000002a0: 1257 e93d 58fa 82be 9c67 133c a154 85be
000002b0: 1155 e5bd 5674 983d 556c f5bd 75ec 11bd
000002c0: 8089 7bbc 8ac8 86be d58e 243d 0768 953d
000002d0: bb65 c23c 4c60 43bd 2894 aebd 01b1 3abe
000002e0: b578 a43e 5bbb bbbd 24c8 9bbc d4f5 03be
000002f0: 78f7 44bd 5f9f babd 6b01 253c 82b5 a23d
00000300: 6525 1d3e b1da b0bd 0852 adbc 38b1 2cbe
00000310: 946a 34be 5910 3bbe 5710 7b3d dff0 6d3c
00000320: 2010 843e ed0d 4ebe 83b4 ac3b 1d96 623d
00000330: fff4 edbd 63ac b1bd f0ac abbd 41b0 093e
00000340: 7257 c83c 1b6a 313e aecf 9f3d 565c 93bc
00000350: 5890 253e 3716 8cbc 630a 12be 74b1 0ebe
00000360: f369 fb3d 5d25 493e e11c d43d a281 a63c
00000370: 932a 4f3e ed5f 99be 47e8 0c3e 992e 16bd
00000380: 1103 6d3e 46af 573d b528 c6bd 5fb2 88be
00000390: 2f74 e3bd 3d30 c43d b3af 413e 7187 7fbb
000003a0: 90ce 19be ae11 95bd aa13 3f3e 82ee bcbd
000003b0: 13b4 58be 3e97 1c3d 746a 23bb e038 d3bc
000003c0: 6504 ddbc 756e 54be 5857 a23e e1a1 34bd
000003d0: 672a 153d 3d28 623e 4e9c 873d 0d94 0bbd
000003e0: 4c88 8c3b 0eec 8dbd 4b2c 1b3c 3ba7 74be
000003f0: 806b 7f3e 39a8 a1bd 1fb6 983d 0b48 1cbd
-0.13973176 0.12509535 0.12121847 -0.07892647 -0.048397034 -0.12737113 -0.18826176 -0.013827998
-0.034666467 0.08099997 -0.10600953 -0.23280063 -0.08919852 0.1641982 -0.06743166 0.15147232
0.10123119 -0.14013085 -0.2558417 0.34401813 0.022342876 -0.06082609 -0.10956077 0.2960029
-0.16166696 -0.066002645 0.023127034 0.20666324 -0.0032107576 -0.021996008 0.077124886 -0.008221622
-0.24299727 0.019422807 0.054869667 -0.09975861 0.024298871 -0.13174805 -0.032970067 0.0029334761
0.018669512 0.03572284 -0.08440981 0.06258843 -0.030166062 0.046022728 -0.14742294 0.20123878
-0.07913391 0.026506666 -0.051862013 -0.0954788 0.096473396 0.084074914 -0.19908598 -0.24458909
0.046652004 -0.17633851 -0.005217913 0.09587771 0.19157472 0.17471364 -0.04250421 0.04183482
0.17641008 -0.13119444 0.09657883 -0.31201413 0.24870059 0.094498225 -0.060554724 0.024275351
0.2114257 -0.12861182 0.13718697 -0.24942595 -0.02026335 0.020016419 0.116812676 -0.00046193093
-0.24648586 -0.016656099 -0.10617709 0.18854229 -0.4006444 0.053734582 -0.024009874 -0.07763036
0.08129389 -0.068853796 0.008002735 0.38788 0.1811772 -0.055770952 0.093899675 0.2865687
-0.20736052 -0.023998516 0.043296885 -0.025405532 -0.07132078 -0.010627328 0.17221335 -0.0709188
-0.029989703 -0.39883408 0.14721447 -0.01605847 -0.04690872 0.09556311 -0.23118868 -0.14630587
-0.027070498 -0.11214217 -0.026195649 0.016879797 0.18790634 0.09971825 0.036189083 0.023270655
0.09628381 0.072874844 -0.24844389 -0.15610345 -0.030345969 -0.32305527 0.21039276 0.07427612
-0.06164347 -0.072976075 -0.0020298134 0.08728079 0.153128 -0.073775955 0.2535979 0.05844191
0.06952272 -0.09219795 0.20056124 -0.030364785 -0.0638559 0.09549233 -0.25595394 0.036381174
-0.011264654 -0.30083385 -0.14684509 -0.13722244 -0.0019098485 -0.12907827 -0.2956411 -0.047997072
0.035201926 0.105133764 0.0044770986 -0.15458535 0.1047517 0.018262874 -0.08671285 -0.23221552
0.19478953 0.061400976 -0.08682926 0.113685645 0.26370424 -0.04582413 0.22778626 -0.27252054
0.113935605 -0.25581622 0.00899687 -0.2604113 -0.11197866 0.07444064 -0.11983553 -0.035625894
-0.015352607 -0.26324874 0.040175278 0.07295232 0.02373015 -0.047699258 -0.08524352 -0.18231584
0.32123342 -0.091665946 -0.019016333 -0.12886745 -0.048087567 -0.09112429 0.010071139 0.07944776
0.15346296 -0.08635462 -0.02115728 -0.16864479 -0.17618781 -0.18267955 0.06129488 0.01452276
0.25793552 -0.201225 0.005270542 0.05531894 -0.11618995 -0.08675458 -0.083825946 0.13446142
0.02445576 0.17325632 0.07803284 -0.017988365 0.16168344 -0.017100437 -0.14261775 -0.1393488
0.122760676 0.19643159 0.10357071 0.020325486 0.20231085 -0.29955998 0.13760482 -0.036665533
0.23145701 0.05265739 -0.09675733 -0.26698586 -0.11106145 0.09579513 0.1891468 -0.0038990641
-0.15020204 -0.07278763 0.18659845 -0.09225179 -0.21162443 0.038230173 -0.0024935277 -0.025783956
-0.026979635 -0.20745261 0.31707263 -0.044099692 0.03641739 0.22085662 0.0662161 -0.03407674
0.004288709 -0.069297895 0.0094710095 -0.23891918 0.24943352 -0.07893414 0.07456612 -0.038154643

actor_mlp.mlp.2.bias f4 [128]
00000000: c7e4 313d b55e 63be 44c6 4dbe e727 693d
00000010: fb4b 3dbe b6c3 4ebd 2442 26be 15e1 1bbe
00000020: f74f 2dbe dc40 61be dbac 13bd 490d 39be
00000030: f6b0 55bd c4c7 08be 7dac 01be fbae c8bd
00000040: a15b 62be d22a 8abe a21e c1bd ba9d 56bd
00000050: 728f 92be a8af 44be 7f3d 20be 7ac9 62be
00000060: e60f b0bd 72e4 acbd 12d2 a43c 246d debc
00000070: b50a 933d 5856 0cbe 53e4 82be 681d e5bd
00000080: 7c93 67be 8822 2d3d 9816 5fbe 03e4 1dbe
00000090: 5a2c ac3d 2049 4abe 61c1 39be 9f01 0dbe
000000a0: 74c3 8cbe 2a74 8bbe c49d 72be b1af 793d
000000b0: b424 c5be 8ddc 91be 2cf9 fdbd 14d5 aabd
000000c0: a5f2 46be fd36 00be 8125 39be 40a1 24be
000000d0: 7f5a 24bc f037 3fbe e3df 29be fc27 78bc
000000e0: 7b10 b0be b1b0 34be 7f30 66bd 675c 9dbd
000000f0: fdba a3bd be8d 8cbe 96fb 33be b984 b0bd
00000100: b6d9 a93d 18bc 233a d8b8 21be 8e62 71bd
00000110: ea30 b5bd 8662 e9bd f998 23bc 526e b3bd
00000120: 2b8f 64be 7c6f d3bd 426b 4dbe c751 cbbd
00000130: 396a bfbd eaf2 11be 5027 28be 39a7 2eba
00000140: b4c8 46bc 42a2 4bbd 51d2 82bd c885 59be
00000150: c935 0ebe cf83 80bd 40ce 20bd b425 29be
00000160: 1d65 33be 4883 86be ca8e 0bbe b1de 8bbe
00000170: 85f7 acbd dedb 19be 1192 a0bd 346f a5bd
00000180: 7618 76bd 4e08 d2bd d963 62bd d776 5cbe
00000190: 0bf0 21bd 9a99 9cbd fab1 16be 031d 73be
000001a0: b375 19bb 4f07 41be 936c b6bd 8c16 d03c
000001b0: 8aaf 02be 322a e8bd a2b4 8ebc 7de4 78bd
000001c0: 01f0 9fbe 2d12 cbbd 3628 51bd 95ad bebd
000001d0: 6751 24be bbab abbd b46b b4bc f2ad 61be
000001e0: 2e3c 07be 816d 803b d495 2bbe 7b40 1bbe
000001f0: 4e6a 1ebe e7d0 a8bd f770 80be a6b4 20be
0.04343107 -0.22204097 -0.20095164 0.05692282 -0.18486015 -0.050479613 -0.16236168 -0.1522258
-0.16925035 -0.21997398 -0.03605352 -0.18071474 -0.052170716 -0.13357455 -0.12663455 -0.09799
-0.22105266 -0.26985794 -0.09429671 -0.052396514 -0.28625065 -0.19207633 -0.15648459 -0.2214717
-0.085967824 -0.0844201 0.0201197 -0.027151652 0.071797766 -0.13704813 -0.25564823 -0.111872494
-0.22614855 0.04226926 -0.21785963 -0.15419011 0.08406897 -0.19754457 -0.18140174 -0.1377015
-0.2749287 -0.27237064 -0.23692995 0.060958568 -0.38504565 -0.2848858 -0.124010414 -0.08341423
-0.19428499 -0.12520976 -0.18080713 -0.16077137 -0.010031342 -0.18673682 -0.16589312 -0.015146252
-0.34387574 -0.17645527 -0.056198593 -0.0768364 -0.079946496 -0.2745189 -0.17576441 -0.08619065
0.08293478 0.00062459847 -0.15793169 -0.05893188 -0.0884722 -0.11395745 -0.009985202 -0.08761276
-0.22320239 -0.10323998 -0.20060447 -0.09927707 -0.09346432 -0.1425282 -0.16421247 -0.00066624914
-0.012132812 -0.049715288 -0.06387771 -0.2124244 -0.13887705 -0.062751405 -0.039259195 -0.16518289
-0.1751904 -0.26272035 -0.13628688 -0.27318338 -0.08445648 -0.15025279 -0.0784036 -0.08077851
-0.06008192 -0.1025549 -0.055271003 -0.21529709 -0.039535563 -0.07646485 -0.1471633 -0.23741536
-0.0023416101 -0.18850444 -0.08907428 0.025401376 -0.12762275 -0.11336173 -0.017420117 -0.06076478
-0.31237796 -0.09915576 -0.05106374 -0.09310452 -0.16046678 -0.08382364 -0.022024013 -0.22039011
-0.1320655 0.003919304 -0.16756374 -0.15161316 -0.1547024 -0.0824297 -0.25086185 -0.15693912

value_mlp.mlp.0.weight f4 [256, 16]
00000000: e0b0 243d c4be 96bd dab2 2cbe 842c ab3c
00000010: 50b0 003d 81cf a7bc a9cc bc3c 1269 99bd
00000020: a91a b23d 7f99 64bc 34b7 e9be f563 8c3d
00000030: 493c 7d3e 75c0 a6be 2249 663c 9337 973d
00000040: a72b a33e 37cd d03a af20 133e 2a4f 8cbd
00000050: 4fc5 d63c c25c 8ebd f32b 71bd 3941 413d
00000060: 7c5d cabb c92a 85bc f9e5 a3be 1a94 003d
00000070: 2bd6 283e ec9f a6be 2bea 98bd d570 b83c
00000080: e115 83be aeff 93bc 3c25 6e3d f0b4 4d3d
00000090: 007d ff3c 349c a93c dc33 a83c 5840 d0bb
000000a0: caa7 04be 83d9 473e 5918 1a3e 524c 063e
000000b0: d2b7 583e 720f af3d e34c 2b3e a13f 293d
000000c0: 17d8 593e e828 08bd 1d82 4e3d 12ff 0a3b
000000d0: 545e 90bd 734f 97bd 51c7 d2bb f17e edbd
000000e0: f706 3ebc 8272 083b 9557 853e cfb3 653d
000000f0: 080e 113e 2852 763e ea3a 403d c603 093e
00000100: 35f7 91be acb9 83bd ebc9 063d c014 debc
00000110: 6052 ab3d 8b3f f23c ab48 f33d d525 b1bd
00000120: 3ea2 2cbe 51de d23c 917b 973d 1af0 273d
00000130: c460 a7bd 4172 2dbe 56c5 993d 1a19 21be
00000140: c2ad 89bd 1b7c 0c3d 3a4c d3bd c81d 67bd
00000150: 799a 36bd f75e 04bd 34be 873d 1ac2 51bc
00000160: e6fb 30bd 661b 5f3d 4178 9e3d c137 9d3c
00000170: b7fe 0fbd 8227 b13e 305f 93bc 14b0 df3e
00000180: 22bc 823e 562e 83bd 0ea5 d33c c256 2bbd
00000190: a42a 9e3c 8dc8 7abb 8236 30be 1d1e 97bd
000001a0: 3084 d2bc a3e4 54bd d6cd 8f3e 732a abbc
000001b0: d0d1 4c3e 09e9 59be fec7 89bc f237 3bbe
000001c0: 9921 a2bd 216d df3c 21cb 1bbe 5275 10be
000001d0: e24f 943d e724 91bd 205f 0d3e 31ce aabd
000001e0: da6c 54bd 4280 4a3d 5e40 1bbe 47ff 543d
000001f0: 0eeb 62bd 153f c9bd 89b6 f5bc 3ec6 063e
00000200: 7562 f8bd e2bf 90bc 4b1d cd3c 0f8a 083d
00000210: ff6a 0e3c a575 f03d d851 31be 96fc d03c
00000220: ba14 043e 8b3a 173d 8c13 1b3e c409 013e
00000230: 8eab d93c c5cf edbb 1aab a4bd 52c2 97be
00000240: 60be 8b3d 4278 41bc 8d10 963e 9343 933c
00000250: 0ae1 883d eea1 37bc 99bb a83d 36d6 aebc
00000260: decd f63c c013 393c d4a8 3a3c 7ad0 813d
00000270: 88d3 82be 9ceb 323c 5d2f 023c 3ff4 31bb
00000280: a845 99bd dce9 b5bd 60ef 0cbe b2cb 8a3d
00000290: b6c4 e63c 485b 1fbd df3c b5bc e08f eabd
000002a0: 68a4 8bbd 5fe1 833c ff34 c03d 5af6 d8bb
000002b0: 0798 2cbd fc78 1d3d b968 02be 2d07 f93e
000002c0: f096 793c efb9 65be ee94 31bd f687 c5bc
000002d0: 2d3b fdbd 3ace 9739 1a50 06bd 3847 0b3e
000002e0: 3345 83bd 6807 b0bd a2b7 65be 109f cf3d
000002f0: 8c26 8ebe 353f 253f a2be 673d 8232 7e3c
00000300: 2ae5 01bd 7f18 b8bd c2ad 1ebd f07d eabb
00000310: 4698 8e3d a72c 0e3e e343 fcbd e1a4 3fbe
00000320: e35f 5a3d cdcd 923c 49e6 373d f517 693d
00000330: 4274 d13d 4a6e 803e 6eb8 a1bd 44ec d73e
00000340: 1131 e13c f272 283e 28d3 6dbc eac4 083d
00000350: ee83 d7bd 366d 46bc 3625 73bd eb13 2f3d
00000360: 4b50 933d 55aa c4bc 4e0c b0bd e117 eabd
00000370: 5223 8ebe 6a8c 403d 6c73 e2bd de8c 96bd
00000380: 345a af3e c71d 363d de37 473c 3275 553c
00000390: 042f b33a 5ebe 3dbd 21dc ad3c b1cd a1bc
000003a0: 9cdb 8ebd 1d94 edbb f52a 2ebe 27c7 f3bd
000003b0: 137b 83bd 79ed 9cbe e48a d03a 3c75 013e
000003c0: 6663 dfbc 0cd6 18bd fef6 a43d 1ed5 933d
000003d0: 5091 01be 44e8 09be d60e 63bd 75ad 533d
000003e0: 41e8 b43d e773 c03d 92dd 113e 947b 10be
000003f0: 9105 df3d 0766 b23e a2ce dbbd 5d9b b5bd
0.040207744 -0.073606044 -0.16865101 0.02089525 0.031418145 -0.020484688 0.023046808 -0.07490744
0.08696491 -0.013952612 -0.45647585 0.06855003 0.24730028 -0.32568708 0.014055522 0.07383647
0.31869242 0.0015930299 0.14367937 -0.06851037 0.026217131 -0.06951286 -0.058879804 0.04718134
-0.006175695 -0.016255753 -0.32011393 0.03139124 0.16487949 -0.32543886 -0.07466539 0.02251474
-0.2560263 -0.018066254 0.05814098 0.050221384 0.031187534 0.020704366 0.020532541 -0.0063553266
-0.12954631 0.19516568 0.1504835 0.13115051 0.21163872 0.08547868 0.16728549 0.041320447
0.21273838 -0.033242136 0.050417054 0.0021209163 -0.07049242 -0.073882006 -0.006432452 -0.11596478
-0.01159834 0.0020820205 0.26043382 0.056079682 0.14165509 0.24054778 0.046931185 0.13380346
-0.28508916 -0.064318985 0.032907408 -0.027109504 0.08365321 0.029571315 0.11879095 -0.08649794
-0.16858765 0.025740774 0.07396615 0.041000463 -0.081727535 -0.16938116 0.07508342 -0.15732232
-0.06722595 0.034298044 -0.103172734 -0.056424886 -0.04458091 -0.032317128 0.06628075 -0.012802625
-0.04320898 0.05446949 0.0773778 0.019191625 -0.035155024 0.34600455 -0.017989725 0.43689024
0.2553416 -0.06405322 0.02583554 -0.041830786 0.019307442 -0.003826651 -0.17208293 -0.073787905
-0.025697798 -0.051975857 0.28086728 -0.020894265 0.20001912 -0.21280302 -0.016818997 -0.1828306
-0.079165645 0.027273716 -0.15214206 -0.14107254 0.07241799 -0.07087117 0.13805819 -0.08340109
-0.05186162 0.049438722 -0.15161273 0.052001264 -0.055399947 -0.09826485 -0.029994266 0.13161561
-0.12128154 -0.017669622 0.025038382 0.033334788 0.008692502 0.11741189 -0.17316377 0.025511067
0.12898532 0.036921065 0.15144175 0.12601382 0.026571061 -0.007257434 -0.080404475 -0.29640442
0.068234205 -0.011808457 0.29309502 0.017976558 0.06683548 -0.011208041 0.082389064 -0.021342378
0.030127462 0.011296213 0.011392791 0.06338592 -0.2555201 0.010920431 0.007945863 -0.0027153639
-0.07483989 -0.08882496 -0.1376319 0.06777133 0.028169971 -0.038905412 -0.022123752 -0.11453223
-0.068184674 0.016098676 0.09385108 -0.0066211643 -0.042137172 0.038445458 -0.12735261 0.48638287
0.01523374 -0.2243421 -0.04335492 -0.024112683 -0.123648025 0.00028954615 -0.032791235 0.13601387
-0.06409683 -0.08595163 -0.22433332 0.10137761 -0.27763784 0.6454957 0.056578286 0.015514972
-0.03171269 -0.08989047 -0.038739927 -0.007156126 0.069626376 0.13884221 -0.12317636 -0.1871524
0.0533141 0.0179204 0.04489735 0.056907613 0.102272525 0.25084144 -0.07896505 0.42172444
0.027489217 0.16450098 -0.014515676 0.033390917 -0.105232105 -0.012110999 -0.05936166 0.042743605
0.07193049 -0.024007002 -0.08596097 -0.11430336 -0.27761322 0.04700891 -0.11057171 -0.07351087
0.34248507 0.04446199 0.012159316 0.01302843 0.0013670628 -0.046324126 0.02122313 -0.019751402
-0.06975481 -0.0072503225 -0.17008574 -0.1190322 -0.06419959 -0.30649927 0.0015910533 0.12642378
-0.027269077 -0.037313506 0.080549225 0.07218383 -0.12653089 -0.13467509 -0.05543407 0.051679093
0.088333614 0.093971066 0.14244679 -0.14109641 0.108897336 0.34843466 -0.107327715 -0.08867524

value_mlp.mlp.0.bias f4 [256]
00000000: fbdb acbe 0b49 f2be 2193 91be 9af7 1a3e
00000010: 3f6a 8b3d b309 953d fb1c b73c fc1c 533d
00000020: 6df3 9a3e 57f7 84be e1c0 febd ca63 12be
00000030: 8d3f c03c 7de4 89be 4d6f e8be eedc 07be
00000040: 95a0 8bbe 1070 c83c 533b bdbe dc21 3fbe
00000050: b7e7 92be 6121 8d3e c202 acbe 74a1 babe
00000060: a141 8c3e 019b 3fbe 4252 7dbe 055b 2cbe
00000070: 9c24 49be f888 a73e 3d96 e5bd c298 85be
00000080: ddc0 56be 8322 f03c 2b6e ad3d e38e 493e
00000090: decc dc35 9de8 78be fadd 9dbe 4a0f 2dbe
000000a0: 6e0e bf3e 9730 0a3e dbd9 33be 211c 28bd
000000b0: 77a1 5f3e da1a a9bd 9975 2c3d a045 7dbe
000000c0: 48e9 a3be aa75 d5be aa3b 7fbe 2b5c bf3e
000000d0: 412a 96be 6025 8bbe b218 8ebe d020 82bd
000000e0: 30fd 9bbe 5482 8bbc 187a ac3e 63ab ca3e
000000f0: f0bd abbe ff7d 28be 5beb dcbe a932 0fbe
00000100: b43e 1fbe bcc7 81bd 0c46 8d3e 9b70 803d
00000110: 9128 dbbd 2f63 b3bd 7d00 29be 202c c6be
00000120: 9b2e b03c 820b c4be 6ede d9bd 9fa8 ca3d
00000130: f167 3d3e 6e39 60be 6a97 e9bd fdd7 cd3d
00000140: e26b 81be b3de 693e de51 13be e412 34be
00000150: 2c1d 983e fd64 223e 2a25 dcbe 4526 66be
00000160: f0e9 c73d 94a4 58be 1575 94be d142 aebd
00000170: 41ef 85be 8a3d b33b 8a67 c9be be8c a53e
00000180: b721 b5be 2ba1 a7be 5492 1fbe 771d 5c3e
00000190: f91e fdbd 95ff f2bb 9b07 78be dda1 d4bc
000001a0: 6c1b cebe b8bd dc3d 4bea 40bd 9097 9fbe
000001b0: 038c 0c3c d17c 49be ae8b 6cbe 033f 303e
000001c0: df4a 54bd 18f2 b2be 39e1 a63e bb19 ba3e
000001d0: a14e 06bf 62bb 943d 8d6a c1be d992 99bc
000001e0: 80e2 4d3e 42e8 c33d 9b78 90be 18cd 88be
000001f0: 0164 c3be fe89 d0be 3f8b 58be a19f 56be
00000200: b142 c83d b231 e5be 39e4 febd 1c0e 97bd
00000210: 1497 733e 4270 763d e5c6 993a ea96 3cbe
00000220: 3f25 8abe 6d84 d5bd c374 92be 5ca7 99be
00000230: f720 f43d ff19 aebe 1d36 a5bd 6b2b f1be
00000240: 5638 0c3e 4504 c63b 5827 b1bc 29c8 b73e
00000250: 3f97 d63d 0fd6 9dbd 903b 143e 2b71 ab3e
00000260: 892d 84be d008 7e3d 3a8e 46be 7f87 a6bd
00000270: c641 463d 7e32 14be e1d5 7bbe 7e60 48be
00000280: ea1b c63c 132b 8fbc 3326 5dbe b989 c13e
00000290: eecc a73e b82d 2abd 6f1c 993d db3f 67be
000002a0: ce9d 87be c345 343e a381 1c3e a531 973c
000002b0: d1a9 82bd 2e70 b4be ce35 5fbe 0c2a 58be
000002c0: 04df c43d 5b92 b53e 2f1c 0e3e c644 78be
000002d0: 2c4a 253e eef6 c9be 90ab 653d 5eeb 27be
000002e0: 3727 a8bc d7dd 0abf 14b1 9ebe bf00 8ebe
000002f0: 2619 c0be 5d11 c9be e4ba 5ebe 9193 4abe
00000300: 0a82 efbc 71dc 4cbe c3ee 35be b52b 563e
00000310: e8b8 11bf 9e2a 433e 9576 bebe 04d5 b63e
00000320: 8ad5 81be dc2b b93e f971 68be 550f a4be
00000330: bdb9 d1be ccca d8be 1c93 aabe 8097 05bc
00000340: 7e28 103e 99b0 f1bb cd76 3dbd ac6a 9cbe
00000350: 8dad 8abb 9bcf a03e 4557 a6be bd72 df3b
00000360: 6a34 e83d 4451 173e 882f 85be 573b 5dbe
00000370: 4dac 99be a35c c0be 6476 4a3d 04c5 45be
00000380: f45a 83be daf2 aebc cb6f 48be 17d7 79be
00000390: 9b3b 51be 6c7a 8fbe 5402 883d 9cf4 613e
000003a0: c65e 003f f17a 93be 3aad 53be 4ee2 283e
000003b0: d803 1e3e 2ecc 7abe 6bbe 3d3e 8bc6 f2be
000003c0: b8e4 2fbc d020 cfbd 8fae dc3e 50d4 6c3e
000003d0: 0b13 f0be b36d d8be 4942 b2bc 80f3 79bd
000003e0: 0eb4 51bd afae 393d 3be8 62be 8ee7 d4bd
000003f0: 9036 163e 4252 cebd 410a 62be b9b1 d7be
-0.33761582 -0.47321352 -0.28432563 0.15133515 0.06807374 0.072772406 0.022352686 0.051541314
0.30263844 -0.25969955 -0.124391325 -0.14295879 0.023467803 -0.26932135 -0.45397416 -0.13267872
-0.27270952 0.024467498 -0.36959323 -0.1866526 -0.2869241 0.2756453 -0.33595854 -0.36451304
0.2739382 -0.18711473 -0.2473841 -0.16831596 -0.19642872 0.32721686 -0.11210296 -0.26093107
-0.20972009 0.029313331 0.084682785 0.19683413 1.6450902e-06 -0.24307485 -0.30833417 -0.16900364
0.37315696 0.13495098 -0.17563574 -0.04104245 0.21838938 -0.08257075 0.042104337 -0.24733591
-0.32013917 -0.41691333 -0.24925104 0.37375006 -0.29329112 -0.27176952 -0.27753216 -0.06353915
-0.30466604 -0.017029919 0.336869 0.39583883 -0.33543348 -0.16454314 -0.43148312 -0.13984169
-0.15551263 -0.063369244 0.27592504 0.06271478 -0.10701097 -0.08759152 -0.16504093 -0.3870554
0.021506598 -0.3829003 -0.10638128 0.09895443 0.18496682 -0.21896908 -0.11405833 0.10050962
-0.2527762 0.2283886 -0.14386699 -0.17585331 0.29709756 0.15858836 -0.42997104 -0.22475536
0.09761417 -0.21156532 -0.28995577 -0.08508838 -0.261591 0.0054699825 -0.39336807 0.3233394
-0.35377285 -0.3274015 -0.15583163 0.21495615 -0.12359423 -0.0074157217 -0.24221651 -0.025956089
-0.40255296 0.107783735 -0.04709844 -0.3117032 0.008578303 -0.1967652 -0.23100159 0.17211537
-0.051829215 -0.34950328 0.32593706 0.36347756 -0.5246373 0.07262303 -0.37776604 -0.01874678
0.20105934 0.09565784 -0.28217015 -0.26718974 -0.38162234 -0.4073028 -0.21146868 -0.20959331
0.097783454 -0.44764477 -0.12445874 -0.07375738 0.237881 0.06016565 0.0011732249 -0.18416944
-0.26981542 -0.10425649 -0.28604707 -0.30010498 0.1192035 -0.34004208 -0.08066962 -0.47103438
0.13693365 0.0060429894 -0.021625206 0.35894898 0.10478067 -0.07706844 0.14475846 0.33484778
-0.2581599 0.062020123 -0.19390193 -0.081313126 0.04840257 -0.14472386 -0.24593307 -0.19568059
0.024183232 -0.017476594 -0.21596603 0.37800387 0.32773536 -0.041547507 0.074761264 -0.22582953
-0.26487583 0.17604737 0.15283827 0.01845629 -0.06380046 -0.35241836 -0.21797869 -0.2110979
0.09612849 0.35463223 0.13877939 -0.24244985 0.16141576 -0.39446205 0.056071818 -0.16398379
-0.020526512 -0.5424475 -0.30994475 -0.27734944 -0.37519187 -0.3927106 -0.2175098 -0.19782855
-0.029236812 -0.20005967 -0.17766862 0.2091511 -0.5692277 0.19059226 -0.37199846 0.35709393
-0.2535823 0.36166275 -0.22699727 -0.32042947 -0.4096202 -0.42342222 -0.3331536 -0.008153796
0.14077947 -0.0073757884 -0.046255875 -0.30550134 -0.0042321146 0.3140839 -0.32488456 0.006819098
0.11338122 0.14777094 -0.26012826 -0.21604668 -0.30014268 -0.37570676 0.049429312 -0.19313437
-0.2565533 -0.021356035 -0.19573896 -0.24398457 -0.20432894 -0.28023088 0.06641069 0.22065967
0.5014461 -0.28804734 -0.2067155 0.16492578 0.15431154 -0.24491951 0.1852967 -0.474171
-0.010735683 -0.1011368 0.43101928 0.23127866 -0.4688953 -0.42271194 -0.021760123 -0.061023235
-0.051197104 0.045332607 -0.22158901 -0.10395728 0.14669251 -0.10074283 -0.22074224 -0.4212778

value_mlp.mlp.2.weight f4 [128, 256]
00000000: 17ff d5bd 18b7 4f3e 706f 893d 545e e63d
00000010: 1bc1 fdbc d06b 1c3d f58a 85bd d5d4 fa3a
00000020: cd02 0b3a 0ecf b0bd 0d13 583d 1ea5 4dbd
00000030: 4ced 8bbd a726 bb3c 5604 a63d 6005 23bd
00000040: 3282 b5ba 9f0a 1f3e 4dbf 973d f8eb e13d
00000050: 1de1 7bbd eb54 8c3c 4b9b 3c3d dcb4 b0bc
00000060: 1847 603d afc9 b13d 4dd9 9dbc 96f9 24be
00000070: 61a7 3d3e fbd5 4e3d 88b3 e6bd 6736 bbbd
00000080: c0a6 0c3e feb6 9abd ce9e 633c 6948 b0bc
00000090: 32ec 3a3d 4f5e de3c c23f dcbd b19a e2bc
000000a0: 92da 85bd ce94 023c 75d1 1b3d 4c5d e73a
000000b0: 1226 893d c0a8 a0be 66c0 fa3d 86bb b43b
000000c0: 0914 d23b ca88 19bd 0e52 d63c 189d 0b3a
000000d0: 89f7 a63b db1c aebd fbc5 a0bd 216c 26be
000000e0: a1d8 2bbe 3cbb ad3d ec91 2c3e c033 ffbd
000000f0: ba73 063e fff7 0abd 1347 76bd 1384 383e
00000100: 0595 b83d aca4 aabd fa10 1abe a54d 043c
00000110: 1bef 853d d6e0 2ebb d1dd f13d 39fa 103e
00000120: 4d9e 95bd 3bd2 0b3d 255d 283c ecb2 b93d
00000130: addd 44be 715c 913d b832 aabc 217d 8abd
00000140: 4d92 c23d 200c 7ebd 60d7 06be 0985 d6bd
00000150: e5bb bdbd 4fdd 983c c39f 4abc 120b e33d
00000160: ed02 c5bc 77c3 d03d 30ab 323b d8a8 f23d
00000170: 2ac3 58be ba55 97bd 05ca 0e3c 05c9 e2bc
00000180: 0eeb c3bd 7235 1cbd eef2 01bd ea60 983d
00000190: c08c 903c ce68 30bc aeb5 d93c a512 b73d
000001a0: 1198 073d d59d 973d 8878 a23d 8452 243d
000001b0: a24a d1bd aa0b 0d3e 2623 933d 92ad 4d3c
000001c0: dff8 ef3c 7bf3 90bd a29e e4bb f096 2c3e
000001d0: 6a68 e33d 0fc7 4abc 5da5 87bc 2f56 d13b
000001e0: d730 f7bb d6a2 8a3d 20be 05bc ddde 6bbd
000001f0: fb02 973c 6854 9cbc 4d36 e5bb 9494 b4bd
00000200: 6b65 6cbd ed18 b83d 4677 a7bd 938c 72bc
00000210: 88ef afbd d6e0 14bc a1cf fa3c 80b9 b73c
00000220: 8981 a73d 9e95 163e b5c3 e73d 0b15 a9bb
00000230: c41a a0bb 8177 56be 1e65 03bc c3f0 bdbd
00000240: 956e f43c 7c40 5b3d 5184 973d b822 0abd
00000250: 1893 a1bd b1be 9ebd d272 57b9 fa38 283c
00000260: ec19 453e cdc2 b23c 71e5 1f3e 828a 9e3c
00000270: eaee bb3d ca69 e03d 8d52 d93c bd04 083e
00000280: e44c cebc 6932 37be c95e 3e3e dec3 d1ba
00000290: 951b ccbb 95e3 05bc f42f 003e 5ba3 e9bd
000002a0: 2838 0dbe 4714 5f39 5078 8e3d 585e 28be
000002b0: 6c9f f23b 303a 3d3e 327a 0a3d 0c1a 733d
000002c0: 3a50 abbc b156 cb3c 4bdb b73d 1602 60bd
000002d0: 9670 63bd 7384 9abd 338b acbd 9f72 dfbd
000002e0: 2c79 e3bd 99e1 2fbe b0e6 25bd 53e5 fe3d
000002f0: ecd5 71bd 002e 36bd 74d4 78bd 702f 27bd
00000300: 0163 023e dd15 03bd 1a09 3cbe a19d febc
00000310: 8596 423d 60f6 24be f788 8cbd e257 80bd
00000320: 7296 ee3d da76 c93c 428c e2bd 7e54 98bd
00000330: 8306 b93d 03a5 1d3c 5060 913d d7b8 21be
00000340: 524e 123e a137 7cbd a3e0 aabd 53dd e5bd
00000350: e64f 91be 5a66 303d 1c5c 173e f31e a3bd
00000360: 929e fe3d 26b8 03be 2c0c d33c 88e6 b1bb
00000370: 0c07 433e dbe3 933d bed4 34bc fb3e 98bd
00000380: 557b d0bd dcb9 c73c c5cc c5bd 43eb 6bbe
00000390: 93d3 3f3d 7fe8 bd3b 55ea dc3c 6d7f 103c
000003a0: f433 353d f8bb abbd a45f 40bd 624a a7bd
000003b0: 3cfa a03d 4a18 48bd c052 4f3c 302e 203e
000003c0: 74dd 073d 3606 d23a b474 3cbe d425 4fbc
000003d0: 6966 9abd f755 a7bb f2c4 67bd 2997 dabd
000003e0: cb16 823c 2c08 513d a8cc e0bc a81e ef3d
000003f0: b5f1 1cbd b0fc 7b3b 0dbc a33d dfcd 08be
-0.10449045 0.20284688 0.06710708 0.112484604 -0.030975869 0.038188756 -0.065206446 0.0019136915
0.00053028465 -0.086332425 0.052752543 -0.050206296 -0.0683237 0.02284558 0.08106296 -0.039800048
-0.0013848005 0.15531395 0.074095346 0.110313356 -0.06149398 0.017130336 0.046046536 -0.021570615
0.0547553 0.08681046 -0.019268656 -0.16110834 0.18520881 0.050497036 -0.112647116 -0.09141236
0.13735485 -0.07554434 0.013892842 -0.021518903 0.04563541 0.02714458 -0.10754348 -0.027661653
-0.065358296 0.007970048 0.03804155 0.0017651706 0.066967145 -0.31378746 0.12243728 0.0055155186
0.00641108 -0.037483968 0.026162174 0.0005325838 0.0050954265 -0.085015975 -0.07850262 -0.16252185
-0.16781856 0.08482978 0.1685254 -0.124610424 0.13130084 -0.033927914 -0.060126375 0.18019132
0.09012798 -0.0833219 -0.15045539 0.0080751525 0.065397464 -0.0026684306 0.11809886 0.14157952
-0.07305584 0.03413604 0.010276114 0.0906733 -0.19225188 0.0709771 -0.020776138 -0.06762148
0.09500561 -0.062023282 -0.13168097 -0.10474593 -0.09264354 0.018660216 -0.012367192 0.11086096
-0.024049247 0.10193532 0.002726268 0.11848611 -0.21168199 -0.07389398 0.008715157 -0.027683744
-0.095663175 -0.038136907 -0.031725816 0.0744036 0.01764524 -0.010767175 0.02657589 0.08939103
0.033104006 0.07403151 0.07933146 0.040117756 -0.10219313 0.1377398 0.071844384 0.012553589
0.029293476 -0.0707769 -0.0069769183 0.16854453 0.111039 -0.012376561 -0.016558344 0.0063884477
-0.007543664 0.0676934 -0.008163005 -0.057585586 0.018434038 -0.019083217 -0.0069949985 -0.088174015
-0.057713907 0.08989129 -0.081770465 -0.014804023 -0.08590609 -0.009086808 0.030616583 0.02242732
0.08179004 0.14705512 0.11316625 -0.005159979 -0.004886003 -0.20944025 -0.008019714 -0.09274437
0.029837886 0.053528294 0.07398284 -0.033724517 -0.07889384 -0.07751215 -0.00020546772 0.0102674905
0.1924817 0.021821404 0.15614869 0.019353155 0.091764286 0.10957678 0.026528621 0.13283058
-0.025183149 -0.17890324 0.18590845 -0.0016003808 -0.006228874 -0.008171936 0.12518293 -0.11408111
-0.13790953 0.00021274491 0.069565415 -0.1644224 0.0074042585 0.18479228 0.03380794 0.059351012
-0.020912278 0.024821611 0.08977374 -0.05468949 -0.055527292 -0.07544794 -0.08424988 -0.10910534
-0.11107096 -0.17175902 -0.040503204 0.12446084 -0.059041902 -0.044477463 -0.060749486 -0.040816724
0.1273308 -0.032003272 -0.18362847 -0.031081023 0.047506828 -0.1610961 -0.068620615 -0.06266762
0.11649789 0.024592806 -0.11061908 -0.074379906 0.09034445 0.009621861 0.07098448 -0.15793167
0.1428769 -0.06157649 -0.08343627 -0.11223855 -0.2838127 0.04306636 0.1478123 -0.079648875
0.12432589 -0.12863216 0.02576264 -0.005429093 0.19045657 0.07221194 -0.01103705 -0.074338876
-0.10179774 0.024380617 -0.09658197 -0.23038964 0.046832632 0.005795538 0.026967207 0.008819443
0.044239 -0.083854616 -0.04696621 -0.08168484 0.078602284 -0.04885129 0.0126540065 0.15642619
0.03317018 0.001602358 -0.18403894 -0.012643296 -0.075390644 -0.0051066834 -0.056584306 -0.10673363
0.01588001 0.051033184 -0.027441338 0.11675769 -0.038316447 0.0038450174 0.07994852 -0.13359784

value_mlp.mlp.2.bias f4 [128]
00000000: 7b93 7cbd 75a8 1f3d 8c18 383d 269b 7dbd
00000010: 1c07 adbd eccc bc3d 95ee 203d b936 1fbe
00000020: b991 833d 538b eabd c955 a0bd 69c1 2f3d
00000030: 4452 773c 182b d63b bfcf f9bd 2089 bebc
00000040: d8d0 033d 29a2 94bd 5b47 4bbe 863c c0bd
00000050: 56f7 28bd f15e 863c 0be2 ebbc 87d7 783d
00000060: c971 5a3d 576c 363d fd24 ee3c 784c 9b3d
00000070: e279 1abd 7143 643d 2e5b e6bd 3130 043d
00000080: 5693 1c3d 4448 1ebc 77dc a83d c283 41bd
00000090: 356b 5ebd 06bb 53be 52dd 773d c32e abbc
000000a0: 96b9 433b 08e0 7b3d fb0b 60bb 9784 0dbe
000000b0: a017 1cba 0419 68be c3ee 9dbd 56d0 cb3c
000000c0: d514 97bd d1c7 a3bd 5ffb 853d a9ad c53c
000000d0: 448f 893d d98d 4c3d 12ec 503d defb 84bc
000000e0: 53da 1fbd 194d 833d 7acf 27be 537a d33c
000000f0: 339b 233d e594 75ba 66a1 dabe 4d1c c6bd
00000100: 1b83 d3b9 e3fe 05bc 60c2 a8bd 39c1 a2bd
00000110: 5693 003d 795a 61bd a516 7b3d 4bb0 c7b9
00000120: b085 dcbd b8ff 8d3c d0ca 8dbc d5e4 3cbb
00000130: 55e5 d4bc 41a5 71bd cee7 72bd 5981 0abd
00000140: 651c 96bd 9f49 de3b 609c 0ebe 6bfe c9bd
00000150: 241f 8ebd 2160 733d 3219 5f3d d96d 71bd
00000160: 786b b9bd a84f df3c 7fe5 56be 624b c73d
00000170: e3e3 7c3d 146c 7abd b46c fcbc 53a8 aebc
00000180: 7d17 333d bcb0 26bd 731b e0bc 9830 bdbd
00000190: 73e0 24bd 64a5 6e3d 9dc2 653d 3337 babe
000001a0: bfdf a0bd 1ca8 81bd f826 0c3d 23ae 913d
000001b0: 6be3 973d fc64 03bd 7abd a93c 1a5d 31bc
000001c0: 8bcb 68bd 44a2 68bd 7e6d 3b3d 82ab 03bb
000001d0: 6ea9 c9be 0a89 7d3d 3712 6cbd c667 4abe
000001e0: ba6c a43d 02b1 f1bc f179 513d 8ace 58bd
000001f0: c5fe 7cbd 3629 763d d529 6c3d ca99 183d
-0.061664086 0.038979013 0.044945285 -0.06191554 -0.08448622 0.09218773 0.03929003 -0.15548219
0.06424279 -0.11452355 -0.07828862 0.04290906 0.015095297 0.006535899 -0.121978275 -0.023258746
0.03218159 -0.07257492 -0.19851439 -0.09386544 -0.041251503 0.016402693 -0.02879431 0.060752418
0.05333117 0.044536915 0.029070372 0.07582945 -0.037713893 0.05572838 -0.1124786 0.03227252
0.038226448 -0.009660784 0.08245175 -0.047244795 -0.05430146 -0.20676813 0.060513802 -0.020896321
0.0029865257 0.06149295 -0.0034186828 -0.1382011 -0.0005954448 -0.22665793 -0.07711556 0.024879616
-0.0737702 -0.07997096 0.06542086 0.02413066 0.06716779 0.049939964 0.051006384 -0.01623338
-0.03902657 0.064111896 -0.1638774 0.025815165 0.03994293 -0.00093681953 -0.42701262 -0.09673367
-0.00040342737 -0.0081784455 -0.08240199 -0.079470105 0.03139051 -0.055017922 0.061300892 -0.00038087586
-0.10767686 0.01733385 -0.017308623 -0.0028822918 -0.02598826 -0.05899549 -0.059303097 -0.03381476
-0.073296346 0.0067836787 -0.1392684 -0.098629795 -0.06939533 0.059417848 0.054467387 -0.05894265
-0.09053701 0.027259663 -0.20985983 0.09731175 0.061740767 -0.061138228 -0.030813552 -0.021320498
0.043723572 -0.04069589 -0.027356839 -0.09237784 -0.040253114 0.058263198 0.0560938 -0.3637024
-0.07855176 -0.063308924 0.03421685 0.07113292 0.074164234 -0.032078728 0.020720232 -0.01082542
-0.05683474 -0.056795374 0.045758717 -0.002009124 -0.39387077 0.06189827 -0.05763456 -0.19766149
0.080285504 -0.02950335 0.051141683 -0.052931346 -0.061766405 0.060097896 0.05765708 0.03725604

value.weight f4 [1, 128]
00000000: 2305 06bb a660 44bc f534 67bb 8dd5 b439
00000010: fc89 0dba d61f c93d af8e d0bc 2b46 a7bc
00000020: c967 2cbd 46ba d1bd a838 bd3a d4dd f73a
00000030: f3e3 0f3b 9bf0 53bb 82f1 c5bd b1d2 e1ba
00000040: 8819 04bb ced4 c5bc 9770 52bc 91f5 a1bd
00000050: e412 92bc 45ba ea3d 3737 a1bd 46b7 90bb
00000060: 0a5b c5ba 6cb0 283b 5eb1 17ba c7bb 803a
00000070: 3d24 f9bc 39c2 2a3d d0b7 d9bc b04b ba3a
00000080: 2151 2b3d 9899 1fbb 71c0 9f3d ea73 c3bb
00000090: 8d35 3eba 72db 11be 460e 893b d3fd 3aba
000000a0: 8356 f4b9 c9cb d5ba 9701 8439 b279 59bd
000000b0: 5e05 27ba 2ecf d5bd bd7c ffba ace5 d3bb
000000c0: fe30 7bbb c4af 9a3b 865f 03bb 5cfa f6bb
000000d0: b420 47ba 9b26 253b 2666 fdbb 0856 c2b8
000000e0: 85dc 94ba 6bfe 4c3e ed89 bfbd 1ed2 e8bb
000000f0: 9d6a 903a 46c8 f3bd e1a0 81be 1938 45bd
00000100: b4fb eab9 1437 02bb a2ec 8abd 915f 093a
00000110: 1680 093d 564a 9cbd 7ead 17bb 2f99 f6ba
00000120: c33b 32bc 3a38 92ba a770 d4b9 e0f0 3ebb
00000130: 565d 2ebb 2c9f 76bb c8d4 92bb 5c55 1cba
00000140: 96a1 50bd 714e 77b9 cf3c 89bd 1009 f93a
00000150: b55f 51bb 0860 e7ba e566 26ba ab5b a0b8
00000160: 27af acbd 243c 30bb 5898 cdbd 0b60 a83d
00000170: 94ec 7539 1fa1 9d3a fe34 a9bb bc73 40be
00000180: 35a6 343b 1fac 64bb d262 0dbb 1390 d6bd
00000190: 2406 a3bb ef2a 20b8 5d29 19bc 5c0e 29be
000001a0: 9aae 6339 fd93 1d3a 2592 443d da47 46ba
000001b0: f70f 8ebb 53cb 3ebb 8f83 443b e460 cb3a
000001c0: 6c0c ff3c 41a1 d6ba 1016 58ba f1c2 9e3c
000001d0: b67d 0dbe fb85 5139 da11 10bb 59cb d4bd
000001e0: ef16 24bb 73ad 523b 311a e7ba 674c 92bd
000001f0: 957f 82bb ee6a 87ba 6b84 a23d 245d 6dbb
-0.002044984 -0.011985933 -0.0035279368 0.00034491383 -0.00053992844 0.09820525 -0.025458662 -0.0204192
-0.042091165 -0.10240607 0.001443644 0.0018910714 0.0021955937 -0.0032339457 -0.096652046 -0.0017228929
-0.002015682 -0.024149325 -0.012844226 -0.07908166 -0.017831273 0.11461309 -0.078718595 -0.004416379
-0.0015057039 0.0025739921 -0.00057866226 0.0009821587 -0.030412788 0.04168913 -0.026576906 0.001421323
0.041825417 -0.0024353024 0.07800377 -0.005964746 -0.00072559045 -0.14243868 0.0041826097 -0.00071331597
-0.00046603763 -0.0016311343 0.00025178186 -0.053094573 -0.0006371344 -0.10439907 -0.0019492131 -0.006466588
-0.0038328762 0.00472066 -0.002004595 -0.0075371694 -0.00075961207 0.0025200013 -0.0077331243 -9.2666654e-05
-0.0011357224 0.20018928 -0.09352479 -0.007105126 0.0011018101 -0.119034335 -0.25318053 -0.048149202
-0.0004481949 -0.0019869255 -0.067834154 0.0005240376 0.033569418 -0.07631366 -0.002314418 -0.0018813963
-0.010878506 -0.0011155673 -0.00040519724 -0.0029135272 -0.0026605926 -0.0037631495 -0.004480932 -0.0005963647
-0.05093535 -0.00023584977 -0.067010514 0.0018999893 -0.0031947915 -0.0017652521 -0.000634773 -7.646469e-05
-0.08431845 -0.0026891315 -0.10038823 0.08221444 0.00023453153 0.0012026167 -0.005163788 -0.18794149
0.0027564887 -0.0034892631 -0.0021573794 -0.10476699 -0.0049750973 -3.8186958e-05 -0.009348241 -0.16509384
0.00021713451 0.00060111267 0.047990937 -0.00075638073 -0.0043353993 -0.002911289 0.0029985642 0.0015516547
0.031133853 -0.0016374962 -0.00082430337 0.019380065 -0.13817486 0.00019981705 -0.0021983297 -0.10390348
-0.0025038084 0.003214684 -0.0017631707 -0.07143479 -0.003982494 -0.001033155 0.07935413 -0.0036218846
