dcmm_sim/scripts/catch_it/assets/models/catch_two_stage1.pth (torch, 490794 bytes, 28 tensors)

sigma_t f4 [4]
000000 b9 3d e4 bf 7c 0c ea bf b8 4b b0 bf 3c b1 ad bf
       -1.7831336 -1.828506 -1.3773108 -1.3569713

sigma_c f4 [12]
000000 38 be c7 be 5b 79 aa 3e 8f 5c aa 3e 4d 9c 98 be
       -0.39012313 0.33295712 0.33273742 -0.29806748
000010 7b 0a 18 3f f0 89 12 3f d8 06 cf be 50 cd 41 3f
       0.5939099 0.57241726 -0.4043491 0.75703907
000020 b3 37 22 3e 32 b8 16 3d dd 86 29 bd 1d 7d 13 3f
       0.1584156 0.036796756 -0.04138838 0.5761278

actor_mlp_t.mlp.0.weight f4 [256, 16]
000000 58 bb 20 be f6 02 b3 3e d7 d9 3e 3d 26 d3 7b 3d
       -0.15696466 0.34963197 0.046594467 0.061480664
000010 87 52 84 3c c2 5f 0b bd 51 a7 64 bd 85 de 0f 3d
       0.016152633 -0.03402687 -0.055823628 0.03512432
000020 41 02 57 3d f1 f8 02 bc d3 64 28 3d cc be 63 be
       0.052492384 -0.007993923 0.04111178 -0.22240752
000030 51 63 d7 3c c4 45 e6 3c 99 9f a7 3b bc 4a 0f 3d
       0.026292475 0.028109439 0.005115461 0.03498338
000040 76 91 e3 3d 1a 9f 47 3d 49 23 3c be dd 76 c0 bd
       0.11111729 0.048735715 -0.18372835 -0.09397671
000050 4d eb f6 bc 30 ab 3c 3e d5 c9 85 bd 4f 26 0f be
       -0.030141497 0.18424678 -0.06532637 -0.13979457
000060 86 c1 92 3d 91 c2 b2 3d 36 0a 1f 3e 1f 32 ea bd
       0.07165818 0.08728517 0.15531239 -0.11435341
000070 86 a6 f3 3c 5e 89 32 3e 7a f4 1a bd 80 9a 36 3e
       0.02974249 0.17435214 -0.037830807 0.17832375
000080 9d 89 78 bd a9 14 dc be d7 a1 50 3e 3f 3b 26 3d
       -0.060678113 -0.42984512 0.20374237 0.040583845
000090 ff 5e 58 3d 82 8a 00 be b0 d8 b7 3d a6 71 62 3c
       0.05282497 -0.12552837 0.08976877 0.013821041
0000a0 ae a3 b3 bd 1d 62 0f bc 87 d7 27 be 65 f1 f1 3e
       -0.08771454 -0.008751419 -0.16390811 0.47254482
0000b0 cb 2e 7a be 94 c4 b5 be d9 a1 19 3e f8 93 fd bd
       -0.24431913 -0.3550154 0.15003146 -0.123817384
0000c0 ae 5c 14 3e bc 28 00 bf ae cd b7 3e 5a a2 6a 3d
       0.1448848 -0.50062156 0.3589911 0.057283737
0000d0 21 05 9b 3d 27 78 56 bd 8c 86 b0 bd 2d 92 8a bd
       0.07569338 -0.05236068 -0.08619413 -0.06766162
0000e0 7b c4 30 3d 02 8f 8b bd 81 ea 63 3e b6 4a cd 3e
       0.04315613 -0.06814386 0.22257425 0.40096062
0000f0 97 9e f5 3d 23 e3 c5 3d 58 4c e0 3d 62 d6 21 be
       0.11993139 0.096624635 0.109520614 -0.15804437
000100 c6 c8 72 be 2c b4 ee bc 15 56 4b be bd 49 5b bd
       -0.23709401 -0.029138647 -0.19857056 -0.05353712
000110 0b d3 8d bd a9 44 35 3d 72 e2 0f 3d 54 a4 18 3e
       -0.06925019 0.044254933 0.035128064 0.14906436
000120 0b 91 20 be 2b fa 29 be 2c 34 c9 bd e8 a2 c9 3d
       -0.1568033 -0.16599338 -0.09824404 0.09845525
000130 f3 7b 5b 3e b1 a8 0c 3e cc b8 52 3d 69 96 26 3e
       0.21434002 0.13736226 0.051445767 0.16268314
000140 6a 19 04 be 3f 77 ef bd 9d fd 21 be 55 d7 b0 bd
       -0.1290032 -0.11692666 -0.15819402 -0.08634821
000150 dd c8 a5 3d 4b 86 f7 3d 5a ab 47 bd 2b d2 b4 3d
       0.08094952 0.12086161 -0.048747398 0.08829149
000160 fb ed 12 bb 01 ce a2 bc bb 0c 89 3d e4 37 75 3d
       -0.002241968 -0.019873621 0.06691881 0.059867755
000170 3d 95 62 bc d0 f4 21 3d 23 1e 88 bd 31 6e 19 3e
       -0.0138295265 0.039540112 -0.06646373 0.14983441
000180 a4 60 dc bd a7 80 19 be dc 4a 0e bd e2 79 5b 3c
       -0.1076062 -0.14990483 -0.03473936 0.013395758
000190 53 fe 11 3c 40 88 31 3e 7c a7 ac bc 57 d4 fb bc
       0.008910733 0.17337132 -0.021075957 -0.0307409
0001a0 b8 e8 d2 3c 00 7a 1f 3c 19 0a 9d 3e d5 f4 29 3e
       0.025745735 0.009733677 0.30671766 0.16597302
0001b0 ca b5 f1 3c 02 89 c8 bc b9 25 33 bd 68 6c 17 bd
       0.02950563 -0.024479393 -0.043737147 -0.03696862
0001c0 73 6d a8 3c a5 21 24 3e 8f 1a 95 3c 93 93 4b 3d
       0.020560002 0.1602846 0.01820114 0.049701285
0001d0 2f 3d 9b bd b8 b7 1c 3c e6 ea a0 3d 78 ae bd bd
       -0.07580029 0.009565286 0.07857303 -0.09261793
0001e0 fd f3 71 3e d4 fe d1 3d 5d 77 d8 be e3 b1 ec bd
       0.2362823 0.10253683 -0.42278567 -0.11557367
0001f0 6f d8 7c be 99 88 34 bd 34 f2 90 3c e8 57 89 bd
       -0.24691938 -0.044075582 0.017693616 -0.0670622
000200 66 dd c8 bd fd e7 99 3e 56 5b 94 be 16 85 55 be
       -0.098078534 0.30059806 -0.28975934 -0.2085155
000210 6c 7a c1 bd d4 74 00 3e 1a c0 dc 3d 3a 03 15 be
       -0.09447178 0.12544566 0.10778828 -0.14552012
000220 a0 7c 41 bd 93 8c 5d 3e c3 f9 96 3e e1 b7 22 be
       -0.047237992 0.21635656 0.29487428 -0.15890457
000230 3b 63 80 bc d8 87 39 3e 76 21 18 bc ea ff c9 3d
       -0.015672317 0.18118227 -0.009285321 0.09863265
000240 ea 06 16 3b f5 67 fa bd 4a 11 f0 bd 6d 33 bf 3c
       0.0022892305 -0.122268595 -0.117220476 0.023339951
000250 5a 13 86 bd 38 b7 cf 3d 22 6b 1d 3e d7 38 e5 3d
       -0.0654666 0.10142368 0.15372899 0.11192482
000260 f2 c2 5f be 3e eb d4 3d 70 c2 43 be 59 78 32 3e
       -0.2185171 0.103964314 -0.19117141 0.17428721
000270 9d 22 83 be f4 02 68 be 94 90 38 3e 8f 25 4c bd
       -0.25612345 -0.22657377 0.18023902 -0.049840506
000280 9e 79 e5 bc 07 3c 27 3e bd 85 e8 3e ee 45 97 3d
       -0.028012093 0.16331492 0.45414534 0.07386385
000290 e3 da 15 bc 2e ae 47 3d fd 83 0c be 60 38 25 be
       -0.009146425 0.048750095 -0.13722225 -0.16134787
0002a0 67 a9 5c bd 4c b0 85 bc 0d b2 3f 3d 72 4b dd bd
       -0.053872492 -0.016319416 0.04680066 -0.10805406
0002b0 3d ef 18 3e d1 74 d4 3e 9a 12 2f be a3 97 2d 3c
       0.14935012 0.41495374 -0.1709694 0.010595235
0002c0 c9 81 cf bc 98 3f f3 bd 8b 0b 55 3d 4d fc 4d 3d
       -0.025330441 -0.11877364 0.05201296 0.05028944
0002d0 cf b9 89 bc 34 09 87 3d b3 0f 90 3d 60 5d e5 bb
       -0.016812233 0.06593552 0.070342444 -0.0069996566
0002e0 54 0c e3 bd 51 a1 14 3e 42 7c e7 3d 6c 60 4d 3e
       -0.11086336 0.14514662 0.11302997 0.20056313
0002f0 50 dc 12 be d4 3f 8d be 25 71 ac 3b 28 c3 19 be
       -0.14341855 -0.2758776 0.0052625113 -0.15015852
000300 6f 04 2e be d9 4f a4 bd b8 79 69 3d 6a 7a 75 bd
       -0.16993879 -0.08023042 0.057000846 -0.059931196
000310 0f c9 2e 3d 7d b9 eb 36 9c 8b 57 3d fa 4a 91 3b
       0.042672213 7.0251394e-06 0.052623376 0.0044339867
000320 1e 4b 3b bd a7 fb a0 3d 59 ed c8 3e 6d c9 14 3e
       -0.045725934 0.07860499 0.39243582 0.14529963
000330 1a bc 46 be 3f b6 22 be 1f c5 87 3a 97 4d 30 be
       -0.19407693 -0.15889834 0.0010358429 -0.17217098
000340 a1 10 8e 3d cd d6 f4 bd 76 c9 2a be 81 8e 23 bb
       0.069367655 -0.119550325 -0.16678414 -0.0024956765
000350 2a b8 05 be 00 3d 89 3c df c3 e8 3c ce 77 a8 bd
       -0.13058534 0.01675272 0.028413711 -0.08225976
000360 a1 dc a1 3d 76 ea 12 3e fb 28 7e 3e ff f4 96 3e
       0.0790341 0.14347252 0.2482032 0.29483792
000370 fd 3d 8f 3e 73 4a 18 3e ef 30 bd bd 1e a5 9c 3e
       0.2797698 0.1487215 -0.09237849 0.30594724
000380 f8 58 1d 3d dd 22 47 be 6e 90 37 3e d9 02 24 3d
       0.038414925 -0.19446893 0.1792619 0.04004178
000390 d6 4a a8 3d 4f e5 60 3e 2a af 72 bd 37 4e 5c be
       0.08217399 0.21962474 -0.05924908 -0.21514212
0003a0 27 64 cb 3d f8 d3 a1 bd 16 e4 7f 3e 82 68 2c 3d
       0.09931212 -0.07901758 0.24989352 0.042091854
0003b0 a6 0a 26 be 62 bd c3 3e 2f 31 f3 3d 9c f4 4f bd
       -0.16215 0.38230425 0.118746154 -0.050770387
0003c0 7e c4 7a be b9 04 1a be d0 85 27 3e a2 74 51 3e
       -0.24489018 -0.15040864 0.16359639 0.20454648
0003d0 a9 1a 22 bd 93 ba 2e be 62 aa 12 be 99 34 aa bd
       -0.039576206 -0.1706336 -0.14322808 -0.083108135
0003e0 92 c8 db bc c9 9f 9d bc c4 21 db 3d 6d bc 8d 3e
       -0.026829038 -0.01924123 0.106998 0.2768282
0003f0 8a a2 92 3d b5 e9 a0 be a1 42 c9 3d 2d c9 8e be
       0.07159908 -0.31428304 0.098271616 -0.2788786

actor_mlp_t.mlp.0.bias f4 [256]
000000 15 27 b2 3d e3 c4 f3 3c 78 83 8c 3e 02 09 cf 3d
       0.086988606 0.029756969 0.27444053 0.1010914
000010 58 3f 33 3e 82 4a c3 3e c9 ec 5a 3e 29 6f de be
       0.17504632 0.38142782 0.21379389 -0.43444183
000020 d0 f1 c6 bd bb c9 ae be 69 04 8c be 9d 34 c7 be
       -0.09714091 -0.34138283 -0.27347115 -0.38907328
000030 8b f2 75 3e 16 2d 15 3f 5b bc 18 3e 31 43 87 3d
       0.24018304 0.5827192 0.14915602 0.066046126
000040 2d fc 06 3e 3a 6f a8 bd 35 34 71 be 25 a0 83 be
       0.13182135 -0.0822434 -0.23555072 -0.25708118
000050 1b 88 c6 bd e7 46 fc 3b 7b f5 7b 3c f7 13 d0 be
       -0.09693929 0.007698882 0.015378351 -0.40640232
000060 66 41 10 3e 16 66 9e bc 2b a5 2b be 10 51 01 be
       0.14087448 -0.019335788 -0.16762225 -0.12628579
000070 99 e2 d5 3d d4 6d 56 3e 50 cd 52 3d f0 9b 72 bd
       0.10443611 0.20940334 0.051465333 -0.059230745
000080 d1 e1 9d 3e 83 35 2c be 03 6d dc 3e 2d 31 d9 be
       0.30836347 -0.16817288 0.4305192 -0.4242033
000090 74 08 cd 3e b6 1c 81 3e f1 a3 52 bd 9e ee 7d be
       0.40045512 0.25217217 -0.051425878 -0.24798056
0000a0 58 92 5d be b8 60 3e be a6 21 78 be 9d 84 ce be
       -0.21637857 -0.18591583 -0.24231586 -0.4033555
0000b0 f1 6c 1d be be 40 37 bc 20 b4 66 bd 81 f5 8a 3d
       -0.15373589 -0.011184869 -0.056324124 0.067851074
0000c0 ad 87 38 3d 81 3c 8a be af 16 e4 3e 4c 35 1b bc
       0.045051266 -0.26999286 0.44548556 -0.009473156
0000d0 c6 27 9e be d9 76 16 be f5 ee 3d bd 52 01 83 bc
       -0.3088972 -0.14693774 -0.046370465 -0.01599184
0000e0 3c 30 c0 3c 93 ff 91 be b5 0e 3b 3c 4c b7 1e 3e
       0.0234605 -0.285153 0.011417081 0.1549961
0000f0 c1 d4 d2 be 23 f1 56 3e 9b 8d 44 3e 91 de 15 3d
       -0.41177943 0.20990424 0.19194643 0.03658921
000100 e9 28 a1 bd c4 2d 84 be e4 aa a6 3e f3 8a 0e be
       -0.07869131 -0.25816166 0.32552254 -0.13920192
000110 38 94 f0 3e d5 63 94 3c 60 6b e5 bd cc df b0 3e
       0.46988082 0.01811401 -0.11202121 0.34545743
000120 0f 10 2e be 25 01 d6 bd 9c 97 a1 3e 67 bd 8f be
       -0.16998313 -0.10449437 0.3156098 -0.2807419
000130 ed 3a 22 be 65 32 0d 3f dd c8 86 be 3e d0 84 3e
       -0.15842791 0.5515502 -0.26325122 0.25940126
000140 87 a0 bb 3e 13 46 04 be 72 cf bf be 6b 03 82 3e
       0.3664591 -0.12917356 -0.37462956 0.25393233
000150 99 5d 8b be c4 3d 83 be 91 38 be bd 18 0c b8 3e
       -0.27219847 -0.2563306 -0.09288133 0.35946727
000160 8e bf 3e be 95 4f 8d 3e bd 3a 04 be 69 8b 3b 3e
       -0.1862776 0.2759978 -0.12913032 0.183149
000170 00 9e e4 bc 0c ff f2 3c dd 64 65 be d0 16 f5 be
       -0.027907372 0.029662631 -0.22401758 -0.47868967
000180 04 1e c4 3e 77 59 10 3f ad b6 91 bd d7 02 ba bd
       0.3830415 0.5638651 -0.07114921 -0.09082573
000190 69 ae 0e 3e 55 38 5e 3d 91 0b b5 3e d9 46 9e 3e
       0.1393372 0.05425294 0.35360387 0.30913427
0001a0 02 30 46 3e 87 75 55 3d 6d ff 94 be 7f 72 ad 3d
       0.19354251 0.052114036 -0.29101124 0.08469104
0001b0 fa ce bd bd c1 e2 40 be b8 9d 03 3d 46 44 41 bd
       -0.09267993 -0.188365 0.032132834 -0.04718425
0001c0 6c 6d 83 3e 9e ed 13 3e 6f df 48 be 0c ea 1d be
       0.2566942 0.14446113 -0.19616483 -0.15421313
0001d0 fb 54 0f 3e a4 47 a6 3e e2 31 3d bd f0 0b a2 be
       0.13997261 0.32476532 -0.04619015 -0.31649733
0001e0 25 7d 51 be 2f 01 8c bc 86 85 a9 be dc 80 5b be
       -0.20457895 -0.017090408 -0.33109683 -0.21435875
0001f0 8f 87 78 3e 76 21 c9 be 5d f4 1b 3d a8 78 3b 3e
       0.24270461 -0.3928334 0.03807484 0.18307745
000200 7b ad cd be 87 07 09 3e 21 a5 11 be b0 b6 97 3e
       -0.40171418 0.13381778 -0.14223148 0.29631567
000210 c4 a0 58 3e 13 e5 cc be dd 36 91 bc b6 4a ef bd
       0.21155077 -0.4001852 -0.017726356 -0.11684172
000220 e6 02 83 bd f5 63 9c 3c ab db a3 be 43 5c 3f bc
       -0.06397037 0.019090632 -0.3200353 -0.011679712
000230 55 f9 c3 3e da 63 5d 3d be 2a 99 be d8 a9 28 3b
       0.38276163 0.054050304 -0.29915422 0.0025736
000240 b4 a9 2f 3e af 2f 82 3e cb 07 12 3e fb 25 da be
       0.1715458 0.25427005 0.14260785 -0.42607102
000250 36 33 67 be d6 b5 0d 3e 1f ce 99 3e 4b ea c1 3e
       -0.22578129 0.13838896 0.3004007 0.37874064
000260 c6 f1 ac bc 88 b6 d1 be bf 51 97 bd 1f 5f f1 bd
       -0.02111138 -0.40959573 -0.07388639 -0.11785721
000270 24 7d 99 3e ab 56 04 3d 59 8d 2a 3e b5 7f 03 3e
       0.29978287 0.032309216 0.16655482 0.12841685
000280 15 f4 0f be ad ca 93 be 0f 0f ac bd f6 0c d1 be
       -0.14057954 -0.28865567 -0.0840131 -0.408302
000290 54 12 c6 bc ee 2e 7b 3d 9e 6d 81 3e ea 80 57 3d
       -0.024178661 0.061324053 0.25278944 0.052613176
0002a0 e4 f3 8f 3e e5 80 74 3d b5 6a ae bc 3a a0 bf 3d
       0.2811576 0.059693236 -0.021291116 0.09356733
0002b0 c8 33 43 be ac 30 5a be 6a 4d 3e be 88 21 ee be
       -0.19062722 -0.2130763 -0.18584219 -0.46509957
0002c0 ba 96 0c 3e c4 89 07 be 45 f6 11 3e ab 96 a4 be
       0.13729373 -0.13236147 0.142541 -0.321462
0002d0 3a 13 b0 be 42 04 26 3e 79 ba 61 3c 6a e6 42 be
       -0.3438967 0.16212562 0.013777369 -0.19033208
0002e0 b9 29 de 3d 8c 1a 9f 3e b6 b5 aa 3e ee cb 9b 3d
       0.10847802 0.3107494 0.3334176 0.07607256
0002f0 5d e8 60 bd 1a b2 01 3e d5 ee 8c be 21 5d 67 be
       -0.0549091 0.12665597 -0.27525964 -0.2259412
000300 91 15 b6 3a 34 35 3a be 57 64 c6 3e 76 9d bb 3e
       0.0013891925 -0.18184358 0.38748428 0.3664357
000310 6b 27 0e be 7a ae 5c be cf 3f be 3e f3 c1 15 3e
       -0.13882224 -0.21550933 0.37158057 0.14624767
000320 90 75 b4 3e ac 51 87 be 73 e3 00 3d d6 34 ff be
       0.35245943 -0.26429498 0.031466912 -0.49844998
000330 e3 a7 af be ce 48 75 be a4 ed 24 be 33 2f d3 3c
       -0.34307775 -0.23953554 -0.16106278 0.025779342
000340 4d 7c 13 be b0 c7 9c be fe 6b 87 be f6 0e 08 3d
       -0.14402886 -0.306211 -0.2644958 0.033217393
000350 39 8e 10 bd 54 ed 8e be 6e e7 28 3c 3d b7 81 3e
       -0.035291884 -0.27915442 0.010309083 0.25335112
000360 e0 e8 bf bd 9b 2d 23 bf 5e 3a 97 3d 88 f8 2d 3d
       -0.09370589 -0.63741463 0.073841795 0.042473346
000370 9c e5 cb bd 06 5f 2e 3c fa 98 92 bd 04 fe 0e be
       -0.09955904 0.010642773 -0.07158084 -0.13964087
000380 8d 67 f3 3d 34 42 f3 bc 1b 9b ec bd 37 a5 56 be
       0.11884985 -0.029694654 -0.115530215 -0.20961462
000390 a7 76 13 be e7 d4 7c be 0e b5 01 3f f4 5d 93 3d
       -0.14400731 -0.24690591 0.5066689 0.071956545
0003a0 98 e9 d3 3d 4c f3 16 be 79 b2 c0 3d d8 87 39 be
       0.10347289 -0.14741248 0.09409041 -0.18118227
0003b0 68 af 09 bd fa ab 95 be a4 e2 f7 3d 3b 4a cd 3d
       -0.033614546 -0.2923277 0.12103775 0.10023924
0003c0 c6 a0 24 ba 47 38 29 be 95 be cd 3e ce db 95 bb
       -0.00062800606 -0.16525374 0.40184465 -0.004573322
0003d0 70 f0 eb 3d 27 ff be bd cb 21 b6 3e 72 5f c7 be
       0.11520469 -0.0932601 0.35572657 -0.38940006
0003e0 19 e2 a3 be b1 98 a5 bd 54 69 bf 3d 58 9f 85 3e
       -0.32008436 -0.08085764 0.093462616 0.26098132
0003f0 03 ba 24 be f1 93 96 bd 48 e0 30 be ad 6c b5 bc
       -0.16086583 -0.07352436 -0.17273057 -0.022146547

actor_mlp_t.mlp.2.weight f4 [128, 256]
000000 7a ea b8 3d a3 f4 00 be c0 70 80 be 42 92 6c be
       0.09029098 -0.12593322 -0.2508602 -0.23102668
000010 57 6c d3 3e f3 c1 2e bd ec 38 a2 bc 6f 84 53 be
       0.41293594 -0.042665433 -0.019802533 -0.20655988
000020 86 28 fb 3d 40 90 8b 3e 7a 01 0a 3f e4 8d b3 bd
       0.122635886 0.27258492 0.53908503 -0.08767298
000030 b6 74 e6 bd 1a 6a 33 bd b3 0a c4 bd c0 e0 cd be
       -0.112527296 -0.04380236 -0.09572353 -0.40210533
000040 83 e1 4f 3e 30 86 af 3d bc 80 f8 3d c8 7a 0b 3d
       0.2030087 0.08570516 0.12133929 0.03405264
000050 ca 1e 11 be 68 fd 1a bf b3 58 55 be b8 4c 8e 3e
       -0.14171901 -0.6054292 -0.20834617 0.27792907
000060 cf fb 04 be db 9e 09 3e f1 ba 49 bd b5 73 32 be
       -0.12986682 0.13439505 -0.049250547 -0.17426951
000070 b6 f7 96 3d 94 34 d9 3e ac db 58 bd 3d ad 98 bd
       0.07371466 0.42422926 -0.05294387 -0.074549176
000080 4f 62 4c be ef ed bf 3d 33 36 2d be 28 ea 23 3e
       -0.19959377 0.09371554 -0.16915207 0.16007292
000090 5e fe 9b be 12 4c ef 3d 0f 5e d2 be 54 8b 38 3e
       -0.30467504 0.11684431 -0.41087386 0.180219
0000a0 57 10 ab 3e b3 75 d3 bc ad 50 60 3e a8 15 42 3b
       0.33410904 -0.02581296 0.21905775 0.002961496
0000b0 22 9b a6 3d 21 28 87 be 49 c6 c2 be 83 f5 00 be
       0.08135058 -0.26397803 -0.38041905 -0.12593655
0000c0 68 ac 39 be 12 4c 75 3c 7a b7 15 be 50 60 e2 bb
       -0.18132174 0.01497175 -0.14620772 -0.006908454
0000d0 8d ae 96 3e 37 75 b6 be 00 2e 6d 3e 81 fa 44 be
       0.29430047 -0.35636303 0.23162079 -0.19236185
0000e0 f9 29 61 3d 7f 94 d1 bd 40 50 1e 3d f3 9a 04 3e
       0.05497167 -0.102334015 0.03865075 0.12949733
0000f0 5b 5c 72 be e2 5e a7 3c e7 e8 6e be 46 b0 06 be
       -0.23668043 0.020430986 -0.23331033 -0.1315318
000100 6b c4 b8 bd 70 d2 82 3d c3 8e 7b bd 85 a7 34 3e
       -0.09021839 0.06387794 -0.061415445 0.17642029
000110 69 83 a3 bd ef 2e 23 bd a8 5c 2b be 51 f3 ce 3e
       -0.07984049 -0.03983968 -0.16734564 0.4042001
000120 03 62 77 3d 69 8a 24 bc 1c a2 01 3d 88 7b 0d be
       0.060396206 -0.010042765 0.03164874 -0.13816655
000130 3f 7c 24 3e ee 86 cd be 8f 98 09 be 29 6b 4a 3e
       0.16063021 -0.40142006 -0.13437103 0.19767441
000140 75 cb c8 b9 b0 e5 29 3e fd 78 bb bd f7 9f 27 3e
       -0.0003829856 0.16591525 -0.09153936 0.16369615
000150 45 a5 75 be 0d b0 6b 3f fd dc 0a be 40 4e 1b 3e
       -0.23988827 0.9206551 -0.13560863 0.15166569
000160 10 2c e1 be b7 c7 ee 3d 76 c1 3f 3e 1e 95 5f 3e
       -0.4397893 0.11659186 0.18726143 0.21834227
000170 e3 17 e6 3d 8d 96 09 3e 53 1c bd bd 88 e9 19 3d
       0.11235025 0.13436337 -0.09233918 0.03757623
000180 1a 11 11 3e e5 9e 00 bf 18 94 81 bc b2 e4 d9 3d
       0.1416668 -0.50242454 -0.015817687 0.10639323
000190 5d 07 de 3d 54 8c 04 be a8 10 14 bd 56 5c 2f 3e
       0.10841248 -0.12944156 -0.036148697 0.17125067
0001a0 75 ba b3 3d 09 e6 8f 3d 24 86 db 3d 56 9c 99 bd
       0.08775798 0.070262976 0.10718945 -0.07500522
0001b0 ee 4e 6a 3e 10 01 ee bd 5f c8 3a bd 8a 82 44 bb
       0.22881672 -0.116212964 -0.045601245 -0.0029985034
0001c0 b6 ce 5d bc a3 17 83 3e 16 03 89 be a8 52 6d bc
       -0.013538053 0.2560397 -0.26760167 -0.014485039
0001d0 7d 40 38 3e 85 0d 62 3e ce b9 1b 3e 6a cc 98 ba
       0.1799335 0.2207547 0.15207598 -0.00116576
0001e0 01 00 e7 bd a8 70 64 3e 66 f2 43 be 44 da 9c bd
       -0.112792976 0.223086 -0.19135436 -0.07658818
0001f0 ce be 9d 3d a6 9d 92 3c c4 8d ef 3e 28 2c b4 be
       0.07702409 0.017897438 0.46787846 -0.3518994
000200 96 e5 b3 3c 06 97 ab be 2d 43 fa 3d 2e bf 8c be
       0.021960061 -0.3351366 0.12219844 -0.2748961
000210 f8 50 4d 3d 55 8d 22 3e b1 ea 25 be 95 dc 76 be
       0.050126046 0.15874226 -0.16202809 -0.24107583
000220 44 89 3b ba c2 c3 92 3e 26 46 58 3d fd 5f 44 3d
       -0.0007153938 0.28664976 0.052801274 0.047943104
000230 63 46 ba 3e b8 7a 10 bd 88 94 fd 3d 92 d4 81 3e
       0.36381826 -0.035273284 0.12381846 0.2535749
000240 b9 95 21 bd 7f e9 41 bd fd 62 aa be 88 23 0e be
       -0.039449427 -0.04734182 -0.33278647 -0.13880742
000250 13 5a 02 3e f2 85 e0 bd b6 01 a9 be a1 3d 0b 3e
       0.12729673 -0.10963048 -0.33009118 0.13597728
000260 a7 73 76 bc 17 7c 19 3e a6 97 b5 bc 86 fb 8f bd
       -0.015042222 0.14988743 -0.022167038 -0.07030396
000270 ce fd 53 3d 50 81 35 3e 2f 16 e6 be 1f 51 74 be
       0.05175572 0.1772511 -0.449388 -0.2385907
000280 96 2d 29 3e 2e 77 6c 3e 8f d1 2d bd d7 d8 68 3e
       0.16521296 0.23092338 -0.04243618 0.22738968
000290 97 ae 13 3a cd d3 18 3e 36 0a b2 be f2 06 4b be
       0.0005633621 0.14924546 -0.34773415 -0.19826868
0002a0 3b 07 c4 3d ba af 32 be 58 6e c7 bd 16 0d 56 bd
       0.095716916 -0.17449847 -0.09737843 -0.052258573
0002b0 e1 a0 0e 3f 81 9a 54 3e cb c1 91 bd 51 b2 c0 bd
       0.5571423 0.20762064 -0.07117041 -0.09409011
0002c0 2b 2d c0 be 1d 66 37 3e 17 1a 94 3e 0e 0e 93 bd
       -0.3753446 0.17910047 0.28926155 -0.07180415
0002d0 a4 02 3e 3e f6 8b ed bc a5 0a e1 3c 9e 1d 9a be
       0.18555695 -0.028997403 0.027470896 -0.3010072
0002e0 b2 d9 b9 be a4 6a 70 bd 51 c0 5e be f2 de 4a bd
       -0.362989 -0.05869545 -0.2175305 -0.049529023
0002f0 f4 66 ca bc 14 0b 01 bd 56 69 3a 3e 99 25 a2 3d
       -0.024707295 -0.031504706 0.18204245 0.079173274
000300 ca 08 82 3e 9c 34 57 bc 56 29 af bc 70 8e 79 3e
       0.2539733 -0.013135102 -0.021382015 0.24370742
000310 5b ea 46 bc 15 56 42 3e b2 cd 78 be a0 3c a2 3e
       -0.012140836 0.1897815 -0.24297217 0.31686878
000320 a1 f8 da bd bd b6 e6 3c 3f 31 0f 3e 2c 28 8e 3e
       -0.106919535 0.028163308 0.1398363 0.27765024
000330 e3 61 a8 3d cc c0 f7 3d ff ad 36 be b5 b8 3e be
       0.082217954 0.1209732 -0.17839812 -0.18625148
000340 b1 20 1e 3e 40 a8 83 bd 44 50 00 3f c2 5c a8 3d
       0.15442158 -0.064285755 0.50122476 0.08220817
000350 ba 28 49 bd d1 2f c5 3d 36 59 1a be 4d f3 14 be
       -0.049111106 0.09628261 -0.15073094 -0.14545937
000360 40 1b 69 be 87 f0 bc 3e ad 94 08 bd 70 28 b3 3d
       -0.22764301 0.36902258 -0.033344913 0.08747947
000370 77 39 98 be 5a 51 f7 3e 71 63 30 be e3 71 83 3d
       -0.29731342 0.48304254 -0.17225434 0.064182065
000380 bf 36 b3 bd 12 16 65 3e 0d ea 8f bd 1a 35 62 3d
       -0.08750676 0.223717 -0.070270635 0.055226423
000390 4c 21 9e bc 1b de 87 3b 09 44 8d bd b6 14 b5 bd
       -0.019302987 0.00414635 -0.06897742 -0.08841841
0003a0 42 df ca bd 13 42 39 3e 41 f2 e8 bb 97 35 e3 3c
       -0.09905864 0.18091612 -0.007108957 0.027735515
0003b0 bf af 9f 3d b3 16 14 bd e9 42 57 bd a5 ad 1f 3d
       0.07797193 -0.03615446 -0.052554045 0.03898396
0003c0 aa ad 85 3d 3c 15 a9 bd fd 71 92 be 01 45 07 be
       0.065272644 -0.08256003 -0.2860259 -0.13209917
0003d0 ea 6a 4b bd d4 e0 25 3e d0 0c aa be 4d bc 9e bd
       -0.049662508 0.16199046 -0.332129 -0.07750759
0003e0 be f6 03 bf 3f 02 da bd 7e dc 20 bd a6 4e 6b be
       -0.51548374 -0.1064496 -0.039272778 -0.22979221
0003f0 dd 7f 38 3f 5d 71 a2 3c e3 f7 0e be 00 f1 85 be
       0.72070104 0.019829446 -0.13961749 -0.2616043

actor_mlp_t.mlp.2.bias f4 [128]
000000 c0 7a 90 be e3 cc 87 bd b6 2e b3 bd 19 31 a8 be
       -0.2821865 -0.06630876 -0.08749144 -0.3284996
000010 9d 3b 9e bd 31 86 b8 bd 5d 23 ae be 7c af cb be
       -0.07726214 -0.0900997 -0.34011355 -0.3978232
000020 d5 3b 28 3d 6c 0b 7c 3c 15 30 f0 be c3 f6 4f 3d
       0.041072685 0.015383583 -0.46911684 0.05077244
000030 d0 b6 59 3c 75 2a b3 bc 12 16 40 be bd ed 0a 3d
       0.013288215 -0.021870831 -0.18758419 0.03391813
000040 e0 1f 6a bd 11 ed 26 bf 99 77 c6 3c 0a 98 a9 bd
       -0.057159305 -0.65205485 0.02422695 -0.08280952
000050 73 8b 88 be 1f 30 c5 bd bc 53 1f be 62 4d 33 3d
       -0.2666889 -0.09628319 -0.15559286 0.04377497
000060 90 5d d8 3c 82 87 d2 bc 6f e5 2b 3d cf 64 ae bd
       0.026411802 -0.02569938 0.04196685 -0.085153215
000070 73 13 9c bd 1a d2 08 bb 32 46 76 be b0 5e a9 bd
       -0.07620897 -0.0020877183 -0.24050215 -0.08270013
000080 55 a7 32 be 6f fa ea 3c 73 b5 af bc 71 18 1a bd
       -0.17446645 0.02868387 -0.021448826 -0.037620965
000090 63 61 87 bd 86 2f fd bd 8c 91 88 bd 43 dd 0c be
       -0.06610372 -0.1236258 -0.06668386 -0.1375628
0000a0 af 46 01 bf e4 bf be be 04 af 4d be 45 d7 af bc
       -0.5049848 -0.37255776 -0.20086294 -0.021464953
0000b0 a5 47 67 bd 82 d2 3c bd 5f e7 72 3d 62 a2 41 bc
       -0.05646481 -0.046099193 0.059302684 -0.0118185
0000c0 e4 9c c7 bd 9d ee 06 be ef 55 7c bd 1b ec c6 be
       -0.097467214 -0.13176961 -0.06160539 -0.3885201
0000d0 c3 6c fa bd 5b f8 d7 3a 8a f7 50 bc e0 9f eb be
       -0.12227776 0.0016477214 -0.01275433 -0.46020412
0000e0 1a 18 88 be d5 16 27 3c c6 ed 4d bd 5b 1f a8 bc
       -0.26580888 0.010198315 -0.050275587 -0.020522764
0000f0 f3 c5 d0 bd df 9b 69 3d c5 fb e7 3b 5b b6 4e be
       -0.10194006 0.057033416 0.007079574 -0.2018675
000100 34 3d e6 bc 2b f9 b5 bd f2 f5 d2 bd 48 b0 64 3d
       -0.028105356 -0.08885416 -0.103008166 0.055832177
000110 ec d7 41 be 24 6d 23 bd d4 b1 73 be db 69 4b 3d
       -0.18930024 -0.039899006 -0.23798305 0.0496615
000120 aa 09 d9 bd 25 5f a4 bd a6 78 07 be 27 23 a8 3d
       -0.105975464 -0.0802596 -0.13229617 0.0820983
000130 9f 7a 06 bc b2 ed 89 bd 17 84 46 bd 27 d8 56 3d
       -0.008207946 -0.0673479 -0.048465814 0.052452233
000140 99 ac b0 bd 0d 63 5d be ea 1b 71 bd f9 b3 93 be
       -0.086266704 -0.21619816 -0.05886451 -0.28848246
000150 24 08 7d be c8 03 ba be 5d ea a2 bd 4d df 95 bc
       -0.24710137 -0.3633101 -0.079548575 -0.018294955
000160 b6 f4 b7 be c3 a5 a4 bd 31 17 f8 be 38 d7 8c 3b
       -0.35928887 -0.08039429 -0.48455194 0.004298117
000170 ba 13 8d bd b2 24 86 3c b3 6c 2e bd a6 2b a8 3d
       -0.06888528 0.01637492 -0.042584132 0.0821145
000180 1f bf ba bc a9 3d 49 bc f1 d8 63 bd e1 a5 ea 3d
       -0.022796212 -0.012282767 -0.055626813 0.1145742
000190 94 b2 6d be b8 af 9d 3d 95 41 27 be 48 64 cc be
       -0.23212653 0.07699531 -0.16333611 -0.3992026
0001a0 b6 21 92 bd b6 39 37 bf a4 eb aa bc 44 06 8e be
       -0.07135336 -0.71572435 -0.020864315 -0.27739155
0001b0 01 f9 e5 be ca fc 0a be 8e 9f 98 3d 26 db 1a bf
       -0.44916537 -0.13572994 0.07452308 -0.60490644
0001c0 9b 33 00 bd 87 b4 6d bc d4 25 15 be 8d 84 18 be
       -0.031299215 -0.014508373 -0.14565212 -0.14894314
0001d0 54 bb 73 3c 72 dc 99 be 67 f1 30 bb f9 b4 9e 3d
       0.0148762055 -0.30051 -0.0026999356 0.077493615
0001e0 f2 f5 55 3d 11 36 02 be e5 08 5a bc 4c 3a fa 3c
       0.052236505 -0.12715937 -0.013307785 0.030545376
0001f0 76 60 89 3c 82 87 ce be a7 72 78 3c eb 6f c8 be
       0.016769629 -0.4033776 0.015164054 -0.39147887

actor_mlp_c.mlp.0.weight f4 [256, 28]
000000 b5 5c 5c be a3 56 ca bd af ff cc 3c ac 0e 88 bd
       -0.2151974 -0.09879806 0.025024263 -0.066434234
000010 c4 1d 8c be 56 03 f1 3c e7 a7 77 bd 8b 0e 9e 3d
       -0.2736646 0.029420536 -0.06046286 0.077176176
000020 25 45 cd 3c 40 2f 78 3d 3a c7 02 bd 09 fd 08 3e
       0.025057385 0.060591936 -0.03192828 0.13377775
000030 29 5c 40 bd 22 10 f8 3d 56 07 c2 3e a7 61 f4 3e
       -0.04696289 0.12112452 0.37896222 0.47730753
000040 4e 29 cc be 17 5b 62 bc 5c c6 52 3e c1 71 2d be
       -0.39875263 -0.013815663 0.2058348 -0.16937925
000050 f8 86 88 3e 0e f2 d1 bd be 93 ab 3d 69 dc 18 be
       0.26665473 -0.102512464 0.08377789 -0.1492783
000060 66 86 14 3d e5 66 de bd 15 7d 22 be 17 9e 52 3e
       0.036260985 -0.10859469 -0.15868028 0.20568119
000070 c9 82 19 be 71 20 23 3d bc b1 91 bd 6f 96 19 3e
       -0.14991297 0.03982586 -0.07113978 0.14998792
000080 13 df 5f 3e 7d df 36 bc 26 f1 37 be 42 b1 11 bc
       0.2186244 -0.011161682 -0.17963085 -0.008892359
000090 91 33 3c 3d 5c ef ef bd 64 c1 2d be 02 64 b0 3d
       0.045947615 -0.11715576 -0.16968304 0.08612825
0000a0 13 8c 0f bd 5a 64 9a bd 29 98 0a 3e 19 ed 3a 3e
       -0.035045695 -0.07538672 0.13534607 0.18254508
0000b0 9b 58 0a 3e 9b 97 63 3d 6f 85 8d bc d5 2c 85 be
       0.13510363 0.055564504 -0.01727554 -0.26010767
0000c0 0b 14 18 bc 70 4b 6b 3c bb 02 67 be 36 3f 0e bd
       -0.009282122 0.014361247 -0.22559635 -0.03472825
0000d0 1b 82 f5 bd d1 71 09 bd 19 66 80 bd 8f 12 0e be
       -0.11987706 -0.03355581 -0.062694736 -0.13874267
0000e0 cb 6a 1e be e7 b1 0c be 6b 16 12 be 92 51 31 be
       -0.15470426 -0.1373974 -0.14266364 -0.17316273
0000f0 23 46 18 be 05 28 2b 3e f9 8f 5a 3d 16 5e a2 3e
       -0.14870505 0.16714485 0.05335996 0.31712407
000100 a1 fb df be 15 90 a3 3d 56 eb fe bd b7 d0 b7 3d
       -0.43746665 0.07986466 -0.124472305 0.08975356
000110 19 89 e5 3d 36 f6 57 bc f3 73 3c bb 15 c6 fc 3d
       0.1120779 -0.01318126 -0.0028755635 0.12342469
000120 08 01 26 3d 95 4a e2 bd 06 21 f9 3d 4e df 9e 3d
       0.040528327 -0.11049382 0.12164502 0.07757436
000130 a3 72 22 3e 6e 8d f1 3d 1b a6 5b be 20 f0 1f be
       0.15864043 0.11794554 -0.21450083 -0.15618944
000140 d5 d3 41 3e c2 6c 8b 3e cb 6a b8 bd bd 7c 35 bc
       0.18928464 0.27231413 -0.09004744 -0.011077103
000150 62 3a b2 3b df 13 ee bd 9d 49 61 3d 50 b6 20 3e
       0.0054390887 -0.11624884 0.055001844 0.15694547
000160 ab de 0c 3e 9f 6e 8a 3d 3c b5 53 3e 29 9b bf bd
       0.13756816 0.067593805 0.20674604 -0.09355766
000170 2c 54 98 bd ad 0e 99 bd 5e 57 37 bd c1 50 40 3d
       -0.074379295 -0.07473502 -0.044761054 0.046952013
000180 e1 d7 55 be 30 a0 91 be c6 73 98 3d 78 31 45 3e
       -0.20883133 -0.28442526 0.07443957 0.19257152
000190 85 1c ed bd 65 8e 10 3e b6 59 a2 3e 2b 45 16 be
       -0.11577705 0.14116819 0.3170907 -0.14674823
0001a0 1e 93 84 3c 03 ee 84 be 75 fa 94 be 17 74 ff 3b
       0.016183432 -0.2596284 -0.29097334 0.0077958214
0001b0 bb 44 9f 3e 3d c7 25 3d 30 2f 83 3e 01 1f 22 be
       0.31107125 0.04047321 0.2562194 -0.1583214
0001c0 ac ee e6 bc 4f f6 3d bc 8f 04 82 bd 3d 28 ad bc
       -0.02818998 -0.011594369 -0.06348526 -0.021137351
0001d0 48 b3 04 bd b3 34 63 bc 3c 17 24 3e 32 9e 8c be
       -0.03239754 -0.013867545 0.16024488 -0.27464443
0001e0 83 10 0e be bb 9c 38 3e 91 f5 fb bc 20 5d 0f bd
       -0.13873486 0.18028538 -0.030756744 -0.03500092
0001f0 a8 6e 88 3e 62 c2 d6 be 01 c5 2b bd 58 7b 4b bd
       0.26646924 -0.41945177 -0.041935924 -0.049678177
000200 06 8b 3b bb fc 5a 9e bd ed 6b 9c 3e 87 57 21 3e
       -0.00286168 -0.07732198 0.3055109 0.15756045
000210 f7 ae 35 3d c8 70 79 be fc a4 dc 3e b4 37 8b be
       0.044356313 -0.24359429 0.43094623 -0.27190936
000220 a9 b8 35 3e 60 2e f1 3d dc f1 fd 3d e7 28 8a bd
       0.17746224 0.117764235 0.12399647 -0.06746083
000230 f4 92 4e 3d 2d 76 92 3d 8a 37 11 bd e8 c8 39 be
       0.050433114 0.071514465 -0.035453357 -0.18143046
000240 59 10 3a be 96 d1 57 3a 01 13 82 bc 77 b0 3c bd
       -0.18170299 0.000823283 -0.015878202 -0.046066727
000250 87 13 fe bd ad 10 9e be bd 21 ce 3d 17 50 2f 3d
       -0.12406068 -0.30872098 0.10065029 0.04280099
000260 1a 63 c7 be a2 1f bf bd 44 c6 a8 be 34 4a e2 3d
       -0.38942796 -0.09332205 -0.32963765 0.110493094
000270 ba 2c 33 be 38 79 24 3e 1b d3 02 be ea 5b f8 be
       -0.1749753 0.16061866 -0.12775843 -0.48507625
000280 07 eb 73 bd 56 c6 c2 3d fb a6 63 be d4 b7 6f bc
       -0.05955031 0.09510486 -0.22231667 -0.01463123
000290 6c dd 6b be 4c c4 13 bc e3 ac 66 3e 27 03 2f be
       -0.23033684 -0.009018969 0.22526889 -0.17091046
0002a0 9f 62 cd 3c 95 a8 0d be 1c 06 7f 3d dd b7 3e 3d
       0.02507144 -0.1383384 0.062261686 0.046562064
0002b0 fc 5b af 3d 67 c4 bc bd fe ac 6d bd 18 53 5c 3e
       0.085624665 -0.09217148 -0.058026306 0.21516073
0002c0 c1 1e 49 3d e0 66 bb 3d 6f 8e 01 3d 4e 07 a2 bd
       0.049101595 0.09150481 0.031629976 -0.079115495
0002d0 48 98 b3 3c 16 1f a3 be ad ff a8 3d ae 3d 8c be
       0.0219232 -0.31859654 0.08251891 -0.27390808
0002e0 eb b2 8f 3e bb 96 8a bd bc 07 e3 3d 63 00 ea 3e
       0.2806619 -0.06767031 0.110854596 0.4570342
0002f0 53 8c fd 3d 5d 2a a0 3e 1c 02 4c be 9b dc bb bd
       0.1238028 0.3128232 -0.1992268 -0.091729365
000300 b9 cc 04 be 28 26 77 bd 9b dd 29 bd e1 2d 72 3d
       -0.1296872 -0.060339123 -0.041471105 0.059125785
000310 48 0b 0d 3d 41 e6 ac 3d 0e 4d 89 bd 26 42 c5 bd
       0.034434587 0.08442355 -0.0670415 -0.096317574
000320 fc cd 09 bc f7 fd 83 bd c3 bc 92 bb cb fe 9e be
       -0.008410927 -0.06444924 -0.0044780686 -0.31053767
000330 9b 14 27 bd d2 81 80 be 58 57 61 bd e1 82 db 3b
       -0.040791135 -0.25099045 -0.055014938 0.0066989516
000340 da ce 2e be d9 f3 e3 3e c1 c0 96 bd 62 e5 1e 3d
       -0.17071095 0.44521978 -0.07360984 0.038792975
000350 f2 46 1e bd 2f 93 d0 3c 66 67 45 be 9d 10 3d be
       -0.038641877 0.025460808 -0.19277725 -0.18463369
000360 a2 f2 93 be fd 6c 1e be ab 55 93 bd be b0 71 bc
       -0.28896052 -0.15471263 -0.07194074 -0.014751611
000370 19 08 62 3d 96 25 10 3d d4 f1 2e 3d 76 60 d7 bd
       0.055183504 0.035192095 0.042711094 -0.10516445
000380 0d f7 9a be bd 0e 28 3e 4d 4f 82 3c 5a ec 88 3d
       -0.3026661 0.16411872 0.015906954 0.066857055
000390 5d d7 15 3e be c4 02 3c 66 65 c7 bd 14 49 bc bd
       0.14632936 0.007981477 -0.09736137 -0.09193626
0003a0 a6 e1 1e be e1 38 cf 3e 98 95 2b be 89 94 17 3e
       -0.15515766 0.40473083 -0.16756284 0.14802755
0003b0 a6 cb 6b 3e 1b 97 23 be bb 97 ee 3d 3d 24 4f be
       0.23026904 -0.15975611 0.11650034 -0.20228668
0003c0 b0 fe f1 3c 8d f0 1a 3e 69 62 c9 be 05 ce 20 be
       0.02954039 0.15130825 -0.39332893 -0.1570359
0003d0 dd 44 af 3d b0 9d 61 bb 69 f3 f0 ba 89 c6 27 3d
       0.085580565 -0.0034426264 -0.0018383089 0.040960822
0003e0 17 4b b7 bd be 16 87 3c c5 e2 f4 3c 24 f3 b7 3e
       -0.08949869 0.016490337 0.029893288 0.3592769
0003f0 4e 76 a6 bd d9 2f b3 bd f9 36 02 be 69 55 75 bd
       -0.081280336 -0.087493606 -0.12716283 -0.059895907

actor_mlp_c.mlp.0.bias f4 [256]
000000 90 5e ea 3e ad d0 c9 3d 85 7f 46 bd ba d9 26 3d
       0.4577527 0.09854255 -0.048461456 0.040734984
000010 70 cc 87 bd 5b 0c ee bd ba 5c 78 bc 34 4e db bd
       -0.0663079 -0.1162345 -0.0151588265 -0.107082754
000020 2a 44 d5 3d 1c 94 04 3c 2b e2 8b 3c 96 7d f3 3c
       0.10413392 0.008091953 0.017075619 0.02972297
000030 ec e1 b6 3d c3 46 18 3e e9 fe e7 3d 08 60 ed 3d
       0.0892981 0.14870743 0.11327917 0.11590582
000040 db 73 3a 3e e2 81 18 3c e8 59 4c 3d c8 5d 31 be
       0.18208258 0.00930831 0.04989043 -0.17320931
000050 98 59 a9 bc db b8 a4 bd e7 c3 72 3e 87 58 ae be
       -0.020672604 -0.08043071 0.23707543 -0.34051916
000060 1b 53 0e bd 20 05 20 3d cb 4f 02 be c6 24 b2 bc
       -0.034747224 0.039067388 -0.12725751 -0.02174605
000070 2c ea be bd 60 98 eb bd f8 5d 3d be 7d 23 15 3c
       -0.093220085 -0.115036726 -0.18492877 0.009102699
000080 fc 6c de bc 48 ee 0c 3d 56 02 05 be 4b dc 0c bc
       -0.027151577 0.03440693 -0.12989172 -0.008597444
000090 07 0e 81 3d db 75 48 3e 84 12 09 be 11 be 48 bd
       0.06301504 0.19576208 -0.1338597 -0.049009386
0000a0 2a 31 60 3e b3 a4 b7 bd c7 80 fc ba 3c ec 3e bd
       0.21893755 -0.08966961 -0.0019264453 -0.04661201
0000b0 be 2a 69 bd 5f eb a9 3d 90 96 e3 bd c1 cb 99 3d
       -0.056925528 0.082968466 -0.11112702 0.07509566
0000c0 21 0a d9 3d db 50 d5 bd 31 7c ce bd d0 35 57 bd
       0.10597635 -0.104158126 -0.100822814 -0.052541554
0000d0 31 fd 04 bd de 01 8f be a5 3d 37 be 72 a0 2a 3c
       -0.032468025 -0.27931112 -0.1789461 0.01041423
0000e0 2f 32 ff bd d8 d4 3b bd 8d 61 6a 3e 5a 4d 83 be
       -0.12460744 -0.04585728 0.22888775 -0.25644952
0000f0 8e 7a 02 bd fd d4 cc bd cb d7 d5 3d e9 fd 4d be
       -0.03185516 -0.10001562 0.1044155 -0.2011639
000100 1d 3d a8 3b 91 d1 3b 3e fc e4 70 be 6b e0 84 be
       0.0051342384 0.18341662 -0.2352485 -0.25952467
000110 82 65 c5 3c a8 37 6d be 97 9a f9 3d bf e2 a7 3d
       0.024096254 -0.23165762 0.12187689 0.08197545
000120 7d 2c da 3d fc 65 11 3e b9 a3 30 bc 89 77 d1 bd
       0.10653017 0.1419906 -0.010781222 -0.10227878
000130 d1 d5 33 be 29 ed 07 3e 67 89 e7 3d 46 50 4d 3c
       -0.17562033 0.13274063 0.11305504 0.012531346
000140 a2 be b2 bd 62 f0 b6 bd b1 35 c9 3d 84 09 06 3d
       -0.087277666 -0.08932568 0.09824694 0.03272392
000150 69 7b 1f be 55 b2 ea bd 90 f0 d9 bd 83 7b 88 bd
       -0.15574421 -0.114597954 -0.10641587 -0.06664183
000160 88 d6 03 bd dd 7b 57 3d 0a ae ba 3c f6 68 50 3d
       -0.032187015 0.05260836 0.022788066 0.05088135
000170 30 3f 18 be 7c b3 37 bc 5e 71 27 be 63 68 98 bc
       -0.14867854 -0.011212226 -0.1635184 -0.018604463
000180 d3 ff db bd f0 8d 8a 3e 77 a1 4f 3d 96 93 01 bd
       -0.10742154 0.27061415 0.050691094 -0.03163489
000190 d9 fb 8a be 07 00 20 be de 5a 01 3e a5 bf d2 3d
       -0.2714527 -0.1562501 0.1263232 0.102904595
0001a0 71 e4 93 3d ac c0 3e 3e 05 f1 43 bd 80 30 bd bd
       0.07221306 0.18628186 -0.047837276 -0.09237766
0001b0 3d c5 44 bc ed c5 98 bd 4f 2f 53 3e eb ee 7c be
       -0.012009916 -0.07459626 0.20623516 -0.24700515
0001c0 93 a6 01 be 96 7e 1d 3d 9a bb 79 be 45 63 da bd
       -0.126612 0.0384508 -0.2438797 -0.106634654
0001d0 b0 e9 9c bd 49 f9 37 be ce b3 fb 3d 24 ec f4 3d
       -0.0766176 -0.17966188 0.122901544 0.11959103
0001e0 68 c8 34 bc 0a a5 8d ba cb 3c d3 3d e2 2c 07 3d
       -0.011034109 -0.0010806632 0.1031433 0.033001788
0001f0 36 7c 46 bc 80 47 71 bd e4 04 cd bd 17 27 55 3e
       -0.012114575 -0.05890608 -0.100106984 0.20815693
000200 e6 b6 b2 3b ef d5 1b bd 3d 8c 8f be 59 06 2e be
       0.005453932 -0.03804582 -0.2803668 -0.16994609
000210 3f 9f 3f bd 8f ef ee 3d ad 88 44 be 0b 0a 2f bd
       -0.04678273 0.11666786 -0.19192763 -0.042734187
000220 e8 c2 62 be 3b 6b 08 be ab 32 74 be 37 57 b4 3d
       -0.22144663 -0.13322155 -0.23847453 0.088056974
000230 d5 e7 a4 bd 66 e5 38 3e bd 0d fe bc e2 6b 0b be
       -0.08052031 0.18056259 -0.03101241 -0.13615373
000240 9e a0 9e 3a ad 45 4f 3e 82 d5 08 be 04 4b 23 3d
       0.0012102311 0.20241423 -0.13362697 0.039866462
000250 20 52 80 3e 9c 6a 80 3d 64 d8 e5 bd fd ae 45 be
       0.25062656 0.06270334 -0.11222914 -0.19305034
000260 04 ec da 3c 1c 0d 30 be f0 f1 c7 bd ed a5 91 3d
       0.02672387 -0.17192501 -0.09762943 0.07111726
000270 91 65 e7 bd 15 83 4a be 92 b1 8c bc cf eb 6f 3a
       -0.11298669 -0.19776566 -0.017174516 0.00091522647
000280 2d 8c e7 bd 3a 5f 4a 3e e7 62 05 3e 30 3b 1e be
       -0.11306033 0.19762889 0.1302601 -0.15452266
000290 cb f9 95 bd 7d ce a2 3b 2b 40 82 3d 65 c4 ad be
       -0.07323035 0.004968463 0.06359895 -0.339389
0002a0 f8 5a 64 bd 57 69 13 bd c1 25 29 bd 12 b3 95 bd
       -0.055750817 -0.03598913 -0.04129577 -0.073095456
0002b0 9b c7 f7 bd d7 2a 12 bf 05 44 cb 3d 87 b7 39 be
       -0.120986186 -0.5709662 0.09925083 -0.18136416
0002c0 30 01 0f be 2d dc 58 3d bd 2d e1 bd 19 df 7a 3e
       -0.13965297 0.05294435 -0.10995052 0.24499168
0002d0 13 ba 76 bd 78 e9 80 bd 4e 05 5e 3b b5 14 3f bd
       -0.060236048 -0.06294531 0.0033877674 -0.046650607
0002e0 c6 e7 53 be 54 2d 91 3e c5 f1 9d bd fc e8 07 bd
       -0.20693883 0.28354895 -0.077121295 -0.033181176
0002f0 b2 a8 59 3c 68 7a c3 3d 81 44 00 be 92 be 5f be
       0.013284849 0.095448315 -0.12526132 -0.2185004
000300 a6 fc 65 3c d1 7e 15 be 7e 15 4a be 64 d2 3d be
       0.014037287 -0.14599158 -0.19734761 -0.18537289
000310 15 8e 16 3d 83 b3 5f bd f3 3a 82 3d 40 b1 25 be
       0.036756594 -0.054614555 0.063589 -0.16180897
000320 20 88 02 be fb 21 4b 3e 2c f9 37 3d 1a 79 d2 3c
       -0.1274724 0.19837181 0.044915363 0.025692511
000330 50 b8 23 be 06 67 0d bd 24 e9 31 3d d9 fe 9e be
       -0.15988278 -0.03452208 0.04343523 -0.31053808
000340 07 d3 56 3e 71 f3 ff bd 7f 30 19 be 28 ec 21 be
       0.20978938 -0.12497605 -0.14959906 -0.15812743
000350 b6 f1 00 bf ec f7 15 3d 33 3d 37 3c d9 29 aa 3d
       -0.5036882 0.03661339 0.011184025 0.08308763
000360 ff e2 be 3c f3 87 2d be c2 45 a7 bd 38 db 15 bd
       0.0233016 -0.16946392 -0.08167602 -0.036586016
000370 ef 7e 43 be 10 08 8f 3e 5f ae 45 be af ad 12 be
       -0.1909139 0.2793584 -0.19304799 -0.14324068
000380 15 ba bd bd fe 54 67 be ef 2e 8b bd ff 0f 90 be
       -0.09264008 -0.22591016 -0.06796061 -0.28137204
000390 a5 06 1a 3e 9b b4 4f be 0f e8 74 bd b6 4f 99 3b
       0.15041597 -0.2028374 -0.05979162 0.0046786917
0003a0 03 f7 8c bd 77 59 8f bc f6 f9 8e bd 95 e2 ea bd
       -0.06883051 -0.017498715 -0.0698127 -0.11468998
0003b0 15 2d bb ba 97 eb 24 3e 6b 63 c0 3d dd 09 08 bd
       -0.0014280403 0.16105495 0.093939625 -0.03321253
0003c0 25 a1 c2 3d bc 9f 95 3d 89 18 89 3d 1e ab 80 3e
       0.09503392 0.073058575 0.06694133 0.25130552
0003d0 b3 8d e4 b9 ab c5 e5 3c c0 25 13 bd ee 62 ff bd
       -0.00043593123 0.028048357 -0.035924673 -0.12470041
0003e0 47 26 f1 3d d9 e1 8d 3d 7c 09 02 be 7f bb d9 3b
       0.11774879 0.06927843 -0.1269893 0.0066446657
0003f0 ff 8c c9 3c 6d e3 66 bc 29 39 43 3e e9 8a ef bd
       0.024603365 -0.0140923085 0.19064774 -0.11696417

actor_mlp_c.mlp.2.weight f4 [128, 256]
000000 a2 73 50 3e 09 7b 9f be c1 e2 8e be c8 e5 46 be
       0.2035661 -0.31148556 -0.27907375 -0.19423592
000010 d1 ac 84 be 09 36 bc 3e a8 ea b0 bd 8a 48 93 3c
       -0.25913098 0.36759976 -0.08638507 0.017978925
000020 82 a8 a3 be e2 27 24 be 3d 75 5b 3c 46 a6 48 bd
       -0.319645 -0.16030839 0.013394651 -0.048986696
000030 b7 f7 53 3b dd d9 12 bd 72 dd 33 be 20 9d 3f 3d
       0.0032343694 -0.035852302 -0.17564943 0.046780705
000040 87 17 8c 3c 23 cb 86 bd fd c4 8f 3d 5d ea 9b 3d
       0.017101062 -0.06581714 0.070199944 0.076130606
000050 ed 91 1d bd b3 4e 5c be 18 41 ad bd 76 da b4 bd
       -0.038469244 -0.21514396 -0.08459681 -0.088307306
000060 fa e0 28 be 8f 5b 17 be 08 07 3a be 84 56 01 be
       -0.16492072 -0.1478102 -0.18166745 -0.1263066
000070 e3 63 96 bd 32 a6 14 3e 9a 62 cd bd 3b 1a 9c bc
       -0.07343271 0.14516523 -0.100285724 -0.019055476
000080 04 c0 d8 be 6a a4 b3 bc 05 27 d7 bd 8a 93 4c 3e
       -0.42333996 -0.021928985 -0.10505489 0.19978157
000090 62 8e d6 bd 5e 6b 33 bd d5 57 87 be 88 54 c5 3d
       -0.10476376 -0.043803565 -0.26434198 0.09635264
0000a0 cd c6 00 3b cb bc 67 3e ab 3b cc be 25 50 a4 be
       0.0019649744 0.22630613 -0.39889273 -0.32092395
0000b0 54 08 ea bb e7 aa f8 bd 5d e5 2f bd 6b 2a 33 3e
       -0.007142106 -0.12141972 -0.042943347 0.1749665
0000c0 e3 85 1e bd 87 39 1c 3d 36 67 0b 3e ef d7 ab bd
       -0.038701903 0.0381408 0.1361359 -0.083907954
0000d0 6d c7 0c be 5e 6e 08 bd a1 2e 5e 3c ca 2f 96 3e
       -0.1374795 -0.03330838 0.013560922 0.29333335
0000e0 f6 40 27 be a5 4d 87 3d 12 aa 2f 3d 18 b4 d4 3c
       -0.16333374 0.066066064 0.0428868 0.025964782
0000f0 cd 07 a8 be 99 9b 12 3e ae 6e dc 3d 85 66 50 be
       -0.32818452 0.14317168 0.10763298 -0.20351608
000100 f9 bf d2 bd 73 7d 9e 3d 3b ed ae 3d 5e 5c bd bd
       -0.10290522 0.07738771 0.08541342 -0.09246133
000110 07 a7 03 bd 51 6d 8c 3e 42 52 9b bc 52 fe 81 be
       -0.03214171 0.27427152 -0.018960122 -0.25389344
000120 37 82 11 3e bb 8c 2b be aa a9 7e 3d 8a 62 2a bd
       0.1420983 -0.16752903 0.062173523 -0.04159788
000130 99 e9 eb 3c 84 58 53 be 91 7f cf 3d 65 2d 52 3e
       0.028797911 -0.20639235 0.10131753 0.20525129
000140 b6 81 ee bd 2c 5f 3e be 09 fb 74 3d db f5 44 3d
       -0.11645834 -0.18590993 0.05980972 0.04808603
000150 0a 39 14 3e fd 37 4c 3e c6 30 eb bd 58 4f a9 bc
       0.14474884 0.19943233 -0.11483912 -0.020667717
000160 5e e8 e0 3d 3c 9d ad 3e c9 2c 30 3d 1c 51 ef bd
       0.109818205 0.33909023 0.04301146 -0.11685392
000170 5e f4 df 3d a4 88 5d 3d 83 e8 76 bc 5b c0 9a be
       0.10935281 0.05408539 -0.015070084 -0.3022488
000180 80 03 55 3e de 1a 85 be 59 53 2d 3e 2a 7c d7 be
       0.20802116 -0.2599706 0.16926326 -0.42086917
000190 4b 5a 3e 3e 09 72 df bd 08 1a c7 bc c1 1c 69 be
       0.18589132 -0.10910422 -0.024304405 -0.22764875
0001a0 fa a3 52 bd 55 e0 43 be 0d b8 44 3e a1 6e 65 be
       -0.05142591 -0.19128545 0.19210835 -0.22405483
0001b0 f3 99 84 3e 5b b6 69 3e 26 c5 d8 39 e7 f5 33 3d
       0.25898704 0.2282347 0.00041345618 0.043935683
0001c0 dd 00 84 bd ce bc 12 be 00 cc 50 be 60 55 99 bd
       -0.06445477 -0.14329836 -0.2039032 -0.07486987
0001d0 5c 24 63 be c8 a8 ff 3a 85 9a 99 3d da 97 5d 3e
       -0.22181839 0.0019505257 0.075001754 0.21639958
0001e0 b6 a6 25 bd 8d 0b a4 be ce 13 b5 3d 87 ad 0c 3e
       -0.04044219 -0.32040063 0.08841668 0.1373807
0001f0 fe d2 12 be 0b 0b cc be 3f 46 12 bd 28 f3 d7 3d
       -0.143383 -0.39852175 -0.035711523 0.10544425
000200 ad ab af bd c1 20 60 be c2 03 31 3e 76 59 35 3e
       -0.085776664 -0.21887495 0.1728659 0.17709908
000210 e5 64 7d 3e 97 d5 b3 bc 59 b9 88 bd 34 93 49 bd
       0.2474552 -0.021952434 -0.06675977 -0.04921265
000220 da bf cc bd c0 6b d1 be ff 73 86 3e 54 33 a0 3d
       -0.0999753 -0.4090252 0.26260373 0.0782229
000230 83 09 a2 bd ad ca 97 3d be 8b 5e 3d 1d f8 46 3e
       -0.079119705 0.07411704 0.054332487 0.19430585
000240 ad ad a9 3e 7c ae 06 be bc 8c b8 3c 4a 3d 1f be
       0.33140317 -0.13152498 0.022528045 -0.15550724
000250 b1 eb 46 be da 6e c1 3c 5d 9f 2c 3d c8 71 18 be
       -0.19425847 0.023612428 0.04214417 -0.14887154
000260 b9 eb 01 3e 05 00 17 3e 78 8c e8 bd 3c 10 06 bc
       0.12687577 0.14746101 -0.11354917 -0.0081825815
000270 d5 8d 81 be 90 73 62 3e 8e 46 3f bf 14 8d 99 bd
       -0.25303522 0.22114396 -0.7471703 -0.07497612
000280 cc 42 cd bc f5 76 ae 3d 3c 21 cf 3b a9 c0 d2 3d
       -0.025056265 0.08518783 0.0063211005 0.10290653
000290 c8 af 80 bd 76 42 f6 3c e4 19 ac 3d d6 7a 2a bd
       -0.062835276 0.030060988 0.08403376 -0.04162105
0002a0 63 42 ed 3d e1 a4 1c 3e fa fe fd be 14 cc 1a be
       0.11584928 0.15297271 -0.49608594 -0.15116912
0002b0 75 4b 53 3c c5 66 8a 3c cd c9 7c 3e b6 a2 c7 3c
       0.012896408 0.016894707 0.24686356 0.024369579
0002c0 70 f9 83 be 44 16 23 3e 7c 59 9c be 54 bb 36 3e
       -0.25776243 0.15926462 -0.3053702 0.17844898
0002d0 a9 a6 0e 3d 45 ac d4 3d c8 bc c9 bd ee 1e c2 3d
       0.03482691 0.1038442 -0.0985046 0.094785556
0002e0 5a a5 1c be d2 97 87 3d 23 40 be 3c 5a fe a7 bd
       -0.15297452 0.06620754 0.023223942 -0.082028106
0002f0 3c 6d 8f be 73 df ba be 95 ed 2b be e2 ae 53 3d
       -0.28013027 -0.36498603 -0.16789849 0.051680453
000300 63 31 69 3e 86 14 8b 3e 17 39 24 3e fe 6f b6 bd
       0.22772746 0.27164096 0.16037403 -0.089080796
000310 e2 6b 63 bd 07 f4 40 be 31 1c f6 bd e7 b2 11 bc
       -0.055522807 -0.18843089 -0.12017096 -0.008892751
000320 ef d3 9b 3d a2 ea 73 be e8 5c 85 be 7e e9 e1 3c
       0.076087825 -0.23819974 -0.26047444 0.027577158
000330 1d 20 84 3e 48 1b 13 bd 79 09 85 3d 56 f1 96 3e
       0.2580575 -0.03591469 0.064959474 0.29481
000340 35 00 d8 3d 88 70 42 be 19 ad 90 3e f4 6b 4d 3e
       0.105469145 -0.1898824 0.28257063 0.20060712
000350 84 06 c5 3d 99 18 07 3c 11 64 05 3a b9 ca bf bd
       0.096203834 0.008245611 0.00050884584 -0.09364838
000360 54 6a cd 3b 27 bc 20 be 26 72 0c bd 27 53 8d 3e
       0.006268779 -0.15696774 -0.034288548 0.27602503
000370 fb d8 41 3d 64 c5 97 be a0 54 78 bd e0 69 fc bd
       0.04732607 -0.29642785 -0.06062758 -0.123248816
000380 64 e0 92 be 88 6a b3 bc 03 55 00 be 56 f9 f9 bd
       -0.2868682 -0.021901384 -0.1253243 -0.1220576
000390 36 48 66 be 32 70 17 ba 88 c1 09 bc de b0 e7 bd
       -0.22488484 -0.0005776911 -0.008407958 -0.113130316
0003a0 4f 56 c4 bd b6 09 86 3d a7 38 ef bd 2d 70 55 bd
       -0.095867746 0.06544821 -0.116807275 -0.052108932
0003b0 41 f1 45 3e af 28 1b 3d 6d 99 27 be 99 89 6a 3e
       0.19330312 0.037880596 -0.16367121 0.22904052
0003c0 15 b7 b7 be ff fa 98 bc c5 40 c0 bc 66 a2 18 be
       -0.35881868 -0.018674372 -0.023468385 -0.149057
0003d0 62 81 08 be c5 34 cb 3d 85 aa 0a bd 54 b3 ad bc
       -0.13330606 0.09922174 -0.033854026 -0.021203674
0003e0 bf 1d eb bd c3 91 6a 3c 20 69 fa 3b 7b b2 c4 3d
       -0.11480283 0.014316979 0.0076419264 0.09604355
0003f0 6d 60 3f 3e 5c 02 a5 bd 59 c4 ae be eb d1 85 bd
       0.18689127 -0.08057091 -0.34134176 -0.06534179

actor_mlp_c.mlp.2.bias f4 [128]
000000 f6 e9 88 bd 53 ff 2f be f0 78 61 be 9a a8 81 be
       -0.066852495 -0.17187242 -0.2201879 -0.25323945
000010 64 32 9b 3d f7 46 cc bd e6 06 42 3c 98 82 28 bd
       0.075779706 -0.09974473 0.011842465 -0.04114017
000020 0f 3f 55 be 9c c7 b2 be d1 96 23 be 94 e3 8a be
       -0.20824836 -0.34917915 -0.159755 -0.27126753
000030 91 9b bf bd a2 a1 ce bc a1 5b b2 bd 65 bc 19 be
       -0.09355844 -0.025223557 -0.08708883 -0.15013273
000040 78 d2 84 bd a1 25 c3 bd 40 4a 11 3e b9 94 fa bd
       -0.06485456 -0.095286615 0.1418848 -0.12235398
000050 b1 0d 84 bc 7c 8b 40 be 05 dc 15 be 2c a5 bd 3c
       -0.01611981 -0.18803209 -0.14634712 0.02315005
000060 d0 de 93 bd bc ca 25 be d8 72 c5 bd 0e 3d b6 3c
       -0.072202325 -0.16190618 -0.09641045 0.02224591
000070 cf 33 a4 bd a6 33 eb 3c f6 70 bf 3c a6 86 5f be
       -0.08017694 0.028711151 0.023369294 -0.21828708
000080 3e 26 c5 bd 98 7c 0a be c0 6c 52 be 27 a9 e3 bd
       -0.09626435 -0.13524091 -0.20549297 -0.111162476
000090 b3 ef 8e bd df 6b 06 be 29 21 05 be ee 5d 7f be
       -0.06979313 -0.13127087 -0.13000931 -0.24938175
0000a0 19 e3 e5 bd 6a b8 02 be ae 34 32 bd 00 17 71 bd
       -0.11224956 -0.12765661 -0.04350727 -0.058859825
0000b0 27 7c 27 be 86 62 82 bc 5c 8f 3c be 09 94 f7 bd
       -0.16355954 -0.01591612 -0.18414062 -0.12088782
0000c0 02 15 d3 3d f5 9d 1a be 90 ff 9a be c4 63 6a be
       0.10306741 -0.15099318 -0.30273104 -0.2288962
0000d0 89 21 b5 bd ed 0a ca bd 8a f3 ce bc 4f 2d 9b bd
       -0.08844287 -0.09865365 -0.025262613 -0.07577001
0000e0 b3 8e af be 2a 8a 03 be 96 e7 8e be 4c a9 b0 be
       -0.34288558 -0.12845674 -0.2791106 -0.34504163
0000f0 ff 05 67 be 32 d1 3e be 98 8f 75 3d 0f 44 5c be
       -0.22560881 -0.18634489 0.059951395 -0.21510337
000100 d8 1f eb bd c2 98 1f bd 4f e1 05 bd 46 f3 84 bc
       -0.11480683 -0.03896404 -0.032685574 -0.016229283
000110 94 e3 00 bd 52 b3 8d be 62 e0 aa be d8 32 49 be
       -0.031467035 -0.27675873 -0.33374316 -0.19648302
000120 99 99 3b 3b db db 7d 3e d1 17 1c bc 36 5a 81 be
       0.0028625487 0.247909 -0.009527163 -0.25264138
000130 03 99 61 be 18 6a 59 be 22 9e 96 bd c4 06 a4 be
       -0.22031026 -0.21231878 -0.0735438 -0.32036412
000140 f7 7c ac bd 51 df b0 be d7 c8 bd bd 55 ef ad 3d
       -0.08422273 -0.34545377 -0.09266823 0.084929146
000150 27 b7 5c be c0 97 39 be 4f 16 33 be e9 3c 0d be
       -0.21554242 -0.18124294 -0.17488979 -0.13792767
000160 8e 40 8d be 01 f0 38 be 1a 70 51 be 2b 1a 2d be
       -0.27588314 -0.18060304 -0.2045292 -0.16904514
000170 f7 9a 92 bd 0c 8e 88 be b5 3a e9 3c ae 6a f0 bd
       -0.071584634 -0.26670873 0.028470377 -0.117390975
000180 21 3d 23 bd 4e 26 fc bd bf d8 dd bd 05 99 81 bc
       -0.03985322 -0.123119935 -0.10832357 -0.015820036
000190 dc 6b 95 bc 0a c8 8c be 10 ff b5 bd da 20 c5 bd
       -0.018239908 -0.27496368 -0.0888654 -0.096254066
0001a0 d4 7c 0b be e9 ed af bd 0f eb 70 be 74 a1 22 3d
       -0.13621837 -0.085903 -0.23527168 0.039704755
0001b0 76 2e d0 bd 87 2b e4 bd 9b 9d 08 bd b5 12 90 be
       -0.10165112 -0.11141115 -0.03335343 -0.28139272
0001c0 09 42 64 3d ca 82 ba bd b4 cb 80 be 30 ba 4f be
       0.05572704 -0.09106977 -0.25155413 -0.20285869
0001d0 c6 20 34 be 95 42 f8 bd de fd 02 be 8a bb 1f be
       -0.17590627 -0.121220745 -0.12792155 -0.15598884
0001e0 90 2d c1 3c 16 dc 38 be 1b 50 9a 3d fb 89 e6 bd
       0.023581296 -0.18052706 0.0753481 -0.112567864
0001f0 61 8a 94 3d 9f 7f 0a bd 02 94 da be 65 3d 8a 3d
       0.07252956 -0.033813115 -0.42691046 0.06749991
