dcmm_sim/scripts/catch_it/assets/models/track1.pth (torch, 308483 bytes, 25 tensors)

sigma f4 [4]
0	0xc008304b	-2.1279476
1	0xbfea1f69	-1.8290836
2	0xc005243b	-2.0803363
3	0xbfd3be61	-1.6542474

actor_mlp.mlp.0.weight f4 [256, 16]
0	0xbe2153d2	-0.15754631
1	0x3e8d43a8	0.2759068
2	0x3d756a55	0.05991586
3	0x3d12b28b	0.035814803
4	0xbd1730d2	-0.036911793
5	0xbcb8adf5	-0.022543887
6	0xb9db9e9c	-0.00041889108
7	0x3be6f16f	0.007047824
8	0x3d56c56e	0.052434377
9	0xbd8fa7f0	-0.070144534
10	0xbc25769a	-0.010099078
11	0xbe766e06	-0.24065408
12	0x3c9b191c	0.018932872
13	0x3ce7fc51	0.028318556
14	0xbc06779c	-0.008207228
15	0x3df2f312	0.11862768
16	0x3d792d9e	0.06083452
17	0x3da2956e	0.07938658
18	0xbe7237b0	-0.23654056
19	0xbd9603cb	-0.07324942
20	0xbbf533c1	-0.007482976
21	0x3e38d53a	0.1805009
22	0xbd299d21	-0.041409615
23	0xbe2fa1f9	-0.17151631
24	0x3d995ff6	0.07489006
25	0x3d5b6151	0.053559605
26	0x3ddaef76	0.10690205
27	0xbda12249	-0.078678675
28	0xbd29c18d	-0.04144435
29	0x3e6842dd	0.22681756
30	0xbc8745fb	-0.016512861
31	0x3e5e4f37	0.21709906
32	0xbd88af7c	-0.06674096
33	0xbec4a3b4	-0.38406146
34	0x3e4affc8	0.19824135
35	0xbc4d3d77	-0.012526861
36	0x3b9bb727	0.004752058
37	0xbd9ffbcf	-0.078117006
38	0x3dc4d7c8	0.096114695
39	0x3d1eb5c6	0.03874757
40	0xbe65062b	-0.22365634
41	0xbccdb70e	-0.025111701
42	0xbdced8d6	-0.10099952
43	0x3ef2338b	0.4730495
44	0xbe88aade	-0.2669286
45	0xbea4eaab	-0.32210287
46	0x3e121ea5	0.14269502
47	0xbcabc73f	-0.020969031
48	0x3e4a62bf	0.19764231
49	0xbece5397	-0.4029815
50	0x3e810b15	0.25203767
51	0x3e10c6db	0.14138357
52	0x3e0d0226	0.13770351
53	0xbdaf97a4	-0.08573845
54	0xbd49259d	-0.049108136
55	0x3d4d8287	0.05017331
56	0xbe24057b	-0.16017716
57	0xbde0dc84	-0.1097956
58	0x3e75f03e	0.24017426
59	0x3ef36b89	0.4754298
60	0x3dbfeb9b	0.0937111
61	0x3e0b8a73	0.13627033
62	0x3c53ac74	0.012919534
63	0xbdd15adb	-0.102224074
64	0xbe737ca6	-0.23778018
65	0xbc75b6e2	-0.014997216
66	0xbe64ac1e	-0.22331282
67	0xbcd3c272	-0.025849555
68	0xbc188d73	-0.009311068
69	0x3c0ab3d5	0.008465727
70	0xbc0a9645	-0.008458679
71	0x3dd6cf17	0.10488718
72	0xbdf66cc6	-0.12032466
73	0xbe31a117	-0.17346607
74	0xbe1bc552	-0.1521199
75	0x3dd60ec9	0.10452039
76	0x3e491ce6	0.1963993
77	0x3e5e14e3	0.21687655
78	0x3d5d318f	0.05400234
79	0x3e46e807	0.19424449
80	0xbe4be85d	-0.19912858
81	0xbd57b857	-0.052666035
82	0xbdfc6dd3	-0.12325635
83	0xbe166691	-0.14687563
84	0x3d170f8a	0.036880054
85	0x3e288eaf	0.1646068
86	0xbcfb930d	-0.030709768
87	0x3d2a1684	0.04152538
88	0xbd810147	-0.06299072
89	0x3b8f15b6	0.004366602
90	0xbb22b886	-0.0024829223
91	0x3e01b54f	0.1266682
92	0xbd12a240	-0.035799265
93	0x3de8cf6f	0.1136769
94	0xbd0e4e4f	-0.03474265
95	0x3e43e949	0.1913196
96	0xbdc7b3c0	-0.097510815
97	0xbe081441	-0.13288976
98	0xbda79b78	-0.0818395
99	0x3c95c0b6	0.018280368
100	0x3cd422d7	0.02589552
101	0x3e2443db	0.1604151
102	0xbd359cf7	-0.044339146
103	0xbd9d3e81	-0.07677937
104	0x3d950669	0.07276613
105	0x3d89505c	0.067047805
106	0x3e85703f	0.260622
107	0x3e3ca130	0.18420863
108	0x3cf1a8c6	0.029499423
109	0x3c58a98f	0.01322402
110	0xbbdf759a	-0.006819439
111	0x3beef3c2	0.007292242
112	0x3c93b45e	0.018030342
113	0x3e068a54	0.13138705
114	0x3d3b0151	0.045655552
115	0x3d04f4b8	0.032459944
116	0xbd480727	-0.048834946
117	0x3bc0aa91	0.005879708
118	0x3cf3278d	0.029681945
119	0xbd1b7db4	-0.037961677
120	0x3e4adcf7	0.19810854
121	0x3dcc2790	0.099684834
122	0xbeb98222	-0.36232096
123	0xbe046b38	-0.12931526
124	0xbe128ae0	-0.14310789
125	0xbde964aa	-0.11396153
126	0xbc4f6a7b	-0.012659664
127	0xbd49d9c9	-0.04927996
128	0xbdc8bb03	-0.09801295
129	0x3e8f9647	0.2804434
130	0xbe8e9e1c	-0.27855003
131	0xbe1cf077	-0.15326105
132	0x3cc35c8c	0.02384784
133	0x3d70c19e	0.058778398
134	0xbc8cc064	-0.017181583
135	0xbdc691e3	-0.096957944
136	0x3db60bab	0.08888944
137	0x3eb35a82	0.3502999
138	0x3e8169d9	0.25276068
139	0xbe1e0e39	-0.15435113
140	0xbc654560	-0.013993591
141	0x3e4526b3	0.19253044
142	0x3d4e979b	0.05043755
143	0x3cbfc053	0.023407137
144	0xbc4d9211	-0.012547032
145	0xbe2a0ca3	-0.16606383
146	0xbcce8de5	-0.025214145
147	0xbcb98423	-0.022646016
148	0xbdc47119	-0.09591884
149	0x3df43e89	0.1192599
150	0x3e20eca6	0.15715274
151	0x3e10e39e	0.14149329
152	0xbe6859bf	-0.22690485
153	0x3d805b40	0.062674046
154	0xbe090227	-0.13379727
155	0x3e013af4	0.12620145
156	0xbe6f553e	-0.23372361
157	0xbe9b5e13	-0.3034521
158	0x3e22eb53	0.15910082
159	0x3a97a490	0.0011569429
160	0xba119bb6	-0.0005554514
161	0x3e20e7ae	0.15713379
162	0x3ebb8f97	0.36632988
163	0x3e099c5d	0.13438554
164	0x3c4dcba3	0.012560758
165	0x3cf0dc52	0.029401932
166	0xbdc4f209	-0.09616477
167	0xbe493219	-0.19648017
168	0x3bc5d28b	0.0060370616
169	0xbe254920	-0.16141176
170	0x3d0b0b70	0.033946455
171	0xbd92173d	-0.071333386
172	0x3da0cfcb	0.07852133
173	0x3e9625aa	0.2932561
174	0xbe4aff26	-0.19823894
175	0xbd451436	-0.048114978
176	0x3d8b27f3	0.06794729
177	0xbdd271c8	-0.10275608
178	0x3ca63aa5	0.020291636
179	0xbca486ae	-0.020083752
180	0xb89877e4	-7.270256e-05
181	0x3d84b39b	0.064795695
182	0xbd8d2a7d	-0.068928696
183	0xbce8749c	-0.028375916
184	0xbe03a808	-0.12857068
185	0x3e33e74a	0.17568699
186	0x3dfac3f1	0.12244404
187	0x3e108a0f	0.14115165
188	0xbe895348	-0.2682135
189	0xbeb1423d	-0.34620848
190	0x3c1883d3	0.009308773
191	0xbd017102	-0.031601913
192	0xbe18ab03	-0.14908986
193	0xbd5d0b00	-0.05396557
194	0x3d4e6157	0.0503858
195	0xbda2612c	-0.0792869
196	0x3cff23e9	0.031145053
197	0x3bd769b0	0.006573878
198	0xbac7a87d	-0.0015232709
199	0xbd1cfd45	-0.038327474
200	0xbc118062	-0.0088807065
201	0x3e09955c	0.13435882
202	0x3ea3f577	0.32023212
203	0x3e0d5bbf	0.1380453
204	0xbe7d4a36	-0.2473534
205	0xbe340a4b	-0.17582051
206	0x3c20a14c	0.009804081
207	0xbe13b6f8	-0.14425266
208	0x3d8e89a7	0.06959849
209	0xbe104d58	-0.14092004
210	0xbe317701	-0.17330553
211	0x3cb2006c	0.021728717
212	0xbe0a1974	-0.13486272
213	0x3cbcab62	0.02303094
214	0x3dae137b	0.08499809
215	0xbe1eb70f	-0.15499519
216	0x3e0accb0	0.13554645
217	0x3dfd433e	0.12366341
218	0x3e574612	0.21022823
219	0x3e8557de	0.260436
220	0x3e66e0eb	0.22546737
221	0x3e4a60f0	0.19763541
222	0xbd89313e	-0.06698845
223	0x3ea5b8d9	0.3236759
224	0x3bd108dc	0.00637923
225	0xbe0d4bbc	-0.13798422
226	0x3e86fd5f	0.26365182
227	0x3cb1471b	0.021640351
228	0x3d18a555	0.037267048
229	0x3e6f0df9	0.23345174
230	0xbd3764d0	-0.044773877
231	0xbe1beaf8	-0.15226352
232	0x3c986748	0.018603936
233	0xbd19b9f3	-0.03753085
234	0x3e7db4f9	0.24776067
235	0x3e0daa0a	0.13834396
236	0xbd873787	-0.06602388
237	0x3eb145fc	0.34623706
238	0x3da16927	0.07881384
239	0x3d163a82	0.03667689
240	0xbe490df8	-0.19634235
241	0xbdc5a13f	-0.09649896
242	0x3e19c1c1	0.15015317
243	0x3e39f495	0.18159707
244	0xbc231688	-0.009954102
245	0xbe31069e	-0.1728768
246	0xbe4d6507	-0.2005807
247	0xbdb9e4c9	-0.090768404
248	0xbd445466	-0.04793205
249	0x3d4faf90	0.05070454
250	0x3e062860	0.1310134
251	0x3ea6ab25	0.32552448
252	0xbd523d53	-0.051328015
253	0xbea58630	-0.3232894
254	0x3da5670e	0.08076297
255	0xbe6c548c	-0.23079127

actor_mlp.mlp.0.bias f4 [256]
0	0x3db55432	0.088539496
1	0x3d7583fe	0.05994033
2	0x3e28471c	0.16433376
3	0x3dd42206	0.10358052
4	0x3e4853d4	0.19563228
5	0x3eba826b	0.36427626
6	0x3e6b76c0	0.22994518
7	0xbf023f2a	-0.5087763
8	0xbd97af5c	-0.07406494
9	0xbeb7f109	-0.35926083
10	0xbe662824	-0.2247625
11	0xbe90a03b	-0.28247246
12	0x3e90cd52	0.28281647
13	0x3f1d8274	0.6152718
14	0x3dd28669	0.10279543
15	0x3d165903	0.036705982
16	0x3e7e5ceb	0.24840133
17	0xbda88d7f	-0.08230113
18	0xbdea7187	-0.11447435
19	0xbe2ee546	-0.17079648
20	0xbe02e777	-0.1278361
21	0xbd9c9c7b	-0.07647034
22	0x3da3fcc7	0.08007198
23	0xbeb6bd9c	-0.35691535
24	0x3e0d0cca	0.1377441
25	0x3d829371	0.063757785
26	0xbe265b8f	-0.16245864
27	0x392b3c52	0.00016330302
28	0x3daf7421	0.08567072
29	0x3e866b32	0.2625366
30	0x3d1dbb3f	0.03850865
31	0xbdcfbb49	-0.10143144
32	0x3ea3990e	0.3195271
33	0xbe294fbf	-0.16534327
34	0x3ee5d695	0.44890276
35	0xbeb7a972	-0.35871464
36	0x3e91ef34	0.2850281
37	0x3e7405fa	0.23830405
38	0xbdece98f	-0.11567985
39	0xbe917f60	-0.28417492
40	0xbdf9f9ba	-0.12205835
41	0xbe92d82c	-0.2868055
42	0xbe51be19	-0.20482673
43	0xbec0a49a	-0.3762558
44	0xbd42dbe5	-0.04757299
45	0xbd569235	-0.052385528
46	0xbdb8fa6d	-0.0903214
47	0xbb350c73	-0.0027625829
48	0x3d8f0144	0.06982663
49	0xbe3b1c70	-0.18272567
50	0x3effa696	0.49931782
51	0x3d9c0916	0.076189205
52	0xbe4e5ce1	-0.20152618
53	0xbe3a6124	-0.18201119
54	0x3d032a4a	0.032022752
55	0x3d6e66fd	0.058203686
56	0xbd91e83b	-0.071243726
57	0xbea9c5ab	-0.3315862
58	0xbdbb9415	-0.09159104
59	0x3e670ed5	0.22564252
60	0xbe8e11a3	-0.2774783
61	0x3e99a37b	0.30007538
62	0x3e496c3e	0.19670197
63	0x3cf6a4fe	0.030107971
64	0xbdf3b1b1	-0.11899126
65	0xbe96e815	-0.2947394
66	0x3e8896fc	0.26677692
67	0xbe43a1ef	-0.19104742
68	0x3ee51025	0.4473888
69	0xbc304151	-0.01075776
70	0xbdfa62c3	-0.122258686
71	0x3ece371f	0.4027643
72	0xbdb4a6d4	-0.088208824
73	0xbdb3815e	-0.08764909
74	0x3e7f0ea5	0.2490793
75	0xbeb8d75a	-0.361018
76	0xbd8bad5c	-0.06820175
77	0x3ea6a9fe	0.3255157
78	0xbe9466cd	-0.2898468
79	0x3e476af8	0.19474399
80	0x3eccb357	0.39980575
81	0xbda78909	-0.08180434
82	0xbedb6694	-0.42851698
83	0x3eaa9856	0.33319348
84	0xbe4e74fe	-0.20161816
85	0xbe4d3b35	-0.20042117
86	0xbdd25f51	-0.102720864
87	0x3ebe82d3	0.37209186
88	0xbe8a26e9	-0.2698281
89	0x3e7af8b8	0.24508941
90	0xbe097539	-0.13423623
91	0x3e2cdf50	0.16882062
92	0xbdbfce4f	-0.09365522
93	0x3d54d93a	0.051964976
94	0xbe95216f	-0.2912707
95	0xbeffd08b	-0.49963793
96	0x3e8f22ad	0.27956143
97	0x3f1c4849	0.610478
98	0xbe235d44	-0.15953547
99	0xbd87783e	-0.06614731
100	0x3e309bb1	0.17246892
101	0x3d6b8ef8	0.057509392
102	0x3e353f11	0.17699839
103	0x3ea40d9d	0.32041636
104	0x3da6876e	0.081313
105	0x3d96947b	0.07352539
106	0xbe934a1b	-0.28767475
107	0x3e3c87e2	0.1841121
108	0xbe04423c	-0.12915891
109	0xbe35de5a	-0.17760602
110	0x3d912091	0.0708629
111	0x3cfaf174	0.030632712
112	0x3e8ff87a	0.2811926
113	0x3e40aa61	0.18814994
114	0xbe7e3d21	-0.24828006
115	0xbe69e48b	-0.22841088
116	0x3df14d4b	0.117823206
117	0x3e890edf	0.26769158
118	0xbd6efb58	-0.05834517
119	0xbec07ac6	-0.3759367
120	0xbe8f7f6f	-0.28026912
121	0x3c7ff35d	0.015621987
122	0xbebba794	-0.3665129
123	0xbe6d0681	-0.23147012
124	0x3e899669	0.26872566
125	0xbe8560a1	-0.26050285
126	0x3db72456	0.089424774
127	0x3e7880c3	0.24267869
128	0xbe9e0536	-0.3086335
129	0x3e24864c	0.16066855
130	0xbe13f605	-0.14449318
131	0x3e56c143	0.20972161
132	0x3e1c99a9	0.15292992
133	0xbe959c66	-0.29220885
134	0xbd3ac2ed	-0.045596052
135	0xbe5be87a	-0.21475402
136	0xbc884bad	-0.016637648
137	0xbc1d7956	-0.009611448
138	0xbe99b96a	-0.30024272
139	0xbdf61432	-0.12015571
140	0x3ed46425	0.41482654
141	0x3d944c30	0.07241094
142	0xbe821ff2	-0.25414997
143	0xbd4e89d5	-0.050424416
144	0x3e2e903b	0.17047207
145	0x3e83bd32	0.25730282
146	0x3e1d1924	0.15341622
147	0xbebf18b9	-0.3732355
148	0xbe828fd6	-0.25500363
149	0x3e59fff0	0.21289039
150	0x3eb82817	0.35968086
151	0x3ecfc724	0.4058162
152	0xbdd7ff33	-0.10546722
153	0xbecd1557	-0.40055344
154	0xbc72017b	-0.014770861
155	0xbe24a6d6	-0.16079268
156	0x3ead8683	0.33891687
157	0x3e035b6c	0.12827843
158	0x3e2e150b	0.17000215
159	0x3e152a65	0.14566953
160	0xbe465ed4	-0.19372112
161	0xbe6878d7	-0.22702347
162	0xbd16d8d8	-0.036827892
163	0xbeba9a4a	-0.36445838
164	0xbe04a289	-0.12952627
165	0x3e162259	0.1466154
166	0x3e93305b	0.2874783
167	0x3c1c8f42	0.00955564
168	0x3e8f9c38	0.28048873
169	0x3c7ec7bf	0.015550553
170	0xbd45782f	-0.04821032
171	0x3d96c7ce	0.073623285
172	0xbe60983e	-0.21933076
173	0xbe532d7a	-0.20622817
174	0xbe80e56f	-0.25175044
175	0xbee5834e	-0.4482674
176	0x3dfb9a14	0.122852474
177	0xbe3eca14	-0.18631774
178	0x3e9a220c	0.301041
179	0xbe022f00	-0.12713242
180	0xbecdd064	-0.40198052
181	0x3e12258f	0.1427214
182	0x3d8983bb	0.06714579
183	0xbe26f98e	-0.16306135
184	0x3e0a41c0	0.13501644
185	0x3e596a9e	0.21232077
186	0x3ed6a9e3	0.41926488
187	0x3c87fb33	0.016599273
188	0x3cb50ed8	0.022101805
189	0x3d686763	0.056739222
190	0xbe810cce	-0.25205082
191	0xbe420c11	-0.18949915
192	0xbc4de9db	-0.0125679625
193	0xbe5bf6ea	-0.21480909
194	0x3eda9895	0.42694536
195	0x3ea2d299	0.31801298
196	0xbe661907	-0.22470485
197	0xbdf4af35	-0.119474806
198	0x3ebe8fe6	0.3721916
199	0x3e4c8987	0.19974338
200	0x3ec41292	0.38295418
201	0xbdcac3d5	-0.09900633
202	0xbbb67ecf	-0.005569316
203	0xbe905701	-0.2819138
204	0xbe816cba	-0.25278264
205	0xbe389296	-0.18024668
206	0xbd94a5aa	-0.072581604
207	0x3cfc2fe0	0.030784547
208	0xbdae60db	-0.085145675
209	0xbeb0ed96	-0.34556264
210	0xbddf168c	-0.10892972
211	0x3e0f5c85	0.14000137
212	0xbd1841d2	-0.037172146
213	0xbe5bf502	-0.21480182
214	0x3d11e554	0.035619095
215	0x3e97126d	0.29506245
216	0xbda2fefc	-0.07958791
217	0xbefe16ee	-0.4962687
218	0x3db0d882	0.086350456
219	0x3e485c9f	0.19566582
220	0xbdee777c	-0.116438836
221	0x3d4fdc2f	0.050747093
222	0xbd527a02	-0.051385887
223	0xbe703af6	-0.23459992
224	0x3d8b16da	0.06791468
225	0x3d616353	0.055026364
226	0xbcea14c4	-0.028574355
227	0xbe3f56f4	-0.18685514
228	0xbe3a2446	-0.181779
229	0xbe5824b3	-0.2110775
230	0x3f0d1022	0.5510274
231	0x3de4a7ec	0.11164841
232	0x3e04c7c4	0.1296683
233	0xbe84781c	-0.25872886
234	0x3e30226d	0.17200632
235	0xbdbc2692	-0.09187044
236	0x3d3ec38e	0.046573214
237	0xbe946990	-0.28986788
238	0x3cb79711	0.022410901
239	0x3dc3315b	0.09530898
240	0x3d5c8d6c	0.053845808
241	0xbe11205b	-0.14172499
242	0x3ea88d0d	0.32920113
243	0x3cdb4179	0.026764618
244	0x3e273ef9	0.16332616
245	0xbe2e6eef	-0.17034505
246	0x3ec558ef	0.38544413
247	0xbe829371	-0.25503114
248	0xbed3b6ad	-0.41350308
249	0xbcb4c9d9	-0.022068905
250	0x3d8b365b	0.06797477
251	0x3e8acd51	0.2710977
252	0xbdd958f0	-0.106126666
253	0x3d0249bd	0.031808604
254	0xbe788feb	-0.2427365
255	0xbd7ffb8e	-0.06249576

actor_mlp.mlp.2.weight f4 [128, 256]
0	0x3e3186d2	0.17336586
1	0xbd447be4	-0.047969714
2	0xbe865643	-0.26237687
3	0xbea37aa8	-0.31929517
4	0x3ed8ac72	0.42319065
5	0xbd103362	-0.035205252
6	0xbd40e240	-0.04709077
7	0xbde82e6d	-0.1133698
8	0x3e028d27	0.12749158
9	0x3e800301	0.25002292
10	0x3ebd4970	0.3697009
11	0xbe39a9aa	-0.18131128
12	0xbe3c7ce1	-0.18407013
13	0xbd75211a	-0.05984602
14	0xbcac83ab	-0.021058878
15	0xbef3a281	-0.47584918
16	0x3e2c8393	0.16847067
17	0x3e40498a	0.18778053
18	0x3da40c0b	0.080101095
19	0x3d4e6491	0.050388876
20	0xbdbd14a1	-0.0923245
21	0xbee7d951	-0.45282987
22	0xbe77c2b2	-0.24195364
23	0x3e3f388a	0.18673912
24	0xbe875e4f	-0.2643914
25	0x3dd4ebdc	0.10396549
26	0xbd29c377	-0.041446175
27	0xbe6ed05d	-0.23321672
28	0x3ded0d03	0.115747474
29	0x3ec72af9	0.38899973
30	0x3c517c72	0.012786018
31	0xbc96fcf7	-0.01843117
32	0xbe9b5544	-0.3033849
33	0xbd0151df	-0.03157222
34	0xbe959bdb	-0.2922047
35	0x3db8913e	0.09012078
36	0xbea1ab30	-0.31575918
37	0x3e00f80e	0.12594625
38	0xbf005194	-0.5012448
39	0x3e642129	0.22278275
40	0x3e477ea5	0.19481905
41	0xbd265a42	-0.04061342
42	0x3e4dd392	0.20100239
43	0xbcb9c7c9	-0.022678273
44	0xbc8e4a47	-0.017369403
45	0xbe80436d	-0.25051442
46	0xbed0d09f	-0.40784165
47	0xbdd9cd2e	-0.10634838
48	0xbe5fb80b	-0.2184755
49	0xbc3f7e4b	-0.011687825
50	0xbe10c3a0	-0.14137125
51	0xbc829f3e	-0.015945073
52	0x3df88834	0.12135354
53	0xbe4838fb	-0.19552986
54	0x3e8cfc2d	0.27536145
55	0xbe6cd06e	-0.23126385
56	0x3d841c68	0.064507306
57	0xbd879b11	-0.066213734
58	0x3db20d48	0.086939394
59	0x3dede70a	0.11616333
60	0xbe487729	-0.19576706
61	0xbc7de22f	-0.015495821
62	0xbe9e6bf7	-0.30941746
63	0xbdac92e4	-0.08426455
64	0x3d25cc49	0.040478025
65	0xbbbae0c1	-0.0057030623
66	0x3ca35404	0.019937523
67	0x3e6598d6	0.22421584
68	0xbd4a9c1e	-0.04946529
69	0x3d956556	0.07294719
70	0xbda519b3	-0.08061542
71	0x3e151b17	0.14561115
72	0xbb17135c	-0.002305231
73	0x3e1031fa	0.14081565
74	0x3daf5ad1	0.08562244
75	0xbd0de051	-0.034637753
76	0x3decee3c	0.11568877
77	0xbebb7139	-0.3660982
78	0xbde268d4	-0.11055151
79	0x3e31235e	0.17298648
80	0x3dc85712	0.09782232
81	0x3dd7a660	0.105297804
82	0xbd428f6e	-0.047500066
83	0x3e33751c	0.17525142
84	0xbea4542b	-0.32095465
85	0x3f58ef8f	0.8474054
86	0xbcd00afd	-0.025395865
87	0x3e186efa	0.14886084
88	0xbecf5557	-0.40494797
89	0xbc62100a	-0.013797769
90	0x3ddda96b	0.108233295
91	0x3e7cbffd	0.24682613
92	0x3e3f8d98	0.18706357
93	0x3e34ea11	0.17667414
94	0xbd4fb452	-0.050709076
95	0x3d85ba00	0.06529617
96	0x3e47d47e	0.19514653
97	0xbeefb293	-0.4681593
98	0xbd74069d	-0.05957662
99	0x3da081c9	0.078372546
100	0xbdb992c2	-0.09061195
101	0xbe434fab	-0.1907336
102	0x3d32f4b2	0.04369039
103	0x3d1f86aa	0.038946785
104	0x3e11583a	0.14193812
105	0xbd272d0e	-0.040814452
106	0x3db6a7e0	0.08918738
107	0xbe417be4	-0.18894917
108	0x3e57955d	0.21053071
109	0xbe1327fa	-0.14370719
110	0xbe26ee21	-0.16301776
111	0xbda6bca5	-0.0814145
112	0xbda09670	-0.07841194
113	0x3e727bbb	0.23680012
114	0xbec5b340	-0.3861332
115	0xbd928f58	-0.07156247
116	0x3dfefb5a	0.12450285
117	0x3e658464	0.22413784
118	0x3cb4341f	0.02199751
119	0x3de4591a	0.11149807
120	0xbdbf823b	-0.09351011
121	0x3e8b766d	0.2723879
122	0xbe3c1325	-0.18366678
123	0xbdaa9b29	-0.08330376
124	0x3cab506b	0.02091237
125	0xbcd5222f	-0.026017277
126	0x3efd4e0e	0.49473614
127	0xbed4a2d2	-0.41530472
128	0xbd4a81d9	-0.04944024
129	0xbeb04771	-0.34429505
130	0x3e1bb203	0.15204625
131	0xbe697335	-0.22797854
132	0x3db49bf9	0.08818812
133	0x3e0d0d8d	0.137747
134	0xbdc0ad90	-0.094081044
135	0xbe506522	-0.20351079
136	0x369ee016	4.734854e-06
137	0x3e8fca57	0.2808406
138	0xb99549fd	-0.0002847462
139	0x3cc3ba7c	0.023892634
140	0x3eb59807	0.3546755
141	0xbe0ef8cc	-0.13962096
142	0x3d85b604	0.06528857
143	0x3e2eeec8	0.17083275
144	0xbd494ed8	-0.049147457
145	0xbe06d6e8	-0.13167918
146	0xbe566283	-0.20936017
147	0xbe535042	-0.20636085
148	0x3e169555	0.14705403
149	0xbe639106	-0.22223291
150	0xbe975549	-0.29557255
151	0x3e23e9fd	0.16007228
152	0x3d96d82e	0.07365452
153	0x3df3451d	0.11878417
154	0x3c182df9	0.0092883045
155	0xbdf36845	-0.11885122
156	0xbdc22792	-0.09480204
157	0x3e362be1	0.17790176
158	0xbeea6c57	-0.45785782
159	0xbe4d8b45	-0.20072658
160	0x3e6a91f2	0.22907236
161	0x3da0c04d	0.078491785
162	0xbe1b69b6	-0.15177044
163	0x3e10b5af	0.14131807
164	0xbd31fa60	-0.043451667
165	0x3e0ce37e	0.13758656
166	0xbeb91599	-0.3614929
167	0xbe4cb65b	-0.19991438
168	0x3dd5a0b5	0.10431043
169	0xbddafeda	-0.1069314
170	0xbe627780	-0.22115898
171	0x3bdd595b	0.006755037
172	0x3eb54a2d	0.35408154
173	0x3d164975	0.036691148
174	0xbe24f2d1	-0.16108252
175	0xbe17b7e2	-0.1481624
176	0xbeb47578	-0.35245872
177	0x3e45db95	0.19322045
178	0x3e7aa364	0.24476391
179	0xbe0373dc	-0.12837166
180	0x3e17e2e8	0.14832652
181	0x3c6185e6	0.013764834
182	0x39c25e68	0.00037072902
183	0xbe9d4359	-0.30715445
184	0xbe8091b0	-0.2511115
185	0xbd01263f	-0.031530615
186	0xbe58c4f6	-0.21168885
187	0xbc083c99	-0.008315229
188	0x3dce0508	0.100595534
189	0x3d0e2bce	0.034709744
190	0x3d074c58	0.03303179
191	0x3def30ad	0.11679206
192	0x3e41a0c9	0.18908991
193	0x3df3c5f0	0.11902988
194	0xbcb77f57	-0.022399588
195	0x3e9563e0	0.2917776
196	0xb92c4356	-0.00016428283
197	0x3defd8a4	0.11711243
198	0xbea072dd	-0.31337634
199	0x3ea218ac	0.31659448
200	0xbd68013e	-0.05664181
201	0xbc995c7d	-0.01872086
202	0x3ddf2fc5	0.10897783
203	0x3e398fe5	0.18121298
204	0x3d400e4a	0.046888627
205	0x3d8bb156	0.068209335
206	0xbe666a86	-0.22501573
207	0xbe11f131	-0.14252163
208	0x3e40f357	0.18842827
209	0xbdba9487	-0.091103606
210	0x3edcb401	0.43106082
211	0x3dd8eda9	0.10592205
212	0x3d4a6638	0.04941389
213	0x3dd69d4d	0.104792215
214	0xbdc908c9	-0.09816129
215	0xbea4a352	-0.32155854
216	0xbe9812df	-0.29701898
217	0x3e84c928	0.2593472
218	0xbe13257c	-0.14369768
219	0x3d1455dd	0.036214698
220	0xbe03e8dc	-0.12881798
221	0x3ef8f2b6	0.48622674
222	0xbe63f889	-0.22262777
223	0x3e107d9a	0.14110413
224	0x3d5a21c3	0.053254854
225	0x3e91bc0f	0.2846379
226	0xbe26749d	-0.16255422
227	0x3dda132d	0.10648189
228	0xbdff24ce	-0.12458192
229	0xbdb51a93	-0.08842959
230	0xbd74db68	-0.059779555
231	0xbdf57e12	-0.11986937
232	0xbe196157	-0.14978538
233	0x3e7b48db	0.24539511
234	0xbc65d491	-0.014027731
235	0x3ca8b14b	0.020592352
236	0x398e7018	0.00027167867
237	0xbb92170c	-0.004458314
238	0xbc708f4b	-0.014682601
239	0x3cd6add7	0.02620594
240	0xbbcb1529	-0.006197591
241	0xbd0ab757	-0.033866253
242	0xbe8f4c00	-0.2798767
243	0xbd803dc5	-0.062617816
244	0x3c360980	0.011110663
245	0x3e191f88	0.14953434
246	0xbe733819	-0.23751868
247	0xbe19d4f1	-0.15022637
248	0xbe8c41be	-0.27393907
249	0xbe298447	-0.16554366
250	0x3d876e4f	0.066128366
251	0xbe38266c	-0.17983407
252	0x3f1ae308	0.6050267
253	0xbc8d1b77	-0.01722501
254	0xbe0b26be	-0.13588998
255	0xbe8e7d23	-0.27829847

actor_mlp.mlp.2.bias f4 [128]
0	0xbe68e296	-0.22742686
1	0xbd919d6d	-0.07110105
2	0xbdadb7e7	-0.08482342
3	0xbeb9fd9a	-0.36326295
4	0xbc7c0db9	-0.015384131
5	0xbd4b4322	-0.04962457
6	0xbe748338	-0.23878181
7	0xbed6e9ff	-0.419754
8	0x3df553e4	0.119788915
9	0x3cf60784	0.03003288
10	0xbea6c162	-0.32569414
11	0x3d640d85	0.055676956
12	0x3ca3ede9	0.020010905
13	0xbc8b8856	-0.017032783
14	0xbd5e6918	-0.054299444
15	0x3cfa564e	0.030558731
16	0xbdb30c59	-0.087425895
17	0xbf03f2a3	-0.5154211
18	0x3e00c2cc	0.12574309
19	0xbda12b39	-0.07869572
20	0xbe5fc5aa	-0.21852747
21	0xbdd79ec8	-0.10528332
22	0xbe042245	-0.12903698
23	0x3e042259	0.12903728
24	0x3d17d1ca	0.037065305
25	0xbcd88a42	-0.026433114
26	0x3e1b8a1f	0.15189408
27	0xbd870052	-0.06591858
28	0xbda0af63	-0.07845952
29	0xbd095639	-0.033529494
30	0xbe123477	-0.14277826
31	0xbcce7e42	-0.025206689
32	0xbd8e8663	-0.06959226
33	0x3cdcd7f0	0.026958436
34	0xbcbeb4de	-0.023279604
35	0xbd802a8e	-0.06258117
36	0xbd550c5d	-0.052013744
37	0xbdd9b915	-0.10631005
38	0xbd96dd60	-0.07366443
39	0xbe1b105a	-0.15142956
40	0xbeb6aac9	-0.35677174
41	0xbea7f3cd	-0.32803193
42	0xbdaf7aa4	-0.08568314
43	0xbc6f0219	-0.014587902
44	0xbd6fe5da	-0.058568813
45	0xbd12fb0c	-0.03588395
46	0x3d4dea41	0.05027223
47	0xbbb58518	-0.0055395477
48	0xbdb220b0	-0.08697641
49	0xbe075452	-0.1321576
50	0xbd439dc9	-0.047757898
51	0xbeca902b	-0.39563116
52	0xbdf244b9	-0.11829514
53	0x3c3b1cbf	0.011420428
54	0xbca70c11	-0.020391496
55	0xbe91c3d0	-0.28469706
56	0xbe6b7101	-0.22992326
57	0x3c5c4ac8	0.013445564
58	0xbd024ead	-0.031813312
59	0xbb2f30c1	-0.002673194
60	0xbdaf97b4	-0.08573857
61	0x3d63bbea	0.05559913
62	0x3c728d15	0.014804144
63	0xbdd370f0	-0.103242755
64	0x3d2b6bf6	0.041851006
65	0xbd2136c1	-0.039358858
66	0xbdd17f62	-0.102293745
67	0x3dc6eba4	0.09712914
68	0xbe0294ad	-0.12752028
69	0xbd691a79	-0.056910012
70	0xbdbdb194	-0.09262386
71	0x3d2a00e0	0.04150474
72	0xbd62aa78	-0.055338353
73	0xbda60baf	-0.08107697
74	0xbd8cfea0	-0.06884503
75	0x3db95e3c	0.09051177
76	0x3baeda79	0.0053361026
77	0xbd897bf0	-0.06713092
78	0xbd84d930	-0.06486738
79	0x3d5534f7	0.052052464
80	0xbd425620	-0.047445416
81	0xbe3cb7a3	-0.18429427
82	0xbd578d50	-0.052625
83	0xbea9d429	-0.33169678
84	0xbe353549	-0.17696108
85	0xbe4f8c30	-0.20268321
86	0xbd8b8ec1	-0.068143375
87	0x3e10fb5a	0.14158383
88	0xbe98d809	-0.29852322
89	0xbda47ed9	-0.08032007
90	0xbed41e24	-0.41429245
91	0x3c1cc656	0.009568771
92	0xbc9c2405	-0.019060144
93	0x3cb84bbd	0.022497052
94	0xbce8e863	-0.028431123
95	0x3e04652a	0.12929216
96	0x3e09ab61	0.13444282
97	0xbbe112a8	-0.006868679
98	0xbd8a1cdf	-0.06743788
99	0x3dfb596b	0.122729145
100	0xbe3a529d	-0.18195577
101	0x3d9c2674	0.07624522
102	0xbd28db2b	-0.04122464
103	0xbef2a190	-0.47388887
104	0xbd98986c	-0.07450947
105	0xbf407692	-0.75180924
106	0xbc491fd2	-0.012275653
107	0xbe53294c	-0.20621222
108	0xbf12db5e	-0.5736598
109	0xbe14b0e6	-0.14520606
110	0x3da41bfd	0.08013151
111	0xbf2471ac	-0.6423595
112	0x39f794c7	0.0004722236
113	0xb8e1970a	-0.00010756969
114	0xbe057e23	-0.13036399
115	0xbe1c2ebb	-0.15252201
116	0xbc0a07df	-0.008424728
117	0xbe4b3d53	-0.19847612
118	0x3cc227ef	0.023700682
119	0x3ddd01b8	0.107913435
120	0x3d260371	0.040530626
121	0xbd5764ca	-0.052586354
122	0x3c03eb75	0.008051743
123	0x3c418733	0.011812019
124	0x3ca3dcd0	0.020002753
125	0xbec0edba	-0.3768137
126	0x3c9d8c42	0.01923192
127	0xbe87280d	-0.26397744

value_mlp.mlp.0.weight f4 [256, 16]
0	0x3d4ebe1f	0.050474282
1	0xbdd08087	-0.10180765
2	0x3d69015c	0.056886062
3	0x3e097f8c	0.13427562
4	0xbe188ec1	-0.14898206
5	0x3d074cf7	0.033032384
6	0xbd3ec5d7	-0.046575394
7	0xbda66fef	-0.081268184
8	0xbbfc3543	-0.007696779
9	0xbd8109d1	-0.063007005
10	0xbc9f4617	-0.019442601
11	0x3dd54360	0.104132414
12	0x3cc000c7	0.02343787
13	0x3df90257	0.121586494
14	0xbba9aad3	-0.0051778345
15	0x3d759f82	0.05996657
16	0x3d277338	0.040881366
17	0xbb88f7ea	-0.0041799443
18	0xbd4a1ea8	-0.049345642
19	0x3b3529c0	0.0027643293
20	0x3e1bc652	0.15212372
21	0x3c6ad917	0.014333985
22	0x3c8d320b	0.017235776
23	0xbb3d0ff7	-0.0028848627
24	0x3e18e9ab	0.14932887
25	0xbe97176d	-0.2951006
26	0xbe57d45c	-0.21077102
27	0xbc6d02fa	-0.014466042
28	0x3e98592e	0.2975554
29	0xbd41de49	-0.04733113
30	0x392ed33e	0.00016672627
31	0x3c0e0ab7	0.008669547
32	0xbd8766d4	-0.0661141
33	0x3d53e2d1	0.05172998
34	0xbec6cda5	-0.3882877
35	0xbd6b0dd8	-0.05738625
36	0x3d239aa4	0.0399424
37	0x3cd770a9	0.026298838
38	0xbd977e95	-0.073971905
39	0xbdd106df	-0.10206389
40	0xbd81f31e	-0.06345199
41	0xbce5e6ad	-0.028064096
42	0x3e54ddc5	0.20787723
43	0x3d810c3d	0.063011624
44	0x3ed6be40	0.41942024
45	0xbc8a912e	-0.01691493
46	0xbd6aa21d	-0.05728351
47	0x3c3b3da3	0.01142827
48	0xbe1c7206	-0.15277871
49	0x3c3939f9	0.011305326
50	0x3d9bcc4c	0.07607326
51	0xbe83a65c	-0.2571286
52	0x3e22614e	0.15857431
53	0xbe90ef1b	-0.28307423
54	0x3e12f516	0.14351305
55	0xbdb66142	-0.08905269
56	0x3c4462f6	0.011986485
57	0xbd850ccf	-0.06496584
58	0xbe1b4be9	-0.15165676
59	0x3e1f2095	0.15539773
60	0xbd9a04a8	-0.07520419
61	0x3f225321	0.63408095
62	0x3cf5c5ba	0.03000151
63	0x3f2d190a	0.6761633
64	0x3eb40709	0.35161617
65	0xbe3f0bdd	-0.18656869
66	0x3efcc488	0.4936869
67	0x3e26fa85	0.16306503
68	0x3e3defae	0.18548462
69	0xbdb31793	-0.08744731
70	0xbdbfc244	-0.09363225
71	0x3e34d214	0.17658263
72	0xbd0f9a42	-0.03505922
73	0x3de675ee	0.11252962
74	0xbd3a5e3a	-0.045500018
75	0x3df0cba2	0.1175759
76	0x3e4b0fd8	0.19830263
77	0xba8ebd91	-0.0010890235
78	0x3d80483f	0.0626378
79	0xbe5310f4	-0.20611936
80	0xbc03c1cf	-0.008041813
81	0xbd750c58	-0.059826225
82	0x3da11b80	0.07866573
83	0xbce4ddeb	-0.02793785
84	0x3c39eb0f	0.011347546
85	0xbbfec522	-0.007774965
86	0xbd0c574f	-0.03426295
87	0xbd674c25	-0.0564691
88	0xbb0bec11	-0.0021350423
89	0x3d1502c2	0.036379583
90	0x3dc4c490	0.09607804
91	0xba614418	-0.00085932156
92	0xbc2f9fe8	-0.010719277
93	0x3b3df1ee	0.0028983313
94	0x3b1ff39d	0.002440668
95	0xbd17a5ec	-0.03702347
96	0x3dd13afa	0.10216327
97	0xbce5cdd6	-0.028052252
98	0x3dd81193	0.10550227
99	0x3de2563f	0.110516064
100	0xbd0102fa	-0.03149698
101	0xbc8dce19	-0.01731019
102	0xbd95bfa7	-0.073119454
103	0xbcf0fcd2	-0.02941743
104	0xbd5f4d41	-0.054517034
105	0x3cd9d216	0.026589435
106	0x3edc1a9e	0.42989057
107	0x3d5da5b4	0.054113105
108	0x3e1e96b0	0.1548717
109	0xbc713eef	-0.014724477
110	0x3d814e51	0.06313766
111	0xbeaebbd7	-0.34127685
112	0x3ef47ba3	0.47750577
113	0x3e72517d	0.23663898
114	0x3e5d20c1	0.21594526
115	0x3e129e6f	0.1431825
116	0x3c6d8baf	0.014498635
117	0x3dc7cc3e	0.09755753
118	0xbdb5c94d	-0.08876286
119	0xbd5a7430	-0.05333346
120	0x3de63dfb	0.112422906
121	0x3d8c0609	0.068370886
122	0x3d325048	0.043533593
123	0xbe56fb0b	-0.20994203
124	0xbeec9a9c	-0.46211708
125	0xbdaa93b1	-0.08328951
126	0xbddef07d	-0.10885713
127	0xbd410b8a	-0.047130145
128	0x3be041ac	0.006843766
129	0x3da0a592	0.0784408
130	0xbe0ab362	-0.13544992
131	0x3d82acb9	0.063806005
132	0xbd866bd8	-0.06563538
133	0xbd750892	-0.059822626
134	0xbc874aa0	-0.016515076
135	0xbcbefb22	-0.023313109
136	0x3c137960	0.009001106
137	0xbdb9e3c9	-0.0907665
138	0xbe1492ed	-0.14509173
139	0xbd2c4c02	-0.042064674
140	0x3db58124	0.08862522
141	0x3dab0a3e	0.08351563
142	0xbc218d30	-0.009860322
143	0x3db2443b	0.0870442
144	0x3d1a5ff2	0.037689157
145	0xbdb2c94c	-0.087298006
146	0x3e57980c	0.21054095
147	0x3dc1a0e9	0.09454519
148	0x3c814949	0.015782015
149	0xbbadf9f1	-0.0053093364
150	0xbda8f4e9	-0.08249838
151	0x3d88e31a	0.06683941
152	0xbd14636b	-0.036227625
153	0xbe2b9728	-0.1675688
154	0x3e0195d7	0.12654816
155	0x3df22ad9	0.11824579
156	0x3e0e8987	0.1391965
157	0xbb5d0649	-0.003372567
158	0x3cea5aeb	0.028607806
159	0xbe1fa24f	-0.1558926
160	0x3dbd09cc	0.09230384
161	0x3bbd3846	0.0057745306
162	0xbd81ad28	-0.06331855
163	0xbce4ae67	-0.027915193
164	0xbd34c4ef	-0.044133123
165	0xbd3ac9dd	-0.045602668
166	0x3d2241b8	0.039613456
167	0xbd848812	-0.06471266
168	0xbc32522f	-0.010883852
169	0xbd92ac25	-0.0716174
170	0xbea08277	-0.31349537
171	0xbd48c0df	-0.04901206
172	0xbce5c7bd	-0.028049344
173	0x3ea0f2aa	0.31435138
174	0xbcaafd28	-0.020872667
175	0x3e4d7d9d	0.20067449
176	0xbc986987	-0.018605007
177	0x3d95ed3d	0.0732064
178	0xbcca6877	-0.024708016
179	0xbd720d05	-0.059094448
180	0x3bb5ad2e	0.0055443263
181	0x3cba5b08	0.022748485
182	0x3da859f8	0.08220285
183	0x3d31e57a	0.043431737
184	0xbd4bbaee	-0.049738817
185	0x3ce93b74	0.028470732
186	0x3c158b18	0.009127401
187	0xbd9205da	-0.07130022
188	0xbc16f39f	-0.009213357
189	0xbc93c11d	-0.01803642
190	0xbc54cf26	-0.012988841
191	0x3d14fb93	0.036372732
192	0x3dae3734	0.08506623
193	0x3d62ca92	0.055368967
194	0xbc020eb7	-0.007938079
195	0x3ca4d7d7	0.020122452
196	0xbafee80c	-0.0019447817
197	0x3d8a80ea	0.0676287
198	0xbd3b8d50	-0.045789063
199	0x3cad0952	0.021122608
200	0xbdafe498	-0.08588523
201	0x3e0c365a	0.13692608
202	0x3dd18adf	0.10231566
203	0xbd8038db	-0.06260844
204	0x3d1ed6f1	0.038779203
205	0x3d6180b3	0.055054378
206	0x3d6db144	0.05803038
207	0xbe0e512f	-0.13898157
208	0xbdc6bb84	-0.097037345
209	0xbdd888d1	-0.10572971
210	0xbd410b24	-0.047129765
211	0xbca93709	-0.020656126
212	0xbd2e0fd0	-0.04249555
213	0x3dadae2a	0.08480485
214	0xbdf0d877	-0.117600374
215	0x3d247c9a	0.04015789
216	0x3db09849	0.08622796
217	0x3e3c2943	0.18375115
218	0x3e38467d	0.17995639
219	0xbdbb56af	-0.09147393
220	0x3e66c567	0.2253624
221	0xbdbde737	-0.09272616
222	0xbd40eb7d	-0.04709958
223	0x3f09f6e8	0.53892374
224	0xbbf1b4b1	-0.0073762764
225	0xbd6296f1	-0.05531973
226	0xbde26572	-0.110545054
227	0x3d889340	0.06668711
228	0xbe47c4d2	-0.19508675
229	0x3d59c103	0.053162586
230	0xbd62ca5d	-0.05536877
231	0xbc73cee1	-0.014880867
232	0xbdf1bc84	-0.118035346
233	0xbe35f534	-0.17769319
234	0xbeec48af	-0.46149203
235	0xbae67189	-0.0017581444
236	0x3e1134d2	0.14180306
237	0xbea8b8b8	-0.3295343
238	0x3ca8490e	0.020542648
239	0x3eb29637	0.3488023
240	0xbd811166	-0.063021466
241	0xbdd2a78f	-0.102858655
242	0xbce897a8	-0.028392628
243	0xbd85036f	-0.064947955
244	0x3e236374	0.15955907
245	0xbdd5f8de	-0.10447858
246	0x3d0530ad	0.032517124
247	0xbb8fbc94	-0.004386494
248	0x3c099206	0.008396631
249	0xbc82f136	-0.015984159
250	0x3c2ee9a8	0.010675825
251	0x3e08f18a	0.1337339
252	0xbdbd8103	-0.09253123
253	0x3e36e410	0.17860436
254	0xbd83d227	-0.06436568
255	0x3e0c8af3	0.1372488

value_mlp.mlp.0.bias f4 [256]
0	0xbe36449a	-0.17799607
1	0xbf117653	-0.56821173
2	0x3ef0c7ae	0.47027344
3	0x3d6d4a02	0.057931907
4	0xbf110a35	-0.566562
5	0xbd32a1eb	-0.04361145
6	0x3dcbd6b3	0.0995306
7	0xbf35940a	-0.70929015
8	0x3c9aa501	0.018877508
9	0xbe3f2690	-0.18667054
10	0xbe85f513	-0.2616354
11	0x3ceeb8d0	0.02914086
12	0x3df6d129	0.12051613
13	0x3dbc8da6	0.09206705
14	0xbf5c4452	-0.8604175
15	0xbeda0820	-0.42584324
16	0xbf6c97f4	-0.9241936
17	0xbda7b7ab	-0.08189329
18	0xbda5fe57	-0.08105152
19	0xbe4edd43	-0.20201592
20	0x3e9c3cbb	0.30515084
21	0x3d109603	0.035299312
22	0xbf2ed5fc	-0.68295264
23	0xbf1f32a7	-0.62186664
24	0xbe04a362	-0.1295295
25	0xbef1a572	-0.47196537
26	0x3eaa99c3	0.33320436
27	0xbee00722	-0.43755442
28	0xbe41ddae	-0.1893222
29	0x3cc5ecd1	0.024160774
30	0x3f081d53	0.53169745
31	0xbec0a98a	-0.37629348
32	0xbeadfc66	-0.33981627
33	0x3edc3bb3	0.43014297
34	0xbe713170	-0.23554015
35	0xbe462963	-0.19351725
36	0x3edac9a4	0.42731965
37	0xbf210140	-0.6289253
38	0xbeb472ff	-0.35243985
39	0xbe0233ca	-0.12715068
40	0xbf45de15	-0.77291995
41	0xbda37725	-0.079817094
42	0xbeae8465	-0.34085384
43	0xbe451754	-0.1924718
44	0x3c897c3e	0.016782876
45	0xbe49d3d8	-0.19709718
46	0x3baedb68	0.005336214
47	0xbf0a61f4	-0.54055715
48	0xbd23780d	-0.03990941
49	0xbdcb354c	-0.09922275
50	0xbf3aeb66	-0.7301544
51	0xbcfe434d	-0.03103795
52	0x3d8143ae	0.06311737
53	0xbe94f61f	-0.29094025
54	0x3e80227b	0.25026307
55	0xbe8174cf	-0.2528443
56	0x3efa2604	0.4885713
57	0xbe1449f1	-0.14481331
58	0xbd68dd0e	-0.05685144
59	0x3d43f6bb	0.047842722
60	0x3e19811f	0.14990662
61	0xbf272c9f	-0.6530246
62	0x3e4b9d14	0.1988414
63	0xbe484d66	-0.19560775
64	0x3ed9b9a9	0.4252446
65	0xbea2221c	-0.31666648
66	0x3e730a8d	0.23734494
67	0x3db92835	0.09040872
68	0xbf1f3fd1	-0.6220675
69	0x3f1f4d59	0.622274
70	0xbefad365	-0.48989406
71	0x3d3f4c48	0.046703607
72	0xbe13b9c2	-0.1442633
73	0x3f519a50	0.8187609
74	0xbf20130f	-0.6252908
75	0xbf21661d	-0.6304644
76	0x3c8e2fbb	0.017356744
77	0xbcb5a4fc	-0.022173397
78	0x3f11de37	0.569797
79	0xbd607f01	-0.05480862
80	0xbe914486	-0.28372592
81	0xbd36d164	-0.044633284
82	0xbe5694f1	-0.20955254
83	0xbdcfbfb7	-0.101439886
84	0xbe15d856	-0.14633307
85	0xbcf0e53d	-0.029406184
86	0xbe6cd25f	-0.23127125
87	0xbebea974	-0.37238657
88	0x3de0b535	0.109720625
89	0xbe94b205	-0.29042068
90	0x3d670dec	0.05640976
91	0xbeec0733	-0.46099243
92	0xbf20ee1c	-0.62863326
93	0x3cc8d6c4	0.02451647
94	0xbe8f15b0	-0.27946234
95	0xbf204e5a	-0.62619555
96	0xbf2153b9	-0.63018376
97	0xbe20e3d3	-0.15711908
98	0x3cc522c6	0.024064433
99	0x3e9fb352	0.31191498
100	0x3c44b33e	0.012005625
101	0x3b926247	0.004467282
102	0xbdba2f27	-0.09091025
103	0xbb5d88e9	-0.0033803529
104	0xbf3acf49	-0.7297254
105	0xbfa01272	-1.2505629
106	0xbf58de85	-0.8471454
107	0x3e7d96db	0.24764578
108	0xbeb840b5	-0.35986868
109	0x3e437f92	0.19091633
110	0x3f1a744a	0.60333693
111	0x3e1d8424	0.15382439
112	0xbec0f757	-0.37688705
113	0xbdc75902	-0.09733774
114	0xbc66cc68	-0.01408682
115	0xbf4261c1	-0.7593041
116	0xbe91f0f3	-0.28504142
117	0xbecdd020	-0.4019785
118	0x3ee01a62	0.43770128
119	0xbe727a80	-0.23679543
120	0xbe93e6ca	-0.28887016
121	0xbe68a7c3	-0.22720246
122	0x3ef9c108	0.48780084
123	0xbd722f44	-0.059127107
124	0x3e0a1690	0.1348517
125	0xbf26c7cd	-0.6514862
126	0x3e92e87d	0.28693
127	0xbdad3ad3	-0.084584855
128	0xbdcc7a1d	-0.09984229
129	0x3c9712de	0.018441614
130	0xbeff9e96	-0.4992568
131	0xbf155902	-0.5833894
132	0xbeb14f05	-0.346306
133	0xbf0d9718	-0.55308676
134	0x3ddafb76	0.106924936
135	0x3dfef7a6	0.12449579
136	0xbf5d6046	-0.86475027
137	0x3db5abf2	0.088706866
138	0xbe66333d	-0.22480483
139	0x3d60b677	0.054861512
140	0xbf1fcd33	-0.62422484
141	0x3ec7f36c	0.39052904
142	0xbc0249ac	-0.007952135
143	0x3d093cfb	0.03350542
144	0x3ee4d963	0.44697103
145	0x3c9de3f2	0.019273732
146	0x3f6b1f3c	0.91844535
147	0x3dc08109	0.093996115
148	0xbf2c7e1f	-0.67379946
149	0x3cfc41d1	0.030793102
150	0xbcfe5454	-0.03104607
151	0x3e926675	0.28593794
152	0xbe8e1205	-0.27748123
153	0xbeb6c6ca	-0.3569854
154	0xbe2c9344	-0.16853052
155	0xbdc5cde6	-0.09658413
156	0xbf0dea25	-0.554354
157	0x3d4b6f0d	0.049666453
158	0xbf01a817	-0.5064711
159	0x3e62f4bb	0.2216367
160	0xbdd3d575	-0.10343448
161	0xbdec65d4	-0.1154286
162	0xbf8d179a	-1.1022828
163	0xbf4e9d2e	-0.8070859
164	0xbe04ee6e	-0.12981579
165	0xbe0b0f71	-0.13580109
166	0xbf0f23a8	-0.5591378
167	0xbe85ef9e	-0.26159376
168	0xbe4651fe	-0.19367215
169	0x3e8cb2e8	0.27480245
170	0x3f0eeb17	0.5582747
171	0xbee85b6e	-0.45382255
172	0xbdb24143	-0.08703854
173	0xbda9ec9c	-0.08297083
174	0x3ea7a083	0.32739648
175	0xbe4b632c	-0.1986205
176	0xbb6a040e	-0.0035707983
177	0xbd593101	-0.05302525
178	0xbd476c36	-0.048687182
179	0xbd628d1a	-0.055310346
180	0x3d922a4c	0.07136974
181	0x3e140fde	0.14459178
182	0x3db787d2	0.089614525
183	0xbe92d958	-0.28681445
184	0xbf8bb566	-1.0914733
185	0xbdecd252	-0.11563553
186	0x3e638330	0.22218013
187	0xbf0ff07c	-0.56226325
188	0xbf137d65	-0.5761321
189	0xbf5e14ca	-0.8675047
190	0xbeb05a55	-0.34443918
191	0xbd91424c	-0.07092723
192	0xbe6d899c	-0.23197025
193	0x3e47c1bb	0.19507496
194	0xbe9a0d5c	-0.30088317
195	0xbaabdcbd	-0.001311205
196	0xbf29af39	-0.66282994
197	0xbd09d615	-0.03365143
198	0xbef51bf4	-0.4787289
199	0xbd723201	-0.05912972
200	0xbf47c654	-0.78037
201	0xbd6123ab	-0.054965656
202	0xbc4245f8	-0.011857502
203	0x3d9e549d	0.077309825
204	0xbe900500	-0.28128815
205	0xbec1f17f	-0.3787956
206	0xbb25b968	-0.0025287513
207	0x3dfeedc6	0.124476954
208	0xbf3adb03	-0.72990435
209	0xbce37a29	-0.027768211
210	0x3bb17179	0.0054151383
211	0xbeb55ff6	-0.35424775
212	0xbdd2875a	-0.102797225
213	0x3d332ef7	0.04374596
214	0xbdd4275f	-0.10359072
215	0xbed6a1a2	-0.4192019
216	0xbe45d518	-0.1931957
217	0x3e78b0bd	0.2428617
218	0x3e938806	0.28814715
219	0x3e2cd380	0.16877556
220	0xbc287269	-0.010281184
221	0xbf3dd5ee	-0.74154556
222	0xbeca6d36	-0.39536446
223	0xbde1b9ba	-0.11021753
224	0xbf856fee	-1.0424783
225	0xbec6af7a	-0.38805753
226	0xbc0a6251	-0.008446292
227	0xbe91e647	-0.28496
228	0x3d825336	0.063635275
229	0xbe2c454a	-0.16823307
230	0xbde98eeb	-0.114042126
231	0xbd942f2c	-0.0723556
232	0x3d34e04b	0.044159215
233	0xbf223812	-0.63366807
234	0xbe9503e8	-0.29104543
235	0xbe9b73bb	-0.30361733
236	0xbf406434	-0.751529
237	0xbd21985a	-0.039451934
238	0xbee2ac0c	-0.44271886
239	0x3e26a97a	0.16275588
240	0xbf2a5f70	-0.66551876
241	0xbddb6db8	-0.107142866
242	0xbf5167be	-0.81798923
243	0xbc7e9ef4	-0.015540827
244	0xbdc87d61	-0.09789539
245	0xbf0dd8dc	-0.55409026
246	0xbd188b8d	-0.03724246
247	0xbdc91019	-0.098175235
248	0xbeb2187e	-0.3478431
249	0xbd7ae4ed	-0.061253477
250	0x3b07eaf5	0.002073941
251	0xbd010980	-0.0315032
252	0x3dbf3854	0.093369156
253	0x3d2a7f1c	0.041625127
254	0xbf41e4f2	-0.7573997
255	0xbe43e319	-0.191296

value_mlp.mlp.2.weight f4 [128, 256]
0	0x3d257271	0.040392343
1	0x3d3b630a	0.045748748
2	0xbe289a0e	-0.16465017
3	0xbcdc9587	-0.026926769
4	0x3df7423a	0.120731786
5	0x3c4f2825	0.012643849
6	0x3d3a171c	0.045432195
7	0x3e437594	0.19087821
8	0x3d2a67bb	0.04160283
9	0x3d39df2b	0.045378845
10	0x3d514b78	0.051097363
11	0x3dacb65a	0.08433218
12	0x3da5694c	0.080767244
13	0x3b5a9fb7	0.0033359358
14	0x3da4391f	0.080187075
15	0xbe11f2f4	-0.14252836
16	0x3e50dfff	0.20397948
17	0x3d82744b	0.063698374
18	0x3ddde747	0.10835128
19	0x3d4fde16	0.050748907
20	0xbdaded4e	-0.08492528
21	0x3d9d1ed7	0.07671898
22	0xbd445516	-0.047932707
23	0x3dc6188e	0.09672652
24	0xbdf6117f	-0.12015056
25	0x3e3940a0	0.18091059
26	0xbcaee9dc	-0.021351747
27	0x3dac7731	0.084211715
28	0x3de05184	0.10953048
29	0x3d9c4671	0.07630623
30	0xbd3364b6	-0.043797217
31	0x3e144117	0.14477955
32	0x3d59324a	0.053026475
33	0x3dc5a28d	0.09650145
34	0x3d1776ab	0.036978405
35	0xbc41ab36	-0.011820605
36	0xbd922d81	-0.071375854
37	0x3e62c90b	0.22147004
38	0xbe4dea33	-0.20108871
39	0x3cc97ef4	0.024596669
40	0x3cd4a813	0.02595905
41	0x3e46c725	0.19411905
42	0xbbbf4ecf	-0.005838252
43	0xbe1a2785	-0.15054138
44	0x3dc5d9ca	0.096606806
45	0x3e24be4f	0.16088222
46	0xbd38c1c7	-0.045106675
47	0xbe19286d	-0.14956827
48	0x3d71042d	0.058841873
49	0xbd78db89	-0.06075624
50	0x3d5cd6bc	0.053915724
51	0xbe04403d	-0.1291513
52	0xbd9ce6eb	-0.076612316
53	0x3dfbafd0	0.12289393
54	0xbdf3d6d3	-0.11906209
55	0xbda4f468	-0.08054429
56	0xbdde05fe	-0.10840987
57	0x3d2d5ad3	0.042322945
58	0x3d2a68e1	0.041603927
59	0xbde596b9	-0.11210389
60	0xbdc3e2ff	-0.095647804
61	0x3d924ffa	0.071441606
62	0x3d942bc8	0.07234913
63	0x3b5e6ea3	0.0033940456
64	0xbd607554	-0.054799393
65	0x3d03371e	0.032034986
66	0x3d8cc34b	0.06873187
67	0x3df4733f	0.11936044
68	0x3dac8144	0.08423093
69	0x3d9bbd3a	0.076044515
70	0x3e24fa30	0.16111064
71	0xbd7d27b6	-0.06180545
72	0xbc2242fb	-0.009903665
73	0xbd3ba7f8	-0.045814484
74	0x3daca2e4	0.084295064
75	0xbc89c8df	-0.016819416
76	0x3bd4a5e2	0.0064895013
77	0xbdc257a7	-0.094893746
78	0xbd95cf94	-0.07314983
79	0xbdd4aebc	-0.103848904
80	0x3d658378	0.05603358
81	0xbd8584ba	-0.06519456
82	0x3bfcf139	0.0077191857
83	0xbddb9704	-0.10722163
84	0x3b02fe6a	0.0019988068
85	0xbd3cd95f	-0.04610574
86	0xbd664ad6	-0.056223713
87	0x3dcd84ea	0.10035117
88	0xbdda29c8	-0.106525004
89	0x3c9febf7	0.019521696
90	0xbd09f94f	-0.033685025
91	0xbd2d167a	-0.042257763
92	0xbda90c65	-0.08254317
93	0x3d4beaba	0.0497844
94	0x3bc34053	0.005958596
95	0xbcc194e3	-0.023630565
96	0x3ccae835	0.024768928
97	0xbcfef6e1	-0.03112358
98	0xbcb8a6f2	-0.022540543
99	0x3cebd826	0.028789591
100	0xbdc624c6	-0.09674983
101	0xbdc28f30	-0.09499967
102	0x3dbd16e4	0.09232882
103	0xbdfed0e5	-0.12442187
104	0xbc473b05	-0.012160067
105	0x3da7a4b3	0.08185711
106	0xbcdcee8b	-0.026969215
107	0xbe101244	-0.14069468
108	0x3de55d79	0.11199469
109	0xbde57820	-0.11204553
110	0x3d9dabba	0.0769877
111	0xbc6d45bd	-0.014481959
112	0x3e0bfc0f	0.13670371
113	0x3d76ec40	0.0602839
114	0xbe4611f5	-0.19342788
115	0x3d3c3f0d	0.045958567
116	0x3cdf461a	0.027255107
117	0x3d8c4cc0	0.068505764
118	0x3e1416dd	0.14461847
119	0x3b458c18	0.0030143317
120	0xbcb17aab	-0.021664938
121	0x3d4fe6a4	0.050757065
122	0xbcad38c3	-0.02114523
123	0xbcd4245f	-0.02589625
124	0x3c37222a	0.011177579
125	0xbd2f6616	-0.042821966
126	0x3cf04c79	0.02933334
127	0x3df0a22a	0.1174968
128	0xbd044281	-0.032289986
129	0xbc6a98aa	-0.0143186245
130	0x3cc3762b	0.023860058
131	0x3e3a071f	0.18166779
132	0xbe08a052	-0.13342407
133	0x3d1eeeff	0.038802143
134	0x3d1aeef6	0.037825547
135	0xb8817313	-6.1726336e-05
136	0x3ddad02f	0.10684239
137	0x3d98a860	0.0745399
138	0x3d86e393	0.06586375
139	0x3d08a6b2	0.033362098
140	0xbd6a7ed0	-0.057249844
141	0xbe5e1bff	-0.21690367
142	0xbd228232	-0.039674945
143	0x3d2686a4	0.040655747
144	0x3dac1c05	0.08403782
145	0xbd23b411	-0.039966647
146	0x3db7fb25	0.08983449
147	0x3e2b0cda	0.16704121
148	0x3cbbd4f6	0.022928696
149	0x3e18165a	0.14852276
150	0xbd56b178	-0.05241534
151	0x3d899549	0.06717927
152	0x3e025bec	0.12730378
153	0xbd222a84	-0.039591327
154	0xbdb0d6ca	-0.08634718
155	0x3d85f2e3	0.065404676
156	0x3d9f58e6	0.07780628
157	0xbdba7304	-0.09103969
158	0xbca5b7d7	-0.020229263
159	0x3d90e657	0.07075184
160	0xbb3f925e	-0.0029231529
161	0xbcfef604	-0.031123169
162	0xbcf60565	-0.03003187
163	0xbe0cacdc	-0.13737816
164	0xbd8baf94	-0.06820598
165	0x3d99a6f3	0.07502546
166	0xbda4a324	-0.08038929
167	0xbd5cc8c6	-0.05390241
168	0xbb077a64	-0.0020672316
169	0xbd8e5ab0	-0.06950891
170	0xbcd533f3	-0.026025748
171	0x3e0a162a	0.13485017
172	0xbe2bb921	-0.1676984
173	0xbc8b83d6	-0.017030638
174	0x3db0be99	0.086301036
175	0xbce88dea	-0.028387982
176	0xbcfcd21a	-0.030861903
177	0xbd56552e	-0.052327327
178	0xbc1119e0	-0.008856267
179	0xbd276f48	-0.04087761
180	0xbe3317dc	-0.1748957
181	0x3d9a585c	0.075363845
182	0x3d97be08	0.074092925
183	0xbd27d07b	-0.040970307
184	0xbd82fb67	-0.063956074
185	0x3e108b4d	0.14115639
186	0xbd1b2301	-0.03787518
187	0x3d199391	0.037494246
188	0xba412d63	-0.0007369129
189	0x3d813d77	0.063105516
190	0x3e1ed33e	0.1551027
191	0xbda6c0cf	-0.08142244
192	0xbcb5db0c	-0.022199176
193	0xbd2d58ca	-0.042321004
194	0xbdf5837b	-0.119879685
195	0x3ccd490f	0.025059251
196	0x3e4bce02	0.19902804
197	0x3d871ec5	0.06597666
198	0x3dadeb6e	0.0849217
199	0x3de9c501	0.11414529
200	0x3dd249f5	0.102680124
201	0x3d710174	0.058839276
202	0xbd86b5c0	-0.06577635
203	0xbdb12480	-0.0864954
204	0xbcfd5caa	-0.030927975
205	0x3e235d74	0.15953618
206	0x3cbefdd8	0.023314402
207	0x3d638581	0.05554724
208	0xbdf91440	-0.121620655
209	0xbdfbe116	-0.12298791
210	0x3d6c6acf	0.057719048
211	0xbd6a769b	-0.057242017
212	0x3c930671	0.017947407
213	0xbcba07e3	-0.022708839
214	0x3e163003	0.14666753
215	0x3e0b78a5	0.13620241
216	0x3d9feb56	0.07808559
217	0xbd2ca767	-0.042151835
218	0xbd79448d	-0.06085639
219	0xbdfb0188	-0.122561514
220	0x3d719f9d	0.05899011
221	0xbc5daeb8	-0.013530426
222	0xbd6d8ff4	-0.057998613
223	0xbc96e7e7	-0.018421127
224	0x3e0a3274	0.13495809
225	0xbd342c4e	-0.043987565
226	0x3cae2684	0.0212586
227	0x3d13f2b2	0.036120124
228	0x3c368ff1	0.011142717
229	0xbc2fe195	-0.010734935
230	0x3d4dafa2	0.050216325
231	0xbbfeec84	-0.0077796597
232	0x3d9fe1b1	0.07806719
233	0xbd56fa24	-0.052484646
234	0xbd3e2732	-0.0464241
235	0x3c51ec62	0.012812706
236	0xbcd7601e	-0.02629095
237	0xbd852898	-0.06501883
238	0x3db9fc41	0.09081317
239	0xbb512686	-0.003191383
240	0x3df01633	0.11722984
241	0x3d5e0e8e	0.0542131
242	0x3d9d7513	0.07688346
243	0x3e224002	0.1584473
244	0x3cba12fc	0.02271413
245	0x3d6ac8a3	0.05732025
246	0x3c9160b3	0.017746305
247	0x3e12b82b	0.14328067
248	0x3d9f9930	0.0779289
249	0x3a8513e6	0.0010153025
250	0x3dd73b8c	0.105094045
251	0x3d9da4a3	0.076974176
252	0xbd858dc2	-0.06521179
253	0x3db81e04	0.089901
254	0xbdcec880	-0.10096836
255	0x3bc7fa5f	0.0061028446

value_mlp.mlp.2.bias f4 [128]
0	0xbdaa36b1	-0.08311213
1	0x3d9d83b9	0.0769114
2	0xbe9b294f	-0.30304953
3	0xbf0827f7	-0.5318598
4	0x3dd944cd	0.10608826
5	0xbd753cb1	-0.059872333
6	0x3d3f624a	0.046724595
7	0x3db36387	0.08759218
8	0x3dc66037	0.0968632
9	0xbcf8b355	-0.03035895
10	0xbd9d7cc5	-0.076898135
11	0xbdb4a0ec	-0.08819756
12	0x3dc7f411	0.09763349
13	0xbe461b6d	-0.193464
14	0xbe800941	-0.2500706
15	0xbdd9ccac	-0.10634741
16	0xbec86275	-0.39137617
17	0xbdc8388b	-0.0977641
18	0xbe3efc09	-0.18650831
19	0x3d55b067	0.052170184
20	0xbc3e0e5a	-0.011600101
21	0xbd4b6f6a	-0.0496668
22	0xbe2cc4d9	-0.16871966
23	0x3d91a086	0.071106955
24	0x3d8f43f6	0.069953844
25	0x3d68c439	0.056827758
26	0xbd924ce8	-0.07143575
27	0xbdd012d5	-0.10159842
28	0xbdb35950	-0.087572694
29	0x3b535935	0.0032249216
30	0xbddf8037	-0.10913127
31	0xbda3e4c5	-0.08002619
32	0xbd41c7d0	-0.047309697
33	0xbd90b917	-0.07066553
34	0x3dcf57f3	0.10124197
35	0xbdbd917d	-0.09256265
36	0xbdc8e1dc	-0.09808704
37	0x3b4bf219	0.0031119643
38	0x3ca4920c	0.020089172
39	0xbdc68836	-0.09693949
40	0xbe6982d9	-0.2280382
41	0xbda07e53	-0.078365944
42	0xbe3e030f	-0.18555854
43	0xbab7da07	-0.0014026769
44	0xbd9fec47	-0.07808738
45	0xbdd33e18	-0.10314578
46	0x3dc6ee24	0.097133905
47	0xbdb517d6	-0.08842437
48	0x3d8d40b2	0.06897105
49	0x3cbd3a89	0.0230992
50	0xbda798e2	-0.08183457
51	0xbf3def02	-0.7419282
52	0x3dcc1b47	0.0996614
53	0x3da84c6a	0.082177
54	0x3d51420c	0.051088378
55	0xbe2c06c9	-0.16799463
56	0x3d6e911e	0.058243863
57	0x3db99fa7	0.090636544
58	0xbdcdfc2e	-0.10057865
59	0xbe988371	-0.29787782
60	0xbd89bbbd	-0.06725261
61	0xbda1df62	-0.07903935
62	0xbdc0ce6d	-0.094143726
63	0xbd8480ec	-0.064699024
64	0x3d5dcea0	0.05415213
65	0x3d291594	0.041280344
66	0xbdb09525	-0.08622197
67	0xbdea9dad	-0.114558555
68	0xbdccadc9	-0.099940844
69	0x3d891a40	0.0669446
70	0x3c3e6936	0.011621764
71	0xbe91bdea	-0.28465205
72	0x3d05e09e	0.032684915
73	0x3d7566f2	0.05991263
74	0xbd9e337b	-0.07724663
75	0xbd65b2ea	-0.05607883
76	0xbdd1cbfd	-0.10243986
77	0xbddb3737	-0.10703891
78	0xbddf640d	-0.10907755
79	0x3a8d770d	0.0010792926
80	0xbd895c82	-0.067070976
81	0xbdaceb5f	-0.08443331
82	0xbcd259f6	-0.025677662
83	0x3d44648d	0.047947455
84	0x3d577a53	0.05260689
85	0x3da93393	0.0826179
86	0xbde8bf2c	-0.11364588
87	0xbe0ee332	-0.13953856
88	0x3d805104	0.062654525
89	0xbd9bbca6	-0.07604341
90	0xbda45905	-0.08024792
91	0x3e153cbd	0.14573951
92	0x3d0c70f2	0.0342874
93	0xbdbc8afb	-0.09206196
94	0xbda54293	-0.08069339
95	0xbdb05d03	-0.086114906
96	0xbda4f6fe	-0.080549225
97	0xbd70d46c	-0.05879633
98	0xbd60d071	-0.054886285
99	0xbf75d5cc	-0.96029353
100	0xbda86a55	-0.08223406
101	0xbda122a0	-0.07867932
102	0x3ccee406	0.025255214
103	0xbddfa041	-0.10919238
104	0xbe0e2e04	-0.13884741
105	0xbc812d70	-0.015768737
106	0xbdc7e47e	-0.09760378
107	0x3d0fd758	0.035117477
108	0xbdb1afb5	-0.086760916
109	0xbdc7b20c	-0.097507566
110	0x3d0d4371	0.034488145
111	0xbe0363f1	-0.12831093
112	0x3de20fcf	0.110381715
113	0xbce2ee1f	-0.027701436
114	0xbda0bcfa	-0.078485444
115	0xbec7042b	-0.38870367
116	0x3d927425	0.07151059
117	0x3d9b0326	0.0756896
118	0x3dae5d80	0.085139275
119	0xbd9cfbf8	-0.07665247
120	0x3dbe58c5	0.09294275
121	0x3daf62b8	0.08563751
122	0x3d69bedb	0.05706678
123	0x3cca04df	0.024660526
124	0x3d9617e2	0.07328774
125	0x3d0568b4	0.032570556
126	0xbdac99b5	-0.08427755
127	0xbda67108	-0.08127028
